app/src/main/assets/classifier.tflite (tflite, 443560 bytes, 13 tensors)

sequential_1/conv1d_1/BiasAdd/ReadVariableOp f4 [64]
000000 da ef 17 3d 76 0a 65 3d 1f f2 be 3d 16 42 94 bb
       0.037093975 0.05591818 0.09323525 -0.0045244796
000010 06 71 5f bb 5e e2 8c bd 5b 3e 09 bc f8 1e 87 bc
       -0.0034094467 -0.068791136 -0.008376683 -0.01649426
000020 88 2a 5e b7 02 49 33 ba 1d d6 a4 3d 55 f4 13 3d
       -1.3242134e-05 -0.0006839187 0.08048651 0.036121685
000030 38 10 8f bb b3 4d a4 3c 6a 69 c1 bc 91 c5 15 bd
       -0.004365947 0.020056581 -0.023609836 -0.036565367
000040 79 48 e6 bb 0a 32 02 3e 89 60 78 bb 11 50 b7 3d
       -0.0070276824 0.12714401 -0.0037899336 0.08950818
000050 60 62 77 b9 3b 05 1c 3e 96 d7 c5 bb aa aa 20 bb
       -0.00023592403 0.1523637 -0.0060376627 -0.0024515786
000060 e9 60 81 bd 05 65 b6 bd 4b 13 42 ba 7f 95 ab bc
       -0.06317312 -0.08905987 -0.00074033876 -0.020945309
000070 5a e7 88 bd ee 08 f3 3d c9 4e 99 3c d0 27 04 b9
       -0.06684752 0.118669376 0.018714326 -0.00012603332
000080 25 06 d3 3d c1 6a 81 bc bf f2 64 3d 48 ac 88 3d
       0.10303906 -0.015797975 0.055895563 0.06673485
000090 f6 39 91 3c 8e a1 a0 bc 63 1a 03 b6 a4 6b d2 3c
       0.017727833 -0.019608285 -1.953588e-06 0.025686093
0000a0 a3 4b e3 b9 bc 2b 05 3e 1b 59 3d bc 2a 76 2d 3e
       -0.00043353168 0.13004965 -0.011556889 0.16939607
0000b0 9d b5 a7 bd a0 3b da 3d 61 94 94 bc 26 22 d1 bb
       -0.08188937 0.10655904 -0.018137159 -0.0063822446
0000c0 8f d9 60 b7 27 41 01 bd 0f d6 e1 b8 4c af af bd
       -1.3402095e-05 -0.031556275 -0.000107687076 -0.08578357
0000d0 4d a5 82 bd 7b b0 0b bc 84 1c 87 bc b7 aa 0d bd
       -0.06379185 -0.008525963 -0.01649309 -0.034586634
0000e0 2e 72 78 3d 23 1c a4 3c 0f 6b 9c 3c 05 a0 dc 3c
       0.060655765 0.020032948 0.019094018 0.026931772
0000f0 d2 24 c6 b9 89 00 fa 3d c2 58 7c bd 0e 2f 15 3e
       -0.00037792936 0.12207133 -0.061608084 0.14568731

sequential_1/conv1d_2/BiasAdd/ReadVariableOp f4 [128]
000000 35 fb d3 bc 16 92 35 bc 72 8c d9 bb 7a 46 5a bc
       -0.02587662 -0.011082193 -0.006639057 -0.013322467
000010 91 eb 23 3d a5 70 fd bb 3f 1e f5 bc ee 34 1d 3d
       0.040019576 -0.0077343755 -0.029921649 0.038380556
000020 f8 46 1e bc 0a c5 15 bc 25 41 d1 3b a0 d9 78 3b
       -0.009660475 -0.009141216 0.0063859397 0.0037971511
000030 57 94 72 bd bf 1c 4c 3d 1e 90 68 3d c6 e7 bb 3c
       -0.0592235 0.049832102 0.056778066 0.022937667
000040 51 de b7 3b 1c 6a 84 3d f6 9d 05 bc 92 7e 33 3d
       0.005611219 0.06465551 -0.008155337 0.04382188
000050 a9 34 4b bd 1f 0e c7 3c a6 99 03 3c b6 bc bf bc
       -0.049610768 0.024298726 0.008032238 -0.023405414
000060 00 08 d9 bb 3e 81 1a bd c9 00 98 3c 66 01 90 bd
       -0.006623268 -0.03772091 0.018555062 -0.07031517
000070 c1 f6 68 3c bf dc 3d bd ad 1c cf 3a 6f 8d 3f bc
       0.014218987 -0.046353098 0.0015801393 -0.011691435
000080 f1 94 74 3d 38 a1 70 3d 14 43 0e 3c db 13 04 bc
       0.059712354 0.0587475 0.008682985 -0.008061375
000090 69 23 92 3d f1 ed ad 3d c8 d8 f0 3d 63 37 cd bc
       0.0713566 0.08492649 0.11760098 -0.025050825
0000a0 b5 66 9a 3d b9 61 4c b9 55 ab 6a 3d 33 b1 25 3d
       0.07539121 -0.0001949136 0.0572923 0.040452193
0000b0 5d ef d1 bc ee 98 e3 3b 10 59 14 bc 50 ce 49 bd
       -0.025626833 0.006945721 -0.009054437 -0.04926902
0000c0 61 c0 f4 3d aa b0 45 3a 2e 92 42 3d a9 25 83 ba
       0.11950756 0.00075412786 0.04750269 -0.001000573
0000d0 0b c8 c0 3d 84 35 d4 bc 1a a7 bb 3c f0 3b fa 3d
       0.09413155 -0.025904424 0.022906829 0.122184634
0000e0 93 84 0c 3a 02 24 9d ba 08 b3 25 bc 7d 41 d2 3c
       0.0005360331 -0.001198888 -0.010113485 0.025665993
0000f0 d4 af f8 bc cf 79 96 bb 2d c7 1f 3d cc ba 26 bd
       -0.030357279 -0.0045921574 0.03900831 -0.040705487
000100 e1 c1 90 bc da 10 06 3e 2c b2 60 3d 3c 1b 1b bd
       -0.017670574 0.13092366 0.054857418 -0.03786777
000110 92 0a 64 3c e0 5d 9f bc 02 9c 12 bc f1 dd a7 3d
       0.013918536 -0.019453943 -0.008948328 0.08196629
000120 c1 fa 4f 3d 72 25 ce bc 51 f4 e1 3d 3d 87 04 3d
       0.050776247 -0.02516434 0.11032928 0.032355536
000130 c1 11 f3 3c a3 45 18 3b f3 b1 69 3d 8e de 36 bc
       0.029671552 0.0023234866 0.05705447 -0.01116146
000140 6a 1d b9 bc 3b f6 27 3d 74 23 49 bc 3f f1 5e 3d
       -0.022597034 0.041006308 -0.012276519 0.05442929
000150 a2 b1 12 3d eb c2 6e 3d 03 4b d8 bc 65 4c 89 3d
       0.035813935 0.058291357 -0.026402956 0.06704024
000160 95 54 55 bc 14 7a 99 3d 97 ea ac 3c 2c ab 03 bd
       -0.013020654 0.07493988 0.021107955 -0.032145664
000170 2d 03 86 3d db e3 8e bc 9f 6e 78 bc 49 5d cd bc
       0.065435745 -0.017442634 -0.015163093 -0.025068896
000180 6f 6a bd 3c 1a 1f e2 3c b8 91 8a bd e5 a1 b3 bc
       0.02312204 0.027602721 -0.06766075 -0.021927783
000190 c2 eb 10 bd 7a 46 94 bb 21 bd bd 3d 77 1f 33 bd
       -0.035381086 -0.004525003 0.09264589 -0.04373118
0001a0 23 8f ed 3c 33 5b 18 bc fd b4 6a bc c8 b2 42 bb
       0.028998917 -0.009299087 -0.0143253775 -0.0029708613
0001b0 46 4e 29 3d e6 6d 0a bb 11 c0 6b bb ba 14 b3 3d
       0.041334413 -0.0021122633 -0.0035972635 0.08744188
0001c0 e2 5a 05 3d d7 f3 af 3c 59 71 81 ba a9 cc 3e bc
       0.032557376 0.021478577 -0.0009875699 -0.0116454745
0001d0 6a 7e 9c bc 3b 1f 99 3d 5c ab 9f 3d bd f7 29 3c
       -0.019103248 0.0747666 0.07796356 0.010374007
0001e0 26 d6 c2 bc 01 88 65 bc 74 cc 9e 3d c3 6a 33 3d
       -0.023783755 -0.014009477 0.0775384 0.043802988
0001f0 39 42 9b 3c b8 64 50 3d 85 ab bc 3d 78 4d a3 bc
       0.018952476 0.050877303 0.09212402 -0.0199344

sequential_1/dense_1/BiasAdd/ReadVariableOp f4 [5]
000000 90 b7 8c be af a9 da be 70 2e c1 be 38 4e 85 be
       -0.27483797 -0.42707583 -0.37730742 -0.2603624
000010 87 f8 49 be
       -0.19723712

sequential_1/lstm_1/BiasAdd/ReadVariableOp/resource f4 [256]
000000 f7 05 fe 3c 42 b8 81 3c fa 1e e6 3c b4 13 8d 3c
       0.031008704 0.015834931 0.028090943 0.01722131
000010 33 40 96 3d 9f 31 2c 3d 07 8b 2e 3c cb 6d 0f bd
       0.07336464 0.04203951 0.010653264 -0.035016816
000020 0b 45 0a 3d b8 77 9b 3b 84 48 68 3d 89 20 3a 3d
       0.03375725 0.004744496 0.05670978 0.045441184
000030 ef 47 81 bd 35 a6 41 bc 73 02 08 3d 4f 3f e6 3c
       -0.06312548 -0.011819412 0.03320546 0.02810636
000040 28 55 37 3d 04 72 0f 3d bd 3c 93 3d 63 b6 27 3d
       0.044758946 0.035020843 0.07189319 0.040945422
000050 3c f7 52 bc c8 ce 7b 3b de 3f 1d 3d 92 6f ee 3c
       -0.012876328 0.0038422812 0.038390987 0.029105935
000060 65 92 e9 bc 4f c5 40 bc a9 e4 ca 3b 38 66 2c bd
       -0.02851219 -0.011765792 0.006191809 -0.04208967
000070 32 1d 15 bd ae 40 9b 3c 31 94 53 3d 20 dc be bc
       -0.036404796 0.01895174 0.051655 -0.023298323
000080 0d 53 67 3c 32 83 0b 3d f5 ac 8d 3b 47 f4 54 3d
       0.014118922 0.034060664 0.0043235966 0.051990774
000090 fa 86 7e 3d db f5 02 3d 93 f9 9e 3c 3f 77 4b bc
       0.062140442 0.031972747 0.019406116 -0.012418567
0000a0 65 4b 06 3d 3d c4 48 3d 46 b6 f5 3b 0b fe e3 3b
       0.032786746 0.049015272 0.0074985353 0.0069577745
0000b0 29 af 9f 3c 2d 12 0c bc 5e 78 18 3d d8 6c b3 3c
       0.019492703 -0.008549255 0.037224166 0.021902487
0000c0 73 ef ca bc ba d1 05 bd 1b e3 2f bd 1c 8e 31 3d
       -0.024772381 -0.032670714 -0.042941194 0.043348417
0000d0 75 24 88 bd 25 0d 05 3d 7c a8 8c bc 60 a7 0b 3c
       -0.066475786 0.03248324 -0.017170183 0.008523792
0000e0 0a f9 00 bd 22 91 eb 3c 86 85 5a 3d 2d b9 96 3c
       -0.031487502 0.028755728 0.053349994 0.018398846
0000f0 fc 22 43 3d 27 e9 c2 bc 70 7b 10 bd 15 16 d9 3c
       0.047640786 -0.023792816 -0.03527397 0.026499787
000100 d2 e6 89 3f fc fe 80 3f 8d d7 7f 3f e5 c3 87 3f
       1.0773566 1.0077815 0.9993828 1.0606657
000110 b5 af 8e 3f da c3 88 3f 94 a6 88 3f 66 55 8b 3f
       1.1147372 1.0684769 1.0675836 1.0885437
000120 f5 83 8c 3f 38 e1 84 3f be 56 85 3f ff 19 88 3f
       1.097777 1.0381231 1.0417097 1.0632933
000130 a7 39 91 3f 73 2e 81 3f 3a e2 85 3f 89 71 87 3f
       1.1345719 1.00923 1.0459664 1.0581523
000140 bf 0f 8b 3f 2a 87 87 3f 60 8d 8e 3f 54 66 88 3f
       1.086418 1.0588124 1.1136894 1.0656228
000150 b6 ce 89 3f 53 42 85 3f ce 4e 88 3f 1e 52 86 3f
       1.0766208 1.0410866 1.0649049 1.049381
000160 be 03 81 3f b5 39 8f 3f 79 f0 80 3f dd 36 84 3f
       1.0079267 1.1189486 1.0073386 1.0329243
000170 1b 19 8d 3f 48 51 82 3f 91 8d 8a 3f 9c b0 82 3f
       1.1023287 1.0181055 1.0824453 1.0210147
000180 f0 29 84 3f 35 f9 80 3f 58 ce 84 3f 71 f4 88 3f
       1.0325298 1.0076052 1.0375471 1.0699598
000190 06 73 8a 3f b0 21 84 3f 21 62 7b 3f 89 dc 84 3f
       1.0816352 1.0322781 0.9819661 1.0379802
0001a0 84 3d 87 3f e0 b4 82 3f 6b b2 84 3f 32 11 84 3f
       1.0565648 1.0211449 1.0366949 1.0317748
0001b0 b7 9e 88 3f c2 0c 93 3f 9a 20 8a 3f f9 b1 87 3f
       1.0673436 1.1488268 1.0791199 1.0601188
0001c0 fe 60 83 3f f2 8f 8c 3f 6b a4 82 3f ae 89 8c 3f
       1.0263975 1.0981429 1.0206426 1.0979517
0001d0 94 26 96 3f 18 c9 81 3f 65 6d 81 3f cf 8d 8c 3f
       1.1730523 1.0139494 1.011151 1.0980777
0001e0 18 fa 7c 3f c1 a7 87 3f c6 f6 83 3f 58 69 8a 3f
       0.9881911 1.059807 1.0309684 1.0813398
0001f0 d9 e6 89 3f ab 90 88 3f 6f 5d 85 3f 48 cd 88 3f
       1.0773574 1.0669149 1.0419139 1.0687647
000200 d5 f5 62 3d 81 85 30 3c a3 1d 5b 3d fe b2 90 bc
       0.055410225 0.010774017 0.05349506 -0.017663475
000210 7b d2 e6 bc 2f cd 0e 3d 39 c9 c2 bc 5a b9 19 3c
       -0.028176537 0.034863647 -0.023777591 0.00938257
000220 ec 96 cb bc e5 bf 67 bc c3 7c b2 3b c5 74 8b bd
       -0.024852239 -0.014144872 0.0054470017 -0.068093814
000230 af 4f 4a bc 19 d1 52 bc 36 e3 34 bd 49 a8 48 3c
       -0.0123481 -0.012867236 -0.044161998 0.012247154
000240 fa 05 03 bc 72 de 91 bd 55 34 a3 ba 1b 67 94 3d
       -0.00799703 -0.07122506 -0.0012451509 0.07246228
000250 94 7b e7 bc da 15 e9 3b 3d 2f 00 bd 7c 97 08 3d
       -0.028257169 0.0071132006 -0.03129505 0.03334759
000260 0d fd af bc c0 d2 c4 bb 2b c7 15 bc 67 f4 a9 3c
       -0.021482969 -0.0060065687 -0.009141724 0.020746423
000270 bc a7 c3 3b 1f bd 45 3c be a6 7d bd f6 72 ed ba
       0.005970923 0.012069016 -0.061926596 -0.0018115926
000280 6d 46 86 3d 8f fd f1 bc e7 c1 93 3d e1 8a 06 3d
       0.065564014 -0.029539851 0.07214718 0.03284729
000290 77 37 93 bd a7 6d 5f 3d 80 e1 01 3c 43 8f 82 ba
       -0.071883135 0.054547932 0.007927299 -0.0009960908
0002a0 e6 03 28 bd 04 1a 41 3b ab fc 85 3c bb d0 78 bc
       -0.041019343 0.002946497 0.016355833 -0.015186484
0002b0 34 ce 00 bd 87 79 03 3d ad bf 87 3d 07 44 2c bd
       -0.03144665 0.03209832 0.06628356 -0.042057063
0002c0 23 3f 97 3b 27 23 9c bc f1 0e cb bb 51 92 c7 3b
       0.004615681 -0.01905973 -0.0061968495 0.0060904403
0002d0 e6 30 2d 3d ff 3e 38 bc 07 9d 30 3c 54 01 0a bd
       0.04228296 -0.011245488 0.010779626 -0.033692673
0002e0 9d 08 b6 3c 64 59 6c 3d 6f a7 0b 3d f8 db 34 bc
       0.022220904 0.057702437 0.034095224 -0.011038773
0002f0 f0 ed a1 bd 36 29 73 3c f1 86 20 3d 89 62 08 3b
       -0.07906711 0.014841368 0.03919119 0.0020810685
000300 19 2d 26 3e 6b 52 a3 bb 79 5d 96 3d 3c d3 d1 3d
       0.16228141 -0.00498419 0.07342047 0.10245368
000310 f0 c9 24 3e 47 75 af 3d 85 f2 fa 3d a7 38 d5 3d
       0.16092658 0.08567291 0.12253288 0.10411196
000320 6e a7 8d 3d eb 87 a1 3d d6 df e6 3d 50 e1 15 3e
       0.069167 0.078872524 0.11273162 0.14636731
000330 55 4c e2 3d 8f c8 0c 3d 26 7f 8e 3d 9d ab 47 3d
       0.110497154 0.034370955 0.069578454 0.048747648
000340 54 a5 8a 3d 00 79 1b 3e 94 b5 fe 3d 59 96 84 3d
       0.06769815 0.15182877 0.12436977 0.06473989
000350 ea f9 62 3d 55 8c 28 3d 6f bb 1b 3e c4 ff f2 3d
       0.055414118 0.041149456 0.15208219 0.1186519
000360 e8 3d de 3c 05 fb f8 3d 59 9b 5a 3d cd 2a 8c 3d
       0.027129129 0.12157253 0.053370807 0.06844101
000370 ce db 3c 3c ad a4 ce 3d 84 d4 14 3e 6b 7d 8d 3d
       0.011527015 0.10090003 0.14534193 0.06908687
000380 15 ce 15 3e 9d 17 94 3d 60 1c ef 3d 2c 74 b1 3d
       0.14629395 0.072310664 0.11675334 0.08664736
000390 33 7f 48 3e cd e7 96 3d 03 d0 81 3d 72 20 2e 3c
       0.19579773 0.07368431 0.06338503 0.010627853
0003a0 6a 97 c0 3d 6b 15 d0 3d db 99 92 3d 6c ff bc 3d
       0.0940388 0.10160335 0.07158252 0.09228405
0003b0 ca 95 c6 3d ad 61 07 3e e1 03 14 3e 38 54 2a 3e
       0.09696539 0.13220854 0.14454605 0.1663369
0003c0 fb aa 3f 3d 69 95 ff 3d 31 d3 37 3d 5d 3b b4 3d
       0.04679392 0.124796696 0.044879142 0.08800385
0003d0 e2 53 b4 3d c6 2e 3d 3d a0 2f b3 3d 5e 63 a9 3d
       0.08805062 0.046187185 0.08749318 0.08270906
0003e0 a9 6f 5a 3d 36 8e ac 3d ae e0 e4 3d 0a 9d f2 3d
       0.053329144 0.08425562 0.11175667 0.11846359
0003f0 63 64 1a 3e 00 6d d6 3d e9 0e a6 3d fd 03 38 3e
       0.15077357 0.10470009 0.08108313 0.17970271

sequential_1/lstm_1/MatMul/ReadVariableOp/resource f4 [128, 256]
000000 33 fa 08 be 4f 68 73 bd 45 d2 58 bb 35 89 5c bd
       -0.13376693 -0.05942565 -0.0033084315 -0.05384179
000010 f6 1f 84 bd 97 1b 68 bd b2 ea 04 3d f1 0b 5c 3c
       -0.064514086 -0.056666937 0.032450385 0.013430581
000020 c6 c8 6e bd 74 d5 0e bd f6 e4 6d 3d d0 24 3b 3d
       -0.05829694 -0.034871534 0.058079682 0.045689404
000030 ab 6b 95 bd 29 ca fb bc 6e e7 56 bd 3b 30 0a 3d
       -0.07295927 -0.030736046 -0.052466802 0.033737402
000040 b6 2e 98 bd 46 a5 dd bd cf da 54 3c 9c ff bd bd
       -0.074307844 -0.10822539 0.012991621 -0.09277269
000050 d7 dd c9 bd 40 1a bf 3d ae 15 62 bd ef 4a eb 3c
       -0.09856766 0.09331179 -0.055196457 0.028722255
000060 f9 95 26 3d 2f ea 95 bd 29 60 aa 3c c4 b9 d6 3c
       0.04067037 -0.073200576 0.020797806 0.026211627
000070 51 3b cb 3d 60 f0 8a bd 3f 4a 83 bc c7 a5 17 bc
       0.09923423 -0.06784129 -0.016026614 -0.009255833
000080 e8 60 14 3e 20 55 e7 3d c1 14 fe bd 6a b4 57 3d
       0.14490092 0.11295533 -0.12406302 0.05266229
000090 50 b0 75 3d 81 31 e6 bb 70 fa d3 bd 6c 76 33 3b
       0.059982598 -0.0070249443 -0.103505015 0.0027383817
0000a0 0a 1a 00 3e 14 e8 64 bd fd d1 88 bc 69 e5 1f 3e
       0.12509933 -0.05588539 -0.016701693 0.15614857
0000b0 96 62 8e 3d cc 37 76 bd 44 4c c0 3c d6 1c d0 bd
       0.069523975 -0.060111806 0.023473866 -0.1016175
0000c0 9a 02 d8 bd ab 61 87 3c 4e c2 ef bd 09 ae 00 bd
       -0.10547371 0.016526064 -0.117069826 -0.031415973
0000d0 5e 22 b1 bc 3a 95 d1 bd a7 a5 c6 3b 62 67 96 bd
       -0.021622833 -0.10233541 0.0060622278 -0.073439375
0000e0 51 68 df bc 3d ea ee bd 64 46 1a be 08 9f fb 3d
       -0.027271422 -0.11665771 -0.15065914 0.12286192
0000f0 19 4e 65 3d 61 34 57 3d a2 9a 5c bd 18 c7 98 bb
       0.055982683 0.052540187 -0.053858407 -0.0046624057
000100 00 6a f0 3d f0 1b 8a 3d 17 63 ce 3d 58 ee 05 3e
       0.11738968 0.0674361 0.10077494 0.13079202
000110 fa 4d 8f 3d e7 ee 06 bc b2 45 5b 3d 26 83 4d bd
       0.06997295 -0.00823567 0.053533264 -0.0501739
000120 31 e1 c6 bc 0a 2e a2 3d 95 60 38 3d d5 1e b6 3d
       -0.024277302 0.079189375 0.045013983 0.088925995
000130 9a 79 4f bd e3 b2 b7 3d fa 1d b6 3c 27 71 e3 3c
       -0.050653078 0.08969667 0.02223109 0.027763916
000140 94 93 d9 bd 4f 2e d1 3d 93 ad 5a 3d 1e e8 a0 bc
       -0.106238514 0.10213911 0.05338819 -0.019641932
000150 a4 cc ec 3d f9 40 85 bc 1b 36 fb 3c 03 4d 95 bd
       0.115624696 -0.016266333 0.030665448 -0.072900794
000160 09 86 e3 3d a8 d0 26 3d 7f d7 45 bd fe 43 f2 bd
       0.111095496 0.040726334 -0.048301216 -0.11829375
000170 f7 13 09 3d 1f 13 8c 3b 95 c6 0a 3d d5 69 ab bd
       0.033466306 0.0042747403 0.03388079 -0.08369795
000180 aa 4f 6b 3d 0d 76 f6 3c 49 d0 c5 3d 3a f0 ae bd
       0.05744902 0.030085588 0.09658868 -0.08541913
000190 c0 19 6c 3d 82 5b 06 3e 71 69 4f bd 66 6f 86 3d
       0.057641745 0.13120845 -0.050637666 0.06564216
0001a0 3a 98 88 bd fa 7c f6 3d 80 3d 0b 3d 56 07 a5 3d
       -0.0666966 0.12035556 0.033994198 0.0805804
0001b0 aa 44 86 bd 45 df c0 bd 7b 03 eb bd 06 5f 6f 3d
       -0.065560654 -0.09417585 -0.11475273 0.05844023
0001c0 c5 c1 8d 3c 2a 26 4b 3d f4 dd 91 bd 42 c7 0d 3d
       0.01730431 0.049596943 -0.07122412 0.034613855
0001d0 f2 50 a1 3d de e9 1d 3d 33 6f 11 3e 28 40 34 3e
       0.07876767 0.03855311 0.14202575 0.17602599
0001e0 b0 a9 06 3e a7 78 c3 bd c3 3a 27 bd c6 5c bb 3d
       0.13150668 -0.09544497 -0.040827524 0.091485545
0001f0 b7 89 d0 3c bb b8 26 bd 26 03 c8 3c d4 ab 7a bd
       0.025456293 -0.040703516 0.024415564 -0.061199024
000200 55 fe 61 bd d9 10 dd 3c 20 72 07 bc 73 33 97 bd
       -0.05517419 0.026985573 -0.008266956 -0.0738286
000210 58 5a 1e 3c e8 6f 40 3d 6a 5b cb 3d ce 4f dd 3d
       0.009665094 0.046981722 0.09929545 0.10806237
000220 cc 22 36 bd be 5c 69 3c eb 0a 9b 3d ef 45 a1 bd
       -0.04446678 0.014243303 0.07570442 -0.07874667
000230 f1 a0 5b 3d 86 01 e6 3d 1f fb 9e bd d1 ff 3e bd
       0.053620283 0.11230759 -0.07762741 -0.046630684
000240 0a 2e 5d 3d 70 9e ae 3d 6a 55 29 3c 68 5e 86 bb
       0.053998984 0.08526313 0.010335306 -0.0041006096
000250 e0 09 6c bc c2 36 d9 bd fe 89 dd bc 93 52 00 3e
       -0.014406651 -0.10606147 -0.027043339 0.125315
000260 70 ba 23 bd e0 d6 9e bc e7 be 87 bb 68 0f b9 3d
       -0.039972723 -0.01938957 -0.0041426304 0.09036142
000270 44 9a 04 3d 13 f2 36 3d 8b cd e6 3d 66 15 ad 3d
       0.03237368 0.044664454 0.11269673 0.08451347
000280 80 6c 01 3d d2 28 fb bd 24 e0 9b 3d 88 ca 74 3d
       0.031597614 -0.12263645 0.07611111 0.05976346
000290 7a ea 55 bd e7 1c e5 bd 4e c0 87 3d 46 c3 4b 3d
       -0.052225567 -0.11187153 0.06628476 0.049746774
0002a0 7c d5 df 3d da fe ba bd 13 1c 13 be d3 af 16 3e
       0.10929391 -0.0913064 -0.14366178 0.14715509
0002b0 89 6f f5 bd 56 05 f8 bc 24 bf d0 3d c7 b3 b2 bd
       -0.11984164 -0.030275982 0.10192707 -0.08725696
0002c0 1b e8 4c 3e d6 79 f0 bd 00 a8 e3 3d de 80 b2 bd
       0.20010416 -0.11741988 0.11116028 -0.08715986
0002d0 c7 7d 46 bd 66 a8 4a 3c 4a 79 ef 3c 53 bc 44 3b
       -0.048459794 0.012369251 0.02923264 0.0030019477
0002e0 3d c9 6a bd d7 06 00 3e d4 f0 07 bd e7 84 a4 3c
       -0.057320822 0.12502609 -0.033188656 0.020082904
0002f0 48 bb 0a be 4f 86 fc 3d 3a 4a 13 bb 85 e1 b9 3c
       -0.13548005 0.12330305 -0.0022474662 0.022690544
000300 31 a5 2c bd 62 ad f7 3d bf 55 7f bc 67 3f bd 3d
       -0.042149726 0.12093617 -0.015584408 0.09240609
000310 34 a1 33 bd 19 26 cb 3d c1 35 e5 3d 29 51 7a bd
       -0.043854907 0.09919376 0.11191893 -0.061112557
000320 6f 85 87 bc a2 41 b6 bd 5a 3d 0d bd e6 6e 40 3c
       -0.016543118 -0.08899237 -0.034482338 0.01174519
000330 df e9 db 3d 3e 61 89 bb c2 bc 04 3e 8a 44 73 3d
       0.10737967 -0.0041925004 0.1296263 0.059391536
000340 ee 8f a1 3d f8 21 6e 3d 51 d7 89 3d 85 6e 08 bd
       0.078887805 0.058137864 0.067305215 -0.033308525
000350 40 03 ef 3c 10 e7 12 be e2 c1 be 3d 5a da 9d bc
       0.029176354 -0.14345956 0.09314324 -0.019269157
000360 55 62 23 3c 17 d0 00 3e 7c 5f e5 3c 64 ef 2c 3e
       0.009972175 0.1257938 0.027999632 0.16888195
000370 e4 43 93 bd b9 6b 3f bd 4b 91 84 3d 89 01 49 3d
       -0.071906835 -0.04673359 0.06473025 0.04907373
000380 fb 0b 7f bd 2d 74 d1 3d ae 24 3b bd 49 ab 3a 3e
       -0.062267285 0.10227237 -0.045689277 0.18229403
000390 4b c8 c7 3c 1b 56 8b bd 2c e5 d4 3d 17 80 e3 3c
       0.0243875 -0.06803533 0.103952736 0.027771039
0003a0 ca 92 f1 bc 59 14 af bc 1b 20 30 3e 66 10 ed bd
       -0.02948894 -0.021372007 0.17199747 -0.115753934
0003b0 dd e8 39 3e 3c 46 91 bd 5f 4a aa 3d 4d 05 bc bd
       0.18155237 -0.07093474 0.083149664 -0.091806985
0003c0 63 ca 50 bc 38 19 22 3a e9 84 89 3d 3b a8 a6 3b
       -0.012743565 0.00061835675 0.06714804 0.0050859726
0003d0 b6 5d 30 3d 63 4c 5c 3c 5b bc 0d 3e 0b 6f e4 3d
       0.04305812 0.013445946 0.13841383 0.11153992
0003e0 89 db a6 bd b4 bd 3c bc a5 8e 43 bd 22 ec 94 bd
       -0.08147342 -0.011519838 -0.04774346 -0.07271601
0003f0 80 4c 49 bd d8 3c 8b 3c 62 8a 74 bc c2 f6 65 bd
       -0.04914522 0.016996786 -0.014925571 -0.05614353

sequential_1/lstm_1/MatMul_1/ReadVariableOp/resource f4 [64, 256]
000000 66 ba ea bc c3 b5 52 bd 52 ca 96 3c bc 76 a6 3d
       -0.028653335 -0.051442873 0.01840702 0.081281155
000010 52 0f 9c 3d 95 61 a6 ba 50 c3 a5 3d fb 96 cb bd
       0.076201096 -0.0012693877 0.080938935 -0.099409066
000020 1e 44 0c bc 02 bd c9 bc ec e3 98 bc 93 75 45 3d
       -0.008561162 -0.024626259 -0.01866337 0.04820783
000030 2f 02 d5 bd 03 c2 63 bd 4c 1e 01 3e a4 0c de bc
       -0.10400807 -0.055604946 0.12609214 -0.027105637
000040 21 9f f0 3d db 8c ac bd e1 7c 7f 3e c6 02 45 3d
       0.117491014 -0.084253035 0.24949981 0.048098348
000050 b1 a4 29 be b7 0f d7 bd 18 a4 b0 bc 03 1e 4f 3d
       -0.16566731 -0.10501044 -0.021562621 0.05056573
000060 9f 90 37 3c ba b9 e8 bb 45 d6 17 3d 7a d5 d3 bc
       0.011203914 -0.0071022185 0.037069578 -0.02585863
000070 ec a1 9a bd 99 bd ed bb 46 c6 af bc 6e 19 11 3d
       -0.075504154 -0.007255268 -0.021456849 0.035424642
000080 ce ac d4 bb f6 c5 df 3d 70 ad 9f bd ce 4b 8b 3d
       -0.0064903265 0.1092643 -0.077967525 0.06801568
000090 8a 9a ab 3c fd ca 18 3e d2 56 a5 bd 90 5c 2d 3d
       0.020947713 0.14921184 -0.080732 0.042324603
0000a0 05 07 3e 3d 67 e1 0d bc ab 76 01 3d 62 c0 26 3c
       0.046393413 -0.008659697 0.03160731 0.010177704
0000b0 cf b5 38 3d bc 3f 07 bd ed d5 db 3c 88 b5 e7 3b
       0.04509526 -0.033019766 0.026835406 0.0070712008
0000c0 7d 0e ab 3d 4e 0e 09 bd c2 af bd bc d3 4f bc bd
       0.08352373 -0.033460908 -0.023155097 -0.09194913
0000d0 ee 1b f3 3c 24 0b 1a 3e d4 1e ee 3c a3 57 93 3d
       0.029676404 0.15043312 0.029067434 0.0719445
0000e0 9c 3f 82 3d db c0 e3 bd 7f 1e f3 bd f7 13 8d bd
       0.06359789 -0.11120769 -0.11871051 -0.068885736
0000f0 15 70 ee bb 36 d9 17 be 07 50 70 3d a9 9f 26 3d
       -0.007276545 -0.14828953 0.05867007 0.040679608
000100 09 98 7c 3d 87 de cc 3c 2e 5d 1f bc 43 52 92 3c
       0.06166843 0.025008453 -0.009726806 0.017861491
000110 87 ea 38 3e 5d 70 79 3d 8b 35 82 3c 01 db 35 3e
       0.18058215 0.060898174 0.015894672 0.17759325
000120 af 4a a6 3d 76 58 a0 3d 07 a0 2a 3d e7 dd ae 3d
       0.081197135 0.078293726 0.04165652 0.08538418
000130 b9 3b 82 3d b5 40 47 3c ef f6 8b ba 19 64 77 3d
       0.063590474 0.012161423 -0.001067845 0.060398195
000140 d7 1a a8 3d 60 e3 b5 3c 9e e4 17 3e 25 79 4c 3d
       0.08208244 0.022203147 0.14833304 0.04992022
000150 b5 12 b5 3d b9 b6 0c 3c 3b a9 81 bb de 57 9f 3d
       0.08841459 0.008588486 -0.0039569414 0.07780431
000160 9c 5a 91 bd 4c 2b df 3d f0 cf 39 3d e3 35 c1 3d
       -0.070973605 0.1089693 0.04536432 0.09434106
000170 47 3b a3 3d 8d f5 b5 bd 48 32 36 3d 69 14 2e bd
       0.07970291 -0.08884726 0.044481546 -0.042499933
000180 45 67 08 3e 1a 69 7b bb 98 56 ef 3d 5b 18 f9 3d
       0.13320644 -0.0038362206 0.11686438 0.121628486
000190 47 e1 2b 3e 3c e8 a8 bd 56 d4 a9 bc a5 78 3a bd
       0.16785155 -0.0824742 -0.020731132 -0.04552521
0001a0 91 63 91 3d df 8e a0 3c b8 9f 99 3d 18 44 57 bd
       0.07099069 0.019599376 0.07501167 -0.052555174
0001b0 85 63 10 3e 0f 55 a3 3d 8e 9f 93 3d d1 cf e9 3d
       0.14100464 0.07975208 0.07208167 0.11416591
0001c0 21 48 8e 3d 3d 6c 4e 3c e2 91 0f 3d 37 78 33 3d
       0.06947351 0.012599048 0.035051234 0.043815818
0001d0 ca e3 b7 3d 4a bb 0c 3d a9 3a 2d 3d a1 ba 1b 3e
       0.08978994 0.0343583 0.04229227 0.15207912
0001e0 0d a0 76 3d 9b cd 5d bd 86 74 25 3d 1a 30 d2 3d
       0.06021123 -0.05415116 0.04039433 0.10263081
0001f0 02 51 e5 3d e2 b9 0f bd ba 1a 05 3e da 50 64 3d
       0.11197092 -0.03508938 0.12998477 0.05574117
000200 a8 37 58 3d 42 56 68 3d 43 35 2a bd 74 2b 2f bd
       0.052787453 0.056722887 -0.0415547 -0.04276605
000210 00 da b4 3d 8d 05 92 3d 18 43 84 bd 2d 2a 14 bd
       0.08830643 0.07129965 -0.064581096 -0.036173034
000220 71 17 33 3c b0 e6 3b 3d de 7d a4 bc 49 57 4a bd
       0.010930882 0.045874298 -0.02007955 -0.049399648
000230 83 8f dd bc d5 ce b4 3d bd ab cd 3a f7 4b 41 bd
       -0.02704597 0.088285126 0.0015691441 -0.047191586
000240 e3 3f 06 be ad e5 b6 bd 7b d2 8e bb 22 6d db 3d
       -0.13110308 -0.08930526 -0.0043585873 0.10714175
000250 dc 90 ad ba 13 02 29 3e ee 60 03 3c 0c 23 e9 3d
       -0.0013242024 0.16504698 0.008018715 0.11383638
000260 ed 96 14 be 96 cc de 3d 72 7a 31 3c 56 c9 e3 bc
       -0.14510699 0.108788654 0.010832416 -0.027805965
000270 1e da a6 bd 93 34 0e 3d 1f 23 5c be 7d 1d 0b 3c
       -0.08147071 0.034718107 -0.21497773 0.008490917
000280 70 4c 97 3d 5e 2f f6 bc 13 8c 08 3e 0b 13 5f 3d
       0.07387626 -0.030051883 0.13334684 0.05446152
000290 36 4d 02 bd 46 91 11 bd 80 a5 3e 3c a7 b7 be bd
       -0.031811915 -0.035538934 0.011636138 -0.09312373
0002a0 7a 34 1d bd 63 01 d8 bc 64 10 05 3d c2 fc ff bc
       -0.038380124 -0.026367849 0.032486334 -0.031248454
0002b0 21 4a 89 bd 2b 6a 15 3e 3b a5 5d 3b 5e da 08 3c
       -0.06703592 0.14591281 0.003382041 0.008352844
0002c0 8d 26 de bd 4a 55 84 bd f8 03 aa 3d 94 9d 06 3d
       -0.10847197 -0.0646158 0.08301538 0.032865122
0002d0 df 3b 81 3c c9 72 d2 bd a7 07 c8 3b f3 3e 88 3d
       0.01577562 -0.102758 0.006104428 0.066526316
0002e0 44 46 5b 3b 04 33 06 bd 4a 87 0a bc 6a 2f 3c bd
       0.003345863 -0.032763496 -0.008455107 -0.045943655
0002f0 3a 61 b2 bd 97 e3 85 3d af 7c d0 3c 06 c8 1d 3e
       -0.08709951 0.0653755 0.025450079 0.15408334
000300 61 c9 d4 3d f3 9b 2c bd b7 d1 eb 3d 5e 07 41 3e
       0.103899725 -0.042140912 0.11514609 0.18850467
000310 a1 07 48 3e e1 60 b6 3c 30 d4 7f 3d 7d 9e ee 3d
       0.1953416 0.022262992 0.062458217 0.11651323
000320 b1 4f a7 3d e7 0e 21 3e ae 07 89 3d b6 96 1a 3e
       0.08169497 0.15728341 0.06690918 0.15096554
000330 23 8c 8d 3d c1 38 9c 3b f0 2b c0 ba 8c 10 6a 3d
       0.069114946 0.004767508 -0.0014661532 0.057144687
000340 da d9 47 3c 86 95 47 3e 58 af 08 3e ee e8 1c 3e
       0.012197936 0.19490632 0.13348138 0.1532323
000350 68 26 a2 3d 40 43 ba 3c 19 d0 d0 3d f8 d7 5e 3d
       0.07917482 0.022737145 0.101959415 0.054405183
000360 b0 23 99 bc cc f3 ac 3d 9c 6c cd 3d 03 3b 26 3d
       -0.018693775 0.08444938 0.10030481 0.04058362
000370 2d c6 ba 3d 5b 3a 26 3e d2 5d a6 3c 28 ff 13 bc
       0.0911983 0.16233198 0.020308409 -0.009033002
000380 35 e1 8d 3d 35 57 6f 3b d5 05 ac 3d 6b ad 67 bd
       0.069277205 0.0036520485 0.0839955 -0.05656187
000390 09 02 52 3e a2 02 06 bd e7 01 85 3c d0 fe e0 3d
       0.20508589 -0.032717355 0.016236259 0.109861016
0003a0 82 af bd 3d ea 75 fc 3d 13 7a 71 bd 78 69 1a 3e
       0.09261991 0.12327178 -0.05895431 0.15079296
0003b0 d3 1c d3 3c 7b 4b ab 3d 41 3c 68 3e 5e 15 30 3e
       0.02577058 0.08364006 0.22679235 0.17195651
0003c0 4b bc 70 3d 14 d9 af 3c d6 18 b9 3d 80 6d 8d 3d
       0.05877332 0.021465816 0.0903794 0.06905651
0003d0 cc 5a df b9 85 27 bf 3d 49 b5 fb bc ad f4 18 3d
       -0.00042601523 0.093337096 -0.030726092 0.037342716
0003e0 ae bb 29 3c 84 04 5a 3d c5 db ae 3d fc 2d 18 3e
       0.010359688 0.053226963 0.085380115 0.14861292
0003f0 34 5c dc 3d 9f 62 04 3e ad 6e 59 3d 0b ea aa 3d
       0.10759774 0.12928246 0.053084064 0.083454214

sequential_1/lstm_1/zeros f4 [1, 64]
000000 00 00 00 00 00 00 00 00 00 00 00 00 00 00 00 00
       0.0 0.0 0.0 0.0
000010 00 00 00 00 00 00 00 00 00 00 00 00 00 00 00 00
       0.0 0.0 0.0 0.0
000020 00 00 00 00 00 00 00 00 00 00 00 00 00 00 00 00
       0.0 0.0 0.0 0.0
000030 00 00 00 00 00 00 00 00 00 00 00 00 00 00 00 00
       0.0 0.0 0.0 0.0
000040 00 00 00 00 00 00 00 00 00 00 00 00 00 00 00 00
       0.0 0.0 0.0 0.0
000050 00 00 00 00 00 00 00 00 00 00 00 00 00 00 00 00
       0.0 0.0 0.0 0.0
000060 00 00 00 00 00 00 00 00 00 00 00 00 00 00 00 00
       0.0 0.0 0.0 0.0
000070 00 00 00 00 00 00 00 00 00 00 00 00 00 00 00 00
       0.0 0.0 0.0 0.0
000080 00 00 00 00 00 00 00 00 00 00 00 00 00 00 00 00
       0.0 0.0 0.0 0.0
000090 00 00 00 00 00 00 00 00 00 00 00 00 00 00 00 00
       0.0 0.0 0.0 0.0
0000a0 00 00 00 00 00 00 00 00 00 00 00 00 00 00 00 00
       0.0 0.0 0.0 0.0
0000b0 00 00 00 00 00 00 00 00 00 00 00 00 00 00 00 00
       0.0 0.0 0.0 0.0
0000c0 00 00 00 00 00 00 00 00 00 00 00 00 00 00 00 00
       0.0 0.0 0.0 0.0
0000d0 00 00 00 00 00 00 00 00 00 00 00 00 00 00 00 00
       0.0 0.0 0.0 0.0
0000e0 00 00 00 00 00 00 00 00 00 00 00 00 00 00 00 00
       0.0 0.0 0.0 0.0
0000f0 00 00 00 00 00 00 00 00 00 00 00 00 00 00 00 00
       0.0 0.0 0.0 0.0

sequential_1/lstm_1/TensorArrayV2_1 f4 [48, 1, 64]
000000 00 00 00 00 00 00 00 00 00 00 00 00 00 00 00 00
       0.0 0.0 0.0 0.0
000010 00 00 00 00 00 00 00 00 00 00 00 00 00 00 00 00
       0.0 0.0 0.0 0.0
000020 00 00 00 00 00 00 00 00 00 00 00 00 00 00 00 00
       0.0 0.0 0.0 0.0
000030 00 00 00 00 00 00 00 00 00 00 00 00 00 00 00 00
       0.0 0.0 0.0 0.0
000040 00 00 00 00 00 00 00 00 00 00 00 00 00 00 00 00
       0.0 0.0 0.0 0.0
000050 00 00 00 00 00 00 00 00 00 00 00 00 00 00 00 00
       0.0 0.0 0.0 0.0
000060 00 00 00 00 00 00 00 00 00 00 00 00 00 00 00 00
       0.0 0.0 0.0 0.0
000070 00 00 00 00 00 00 00 00 00 00 00 00 00 00 00 00
       0.0 0.0 0.0 0.0
000080 00 00 00 00 00 00 00 00 00 00 00 00 00 00 00 00
       0.0 0.0 0.0 0.0
000090 00 00 00 00 00 00 00 00 00 00 00 00 00 00 00 00
       0.0 0.0 0.0 0.0
0000a0 00 00 00 00 00 00 00 00 00 00 00 00 00 00 00 00
       0.0 0.0 0.0 0.0
0000b0 00 00 00 00 00 00 00 00 00 00 00 00 00 00 00 00
       0.0 0.0 0.0 0.0
0000c0 00 00 00 00 00 00 00 00 00 00 00 00 00 00 00 00
       0.0 0.0 0.0 0.0
0000d0 00 00 00 00 00 00 00 00 00 00 00 00 00 00 00 00
       0.0 0.0 0.0 0.0
0000e0 00 00 00 00 00 00 00 00 00 00 00 00 00 00 00 00
       0.0 0.0 0.0 0.0
0000f0 00 00 00 00 00 00 00 00 00 00 00 00 00 00 00 00
       0.0 0.0 0.0 0.0
000100 00 00 00 00 00 00 00 00 00 00 00 00 00 00 00 00
       0.0 0.0 0.0 0.0
000110 00 00 00 00 00 00 00 00 00 00 00 00 00 00 00 00
       0.0 0.0 0.0 0.0
000120 00 00 00 00 00 00 00 00 00 00 00 00 00 00 00 00
       0.0 0.0 0.0 0.0
000130 00 00 00 00 00 00 00 00 00 00 00 00 00 00 00 00
       0.0 0.0 0.0 0.0
000140 00 00 00 00 00 00 00 00 00 00 00 00 00 00 00 00
       0.0 0.0 0.0 0.0
000150 00 00 00 00 00 00 00 00 00 00 00 00 00 00 00 00
       0.0 0.0 0.0 0.0
000160 00 00 00 00 00 00 00 00 00 00 00 00 00 00 00 00
       0.0 0.0 0.0 0.0
000170 00 00 00 00 00 00 00 00 00 00 00 00 00 00 00 00
       0.0 0.0 0.0 0.0
000180 00 00 00 00 00 00 00 00 00 00 00 00 00 00 00 00
       0.0 0.0 0.0 0.0
000190 00 00 00 00 00 00 00 00 00 00 00 00 00 00 00 00
       0.0 0.0 0.0 0.0
0001a0 00 00 00 00 00 00 00 00 00 00 00 00 00 00 00 00
       0.0 0.0 0.0 0.0
0001b0 00 00 00 00 00 00 00 00 00 00 00 00 00 00 00 00
       0.0 0.0 0.0 0.0
0001c0 00 00 00 00 00 00 00 00 00 00 00 00 00 00 00 00
       0.0 0.0 0.0 0.0
0001d0 00 00 00 00 00 00 00 00 00 00 00 00 00 00 00 00
       0.0 0.0 0.0 0.0
0001e0 00 00 00 00 00 00 00 00 00 00 00 00 00 00 00 00
       0.0 0.0 0.0 0.0
0001f0 00 00 00 00 00 00 00 00 00 00 00 00 00 00 00 00
       0.0 0.0 0.0 0.0
000200 00 00 00 00 00 00 00 00 00 00 00 00 00 00 00 00
       0.0 0.0 0.0 0.0
000210 00 00 00 00 00 00 00 00 00 00 00 00 00 00 00 00
       0.0 0.0 0.0 0.0
000220 00 00 00 00 00 00 00 00 00 00 00 00 00 00 00 00
       0.0 0.0 0.0 0.0
000230 00 00 00 00 00 00 00 00 00 00 00 00 00 00 00 00
       0.0 0.0 0.0 0.0
000240 00 00 00 00 00 00 00 00 00 00 00 00 00 00 00 00
       0.0 0.0 0.0 0.0
000250 00 00 00 00 00 00 00 00 00 00 00 00 00 00 00 00
       0.0 0.0 0.0 0.0
000260 00 00 00 00 00 00 00 00 00 00 00 00 00 00 00 00
       0.0 0.0 0.0 0.0
000270 00 00 00 00 00 00 00 00 00 00 00 00 00 00 00 00
       0.0 0.0 0.0 0.0
000280 00 00 00 00 00 00 00 00 00 00 00 00 00 00 00 00
       0.0 0.0 0.0 0.0
000290 00 00 00 00 00 00 00 00 00 00 00 00 00 00 00 00
       0.0 0.0 0.0 0.0
0002a0 00 00 00 00 00 00 00 00 00 00 00 00 00 00 00 00
       0.0 0.0 0.0 0.0
0002b0 00 00 00 00 00 00 00 00 00 00 00 00 00 00 00 00
       0.0 0.0 0.0 0.0
0002c0 00 00 00 00 00 00 00 00 00 00 00 00 00 00 00 00
       0.0 0.0 0.0 0.0
0002d0 00 00 00 00 00 00 00 00 00 00 00 00 00 00 00 00
       0.0 0.0 0.0 0.0
0002e0 00 00 00 00 00 00 00 00 00 00 00 00 00 00 00 00
       0.0 0.0 0.0 0.0
0002f0 00 00 00 00 00 00 00 00 00 00 00 00 00 00 00 00
       0.0 0.0 0.0 0.0
000300 00 00 00 00 00 00 00 00 00 00 00 00 00 00 00 00
       0.0 0.0 0.0 0.0
000310 00 00 00 00 00 00 00 00 00 00 00 00 00 00 00 00
       0.0 0.0 0.0 0.0
000320 00 00 00 00 00 00 00 00 00 00 00 00 00 00 00 00
       0.0 0.0 0.0 0.0
000330 00 00 00 00 00 00 00 00 00 00 00 00 00 00 00 00
       0.0 0.0 0.0 0.0
000340 00 00 00 00 00 00 00 00 00 00 00 00 00 00 00 00
       0.0 0.0 0.0 0.0
000350 00 00 00 00 00 00 00 00 00 00 00 00 00 00 00 00
       0.0 0.0 0.0 0.0
000360 00 00 00 00 00 00 00 00 00 00 00 00 00 00 00 00
       0.0 0.0 0.0 0.0
000370 00 00 00 00 00 00 00 00 00 00 00 00 00 00 00 00
       0.0 0.0 0.0 0.0
000380 00 00 00 00 00 00 00 00 00 00 00 00 00 00 00 00
       0.0 0.0 0.0 0.0
000390 00 00 00 00 00 00 00 00 00 00 00 00 00 00 00 00
       0.0 0.0 0.0 0.0
0003a0 00 00 00 00 00 00 00 00 00 00 00 00 00 00 00 00
       0.0 0.0 0.0 0.0
0003b0 00 00 00 00 00 00 00 00 00 00 00 00 00 00 00 00
       0.0 0.0 0.0 0.0
0003c0 00 00 00 00 00 00 00 00 00 00 00 00 00 00 00 00
       0.0 0.0 0.0 0.0
0003d0 00 00 00 00 00 00 00 00 00 00 00 00 00 00 00 00
       0.0 0.0 0.0 0.0
0003e0 00 00 00 00 00 00 00 00 00 00 00 00 00 00 00 00
       0.0 0.0 0.0 0.0
0003f0 00 00 00 00 00 00 00 00 00 00 00 00 00 00 00 00
       0.0 0.0 0.0 0.0

sequential_1/dense_1/MatMul f4 [5, 64]
000000 34 bb 04 bf c4 f3 b1 be ae 7f c5 3e 6b 3e 8d 3f
       -0.5184815 -0.3475629 0.38573974 1.1034673
000010 f4 03 01 3f 05 1c 4f 3e c8 5e 5e 3e 0b 0d b3 3e
       0.50396657 0.20225532 0.21715844 0.34970888
000020 7e 75 7f bf 61 4b e3 be 78 bd e3 be c3 88 17 3f
       -0.99788654 -0.44393447 -0.4448049 0.59193057
000030 21 cd 7c bf ad c3 b8 3d 84 74 3b be 2c 0c 33 bf
       -0.987505 0.09021697 -0.18306166 -0.6994045
000040 2d bb 09 3f 56 f4 c4 3e cc c2 fc 3e ef f1 96 3e
       0.5380123 0.38467664 0.49367368 0.29481456
000050 be 54 16 bf c7 b6 81 3e 83 33 2e bf 9a 1f d6 bd
       -0.58723056 0.2533476 -0.6804735 -0.10455246
000060 59 41 ec be 0f 0d 44 be 94 65 4e be 49 19 0e 3f
       -0.46143606 -0.19145606 -0.20155936 0.5550733
000070 57 22 10 bf 80 a1 a6 bf e3 1c 9f 3e 14 72 06 3f
       -0.563024 -1.3018036 0.31076726 0.5251782
000080 65 1d 17 bf cb 27 90 be fd 12 e5 be 80 53 6d bf
       -0.5902923 -0.2815536 -0.4474105 -0.92705536
000090 5c aa 51 3e c4 d7 d3 be 25 47 01 3f c8 03 f2 3e
       0.20475143 -0.41375554 0.5049918 0.4726851
0000a0 c7 bf 2e 3e fb df f0 3d ab 51 51 3f 6d 55 d7 3e
       0.17065345 0.11761471 0.8176524 0.42057362
0000b0 01 13 15 3f 48 4b 4d 3f b7 fa 1b bf cb be dc 3e
       0.5823212 0.80192995 -0.60929435 0.43114313
0000c0 b1 22 f5 bd 76 fd d5 bc 93 f8 26 bf 57 ab 36 be
       -0.119695075 -0.026121836 -0.65223044 -0.17838798
0000d0 ea 43 70 3f 5d fd 61 be 1e b6 0b be fa 96 66 bf
       0.9385363 -0.22069307 -0.13643691 -0.9007412
0000e0 9b af a2 3e 1c cd e1 bd de 30 82 3e ac 16 e7 be
       0.317746 -0.1102545 0.25427908 -0.45134485
0000f0 7d e6 36 3f fd dc eb be 98 ca 49 3e 23 24 5c 3d
       0.7144545 -0.46067038 0.1970619 0.0537454
000100 71 20 d1 be 88 ba 34 3e 86 6c 54 bf a3 dc 6c be
       -0.40845063 0.17649281 -0.82978094 -0.23131041
000110 9d 75 f9 3d 97 f5 36 3e b5 cd 9e 3e 44 a5 09 be
       0.12180636 0.17867123 0.31016317 -0.1344195
000120 1f 51 dc bc 3b b2 1a bf f5 49 9a be cb 0c a5 3e
       -0.02689415 -0.6042821 -0.3013455 0.32236323
000130 48 04 67 bf 12 77 4f 3e 96 19 4a 3f 4c 83 15 3f
       -0.9024091 0.20260265 0.7894529 0.5840347
000140 f3 38 45 3f 45 dc 0f 3f 8e ec 22 3f 39 fd dd be
       0.7704002 0.5619548 0.63642204 -0.43357256
000150 01 77 2d 3f d5 87 79 bf cf 72 29 3f 9b 37 9c bf
       0.6775971 -0.9747289 0.6619081 -1.220447
000160 37 e3 81 be 32 a6 27 be 6e ff 23 3f e7 06 97 3c
       -0.25368664 -0.16371992 0.6406163 0.018435908
000170 ae 4a c4 3e 87 f7 b8 3e 1a 3c 2c 3f d0 3d 41 bf
       0.38338226 0.36126348 0.6727921 -0.75484943
000180 f8 88 47 be aa d2 75 be 4f 93 f7 3e d1 78 7c bf
       -0.19485843 -0.24006143 0.48354575 -0.9862185
000190 29 38 75 3f 55 2e ed 3e 01 91 0c bf 3f 00 25 bf
       0.9578882 0.4632441 -0.5490876 -0.644535
0001a0 ae c6 7e 3f fc e4 14 3e 20 df dc 3e b1 03 26 bf
       0.9952191 0.14540476 0.4313898 -0.6484938
0001b0 d2 5c 4b 3e 55 40 10 be ed 9f 3a bf ea f7 00 3f
       0.19859627 -0.1408704 -0.7290028 0.50378287
0001c0 8f b7 7c 3f dc 80 e0 bc b5 8c 1a bf 64 d3 66 3f
       0.9871759 -0.027405195 -0.6037095 0.90166306
0001d0 97 05 98 3e a9 cc 0c bf 2b ed 82 3f 28 c4 59 3f
       0.29691765 -0.54999787 1.0228628 0.85064936
0001e0 0b 85 60 bf e5 c6 a3 3d 1a bb 7f bf 9c 92 3e 3f
       -0.8770301 0.079969205 -0.9989487 0.7444246
0001f0 ba 78 9e 3e 3c e2 8a 3e a2 f3 f3 be e8 55 10 bf
       0.30951482 0.27125728 -0.47646815 -0.5638108
000200 7e d2 13 bf 8e 1a 06 3f bd 39 ce 3e 99 cb 84 3f
       -0.5774306 0.5238427 0.40278426 1.0374633
000210 6a a6 b2 3d 4b 19 9a 3e 82 06 53 3e 45 ff c9 3e
       0.08723147 0.30097422 0.20607951 0.39452568
000220 87 60 3a 3f 41 1a 41 3f 6e 37 ed bd 0c 0c 34 3f
       0.7280354 0.75430685 -0.11582838 0.7033088
000230 77 5f 4d 3f 43 2b 87 bf ba 9e 49 bf 1a df 5c 3e
       0.8022379 -1.0560077 -0.7875782 0.21569481
000240 a9 99 dd be 61 f8 9f 3e c6 33 35 bf 30 fc f8 be
       -0.43281296 0.31244186 -0.70782125 -0.48629904
000250 be 6b 4f 3f ae e7 81 3e 2f 16 06 3f 4e c1 69 bd
       0.81023777 0.2537207 0.523776 -0.057069115
000260 07 7e 19 be 3b 48 dd be bc fe 4d 3f 64 09 36 bf
       -0.14989482 -0.4321917 0.8046682 -0.7110808
000270 c3 fc 27 3f 8d e1 03 3f d5 15 df 3e a4 3d 19 3f
       0.6562006 0.5151604 0.43571344 0.5985968
000280 fb 37 42 bf 66 79 20 3f f4 57 59 bf 31 03 3a 3f
       -0.7586667 0.6268524 -0.8489983 0.7266112
000290 c4 b5 0c 3f a0 d7 79 be 15 74 7c 3f 50 a9 28 3d
       0.5496485 -0.2439866 0.9861463 0.041177094
0002a0 30 72 06 3e 44 ec 7b bd ef 8e 05 bf a6 ea 84 3d
       0.13129497 -0.061504617 -0.52171224 0.06490068
0002b0 fb ec 11 3d b8 42 4b be 50 5f c0 be 56 17 d7 3e
       0.035626393 -0.1984967 -0.37572718 0.4200999
0002c0 20 0c 9d bf 52 d2 1d 3f 26 6f 8a be 15 8a 9a be
       -1.2269325 0.6164905 -0.27037925 -0.30183473
0002d0 9c 2f cd bd 08 a4 19 3f 68 e1 a6 bf 82 a9 43 bf
       -0.100188464 0.60015917 -1.3037539 -0.76430523
0002e0 ba 7e 35 bf 3c 2e a3 3e 0b d9 b0 be ab e9 26 3f
       -0.70896494 0.31871212 -0.3454059 0.652003
0002f0 52 4e 94 3e 7b a4 51 bf 59 f0 28 3f 04 d0 1e 3f
       0.28966004 -0.818916 0.6599174 0.62036157
000300 f6 99 bf be 35 cc 11 3f e2 c4 88 bf af 12 b6 bd
       -0.3742215 0.5695222 -1.0685084 -0.08890282
000310 a6 22 fc be db d1 31 bf 07 bf 29 3d f2 90 48 bf
       -0.49245185 -0.6946084 0.041441943 -0.7834617
000320 fd 90 3e bf 28 00 34 3e c6 70 78 3f a5 69 9d 3e
       -0.74439985 0.17578185 0.9704708 0.30744663
000330 d0 8e 7a 3e b1 36 8d 3e 0c 2b 16 bf dd 55 05 bf
       0.24468541 0.2758079 -0.58659434 -0.5208414
000340 67 53 3b bf 32 6c d8 3e 5f 6b d2 be 03 c7 53 bf
       -0.73174137 0.42270046 -0.41097543 -0.8272554
000350 7a 5b 30 bf 54 06 f6 bc ec 1d f4 3d 85 42 8f be
       -0.6888958 -0.030032314 0.1191977 -0.27980438
000360 ad 09 6f 3f b4 fc a7 3f 65 0f 50 be b4 74 e3 be
       0.9337414 1.3123994 -0.20318373 -0.44424975
000370 24 6a f2 be 29 95 b6 3d b7 3e c5 3e 78 3d 1b bf
       -0.47346604 0.08915169 0.3852441 -0.6064067
000380 45 33 87 bd d3 5d 32 3f 0a 19 26 bf 0d 8e 04 be
       -0.06601576 0.69674414 -0.64881957 -0.12944813
000390 1c 5c e8 be d8 a5 0b be 29 a9 c8 be 09 54 5e 3e
       -0.45382774 -0.13637483 -0.3919156 0.21711744
0003a0 2f 30 72 be 3a 1b 93 be b9 19 5c 3e ac e7 0c 3e
       -0.23651193 -0.2873171 0.21494187 0.13760251
0003b0 18 e9 0c 3e 18 7a 07 3f 6a cf 68 be 38 af 41 3e
       0.13760793 0.52920675 -0.22735372 0.18914497
0003c0 e9 7f 18 3f 44 bd 6d bf 23 02 41 3f 3e ba 95 be
       0.59570175 -0.9286692 0.75393885 -0.29243654
0003d0 3c 3e c6 be e4 9d ac 3e 6e 3c 01 bd 6a 67 df be
       -0.38719356 0.3371421 -0.03155177 -0.43633586
0003e0 d8 85 33 3f da e4 81 bf 37 76 01 3e 0d 1a 8f be
       0.70126104 -1.0147965 0.12642752 -0.27949563
0003f0 2d f9 f7 3e 50 e8 97 be 50 cd 32 bf 3a 78 1f bf
       0.48432294 -0.29669428 -0.6984453 -0.62292826

sequential_1/conv1d_1/conv1d f4 [64]
000000 00 00 00 00 00 00 00 00 00 00 00 00 00 00 00 00
       0.0 0.0 0.0 0.0
000010 00 00 00 00 00 00 00 00 00 00 00 00 00 00 00 00
       0.0 0.0 0.0 0.0
000020 00 00 00 00 00 00 00 00 00 00 00 00 00 00 00 00
       0.0 0.0 0.0 0.0
000030 00 00 00 00 00 00 00 00 00 00 00 00 00 00 00 00
       0.0 0.0 0.0 0.0
000040 00 00 00 00 00 00 00 00 00 00 00 00 00 00 00 00
       0.0 0.0 0.0 0.0
000050 00 00 00 00 00 00 00 00 00 00 00 00 00 00 00 00
       0.0 0.0 0.0 0.0
000060 00 00 00 00 00 00 00 00 00 00 00 00 00 00 00 00
       0.0 0.0 0.0 0.0
000070 00 00 00 00 00 00 00 00 00 00 00 00 00 00 00 00
       0.0 0.0 0.0 0.0
000080 00 00 00 00 00 00 00 00 00 00 00 00 00 00 00 00
       0.0 0.0 0.0 0.0
000090 00 00 00 00 00 00 00 00 00 00 00 00 00 00 00 00
       0.0 0.0 0.0 0.0
0000a0 00 00 00 00 00 00 00 00 00 00 00 00 00 00 00 00
       0.0 0.0 0.0 0.0
0000b0 00 00 00 00 00 00 00 00 00 00 00 00 00 00 00 00
       0.0 0.0 0.0 0.0
0000c0 00 00 00 00 00 00 00 00 00 00 00 00 00 00 00 00
       0.0 0.0 0.0 0.0
0000d0 00 00 00 00 00 00 00 00 00 00 00 00 00 00 00 00
       0.0 0.0 0.0 0.0
0000e0 00 00 00 00 00 00 00 00 00 00 00 00 00 00 00 00
       0.0 0.0 0.0 0.0
0000f0 00 00 00 00 00 00 00 00 00 00 00 00 00 00 00 00
       0.0 0.0 0.0 0.0

sequential_1/conv1d_1/conv1d1 f4 [64, 1, 5, 40]
000000 62 3e f4 3d 60 92 55 3c 6d 48 06 3d 21 b8 7a bc
       0.11925961 0.013035387 0.032783914 -0.015302689
000010 4d 52 eb bc ce 66 53 bd ea 98 0d be 3d 8b ba 3d
       -0.028725768 -0.051611714 -0.13827863 0.09108589
000020 6e 78 df bb 31 43 a6 bd 9e 0a 16 3e 64 21 90 3d
       -0.0068197763 -0.081182845 0.14652488 0.07037619
000030 07 b6 80 3b 10 f3 07 3e 10 c3 93 3d 78 bc 89 3e
       0.0039279494 0.13276315 0.072149396 0.26901603
000040 86 a3 2c 3e 7c e5 39 3e 16 d4 05 3e 91 0d 35 3e
       0.16859254 0.18153948 0.13069186 0.17680956
000050 3e 53 b2 bd 54 5a dc bd 23 39 2f be 66 41 b6 bd
       -0.087072834 -0.10759416 -0.1711164 -0.088991925
000060 c0 28 83 bd 1b f3 44 bc 8f 7d a8 3c 9d 5f b6 bd
       -0.06404257 -0.0120208515 0.020567684 -0.089049555
000070 74 1d b1 3b a6 de 34 bd 65 12 98 bc dc 67 4a bc
       0.0054051224 -0.044157647 -0.018563459 -0.012353864
000080 db b6 ef 3d f6 4a a7 3d e1 ff af 3b 66 ef 14 3e
       0.11704799 0.081685945 0.0053710793 0.14544448
000090 51 a8 82 3d bd 71 e9 bc 35 c2 1d 3c 4e 22 3d 3c
       0.0637976 -0.028496617 0.009628822 0.011543823
0000a0 a1 55 f9 3b fb f0 ba bd e5 1e 3c 3c c0 8d 90 3c
       0.0076090847 -0.091279946 0.011481975 0.017645717
0000b0 6a 26 54 bd a6 3b 1f bd 71 30 b6 bd da d5 8b bd
       -0.051794447 -0.038875245 -0.08895958 -0.06827898
0000c0 50 b8 5c bc b7 8d f3 bd cb 2f 40 bc 88 8a de 3d
       -0.013471678 -0.11892264 -0.011730145 0.108662665
0000d0 68 e5 31 3e 30 e5 bf bc 8c d4 90 3d bb 65 2c 3e
       0.17372668 -0.023424715 0.0707179 0.16835682
0000e0 7f 38 c9 3d a8 17 e6 3d ac e1 2c 3e 0b b5 d3 3d
       0.09825229 0.11234981 0.16882962 0.103372656
0000f0 c2 4b 64 bd 64 f1 aa bd b4 ce 3e be 8f 34 f7 bd
       -0.05573631 -0.08346823 -0.18633538 -0.12070572
000100 fe b6 81 bd 92 d2 c1 bd 62 61 b0 bd e4 52 20 3d
       -0.06333731 -0.09463991 -0.08612324 0.03914155
000110 fe a0 b1 bc bc a9 d4 bd b9 40 49 bc e4 31 74 bc
       -0.021683212 -0.10383937 -0.0122834975 -0.014904473
000120 ff 91 28 3e 6c 26 c9 3d 2f 9f 03 3e 02 db 72 3d
       0.16461943 0.098217815 0.12853692 0.059290893
000130 04 ef ad bd 23 1a ab bd b2 26 81 3d f7 65 af bd
       -0.08492854 -0.083545946 0.06306209 -0.0856437
000140 41 4c 43 3d 58 1f 65 bd c6 d0 03 3e 24 1d f1 3c
       0.047680143 -0.055938095 0.1287261 0.02943284
000150 96 4c 3f bd 6c 2d f2 3c 2f a9 de bc d7 08 c8 3d
       -0.046703897 0.029562674 -0.027180282 0.09767311
000160 42 0e 6d be 08 d9 30 3d a6 4a ed 3c 77 8c e0 3d
       -0.2314997 0.043175727 0.02896626 0.109642915
000170 36 2d 05 3e a6 65 92 3d 4b 1a 0b 3e ea 8c 4d 3e
       0.13005528 0.07148294 0.13584249 0.20073286
000180 30 10 10 3e 13 de 03 3e ca 05 43 3e 01 a3 19 3e
       0.14068675 0.12877683 0.19045177 0.15003587
000190 96 7a 2d bd f0 cf 16 be 47 fd ec bd 2c 93 29 bd
       -0.042353235 -0.1472776 -0.11571746 -0.04140012
0001a0 c9 ea 04 be 3d a9 62 3c dd 63 22 be be 25 03 be
       -0.12980188 0.013834295 -0.15858407 -0.12807366
0001b0 49 e8 e5 bc 9f dd 82 3d 36 03 d4 bd 1d 28 66 3d
       -0.028064864 0.06389927 -0.10352175 0.0561906
0001c0 4b 33 23 3e c0 db b8 3d 0b 39 9b 3d 52 55 ea 3b
       0.15937535 0.09026289 0.075792395 0.0071512843
0001d0 e2 fd f9 bd 3f b5 7f 3d 54 b2 38 bd 54 c7 f6 3d
       -0.122066274 0.06242871 -0.045091942 0.120497376
0001e0 94 3f 22 bd e6 a9 05 3d ca 76 ee 3d 16 3e 0e bd
       -0.039611414 0.03263273 0.11643751 -0.03472718
0001f0 c8 87 96 3c 3a 1d 39 3d 04 b6 65 bd 50 c8 9f bd
       0.018375292 0.04519389 -0.056081787 -0.078018785
000200 23 a8 52 bd dc 50 50 bd d6 22 d8 3d 97 cf ef 3d
       -0.05142988 -0.050858364 0.105535194 0.117095165
000210 35 71 f0 3d df 9a e4 bc 5c 0a da 3d 59 7f 49 3e
       0.117403425 -0.02790588 0.10646507 0.19677486
000220 ec e4 55 3d cf 5a 03 3e b4 79 3a 3d 42 51 3e 3e
       0.05222027 0.1282761 0.04552622 0.18585685
000230 b1 2d 85 3c dd c2 49 bd 46 3c 2d bd fc f3 62 bc
       0.016257139 -0.0492581 -0.04229381 -0.013852116
000240 cf 90 c1 bd 75 f3 0f bd 7b a8 39 be 7c 2e f5 bc
       -0.09451448 -0.035144288 -0.18130676 -0.029929392
000250 a0 ed c3 bd ab 56 93 bd ab 82 f3 3c f8 e6 02 3e
       -0.09566808 -0.07194265 0.029725393 0.1278342
000260 96 4d 28 3e fd e0 11 3b 5f da 04 3e 5e f8 b8 3d
       0.16435847 0.0022259348 0.12973927 0.09031747
000270 d0 a2 dd bd 2d 26 b0 3d 23 4b ce bd 32 d1 6b 3d
       -0.1082207 0.086010315 -0.10072925 0.05757255
000280 7b a0 3b bd 49 5c 14 3d 38 d3 83 3d 94 6b 68 bd
       -0.045807343 0.036220822 0.06436771 -0.05674322
000290 3c 91 ac 3d 87 69 bd bc 33 a4 21 be 7b 05 92 3d
       0.08426139 -0.023121608 -0.15785293 0.071299516
0002a0 9e ca ea bd 3f 20 0a bd ab 85 12 3e 5c f7 52 3d
       -0.114644274 -0.03372216 0.14308803 0.05150543
0002b0 26 86 af 3d 90 c4 72 bb e5 27 8a 3d e9 1f 78 3e
       0.08570509 -0.003704343 0.067458905 0.24230923
0002c0 22 78 06 3e ed 64 a3 3d f3 df 13 3e c9 40 d2 3d
       0.13131765 0.079782344 0.14440899 0.10266263
0002d0 e0 ac 06 bc 12 4c a2 bc bf f7 0c be 96 84 0c be
       -0.008219928 -0.019811664 -0.13766383 -0.13722453
0002e0 6b a4 88 3c d3 56 79 bc bb 5b 9a bd 10 4c f6 3b
       0.016679963 -0.015218454 -0.075370274 0.0075163916
0002f0 e4 c0 82 bc 91 0e 2d be 85 a8 c8 bd 26 af 0a 3e
       -0.015961118 -0.16900088 -0.097977675 0.13543376
000300 f8 66 2a 3e 9c 09 17 3c e7 f6 0c bd 2c 92 5f bd
       0.16640842 0.0092186 -0.034415152 -0.05458276
000310 59 a2 fa bd 6f b3 1b 3c 0a bd 89 bd 3a a2 08 3d
       -0.122379966 0.0095032295 -0.067255095 0.033357836
000320 77 fe bb 3d 37 d5 a7 bd 35 b8 32 bd e6 2a 4b 3d
       0.09179395 -0.081949644 -0.043632705 0.049601458
000330 c9 c4 c3 3d c1 ad a3 3d f8 4b 2a bc 70 df 0f bd
       0.09559018 0.07992125 -0.010394089 -0.035125196
000340 4f 78 0f 3d 8f 72 ca bd 6f 9c 8e 3d d0 0c d2 3d
       0.035026845 -0.098851316 0.06963431 0.1025635
000350 a6 78 b0 3d 4d 18 07 3e 62 09 b7 3d 30 c2 0d 3e
       0.08616762 0.13192864 0.089373365 0.13843608
000360 d6 78 57 3d 35 a9 22 bd fd bb 01 3d ba 63 09 be
       0.052605473 -0.03971215 0.03167342 -0.13416949
000370 f7 42 52 bd 6c f0 6f bd b9 60 af 3d 85 9c 52 bc
       -0.051333394 -0.058578894 0.0856337 -0.0128547
000380 9c 91 0a 3c 90 25 ac bb a6 af 50 3d c8 28 c5 3d
       0.008457568 -0.0052535012 0.05094876 0.09626919
000390 72 e4 dd 3d 25 99 8d 3d 08 35 b7 bd 65 c0 90 3d
       0.10834588 0.069139756 -0.08945662 0.07067946
0003a0 a9 b4 ef 3d 69 9a 78 3d c8 dc af bb 4d 35 e7 3d
       0.1170438 0.060694132 -0.0053668953 0.11289463
0003b0 95 b3 9a 3d e5 b9 77 bd 07 28 8c bd 45 ca 31 bd
       0.07553784 -0.060480017 -0.06843572 -0.04340579
0003c0 21 55 af 3c bb 44 09 bd 24 c5 18 3e be ed dd 3d
       0.021402897 -0.033512812 0.14918953 0.10836361
0003d0 7d 29 c4 3d 8c b6 d0 bd 78 3e 09 3e 79 74 97 bd
       0.09578226 -0.10191068 0.13402736 -0.07395262
0003e0 0c a9 b0 ba 27 16 b9 3d c8 a0 3d 3e ae 4f 4c 3d
       -0.0013478114 0.09037428 0.18518364 0.049880676
0003f0 71 8f 2b 3d 31 2e ec 3d 8c 8a 4c bc 71 a8 58 bd
       0.041884843 0.11532248 -0.012484204 -0.052895013
