app/src/main/assets/classifier_40_612.tflite (tflite, 473280 bytes, 30 tensors)

conv1d/conv1d/ExpandDims_1 f4 [64, 1, 5, 40]
00000000: d136 533e f09d 3abe 6da5 343e 44ba 7b3e
00000010: e560 29be 108b 81be 0929 73be 5f4e 643d
00000020: 7820 d5be 9a14 cabb 3586 cc3e cad8 2b3c
00000030: 99b0 9a3d 853b 663d 6b34 07bd 7aa3 bc3d
00000040: 18d6 40be d4a3 3bbe 64c3 9b3c ce64 1a3c
00000050: dcf8 e73d ec2a ffbd 217a 5bbd 39b9 31bd
00000060: 2420 793e 1055 563e 3cf8 1f3e dd78 52be
00000070: 20dd 193d 6b98 173e 2b95 c03c b4c4 c33d
00000080: 2762 5cbe 07bb a43d f6ae 6d3e d473 8a3d
00000090: 7a1b 73be 1ae1 313e 8d2c 9a3c be04 4b3e
000000a0: 23c0 193e 0986 053d 5ede 1e3e 133c 9a3d
000000b0: 770a ae38 2ccc b5bd 3613 9ebe 06ae 5dbd
000000c0: 02b6 5fbd 9d22 03be 0574 533e 8cb3 a33d
000000d0: 3359 a2bd 2628 de3d a749 60bd b017 9bbe
000000e0: 6de9 15be 7945 093e 9f99 69bd 9c47 ee3c
000000f0: fc83 bd3e aed5 513e fadc a53d 4b90 33be
00000100: a766 333b 2e4a 65bc 2f52 d33d 93c5 95bd
00000110: e6bb 263e bf7c 30bd b666 8a3d 2f66 343e
00000120: 959e 84be 2fed f33d 9a4a 26bb dafe c23e
00000130: 106c 7bbe 9ed2 4b3e 85d7 27be d29b e6bd
00000140: 7db4 383e aaa1 363a 9e34 803d 52ef 5b3e
00000150: dfe0 c9bc 672c 603d 14b4 b0be 9705 a4be
00000160: 895f 0fbe ea9a fd3b 3d9f 273c 795d e1bd
00000170: 79e6 ea3d 522a 7abd 8ce3 023e 3d56 1abe
00000180: e681 73be 37de 34bd 3eb7 383e 958c 243d
00000190: cc98 6e3e 4219 2e3d 9229 9e3d 1bad 7abd
000001a0: 5188 163d d3e1 8fbc 8b0d acbe 7534 ac3c
000001b0: bc39 023e 858f 80bd 3467 133e 2147 99bd
000001c0: 9fb9 403d 5e71 063e db71 c1bd c7db 843e
000001d0: e253 88bd 9bb8 ba3d 073c 4fbd ebea 263e
000001e0: c180 f5bd e537 8fbc c4b1 f7bd abc9 e1bd
000001f0: 34b1 1abe 632f f73d 5b2e 85bd f9b4 44be
00000200: 0635 e8bc c606 7e3d cf26 303e 114b a73d
00000210: 8513 a9bd 82f1 cf3e 5032 61bd 71cd 61bb
00000220: 98f7 c33c bc18 1c3e 41fe 293e 4acd 33bd
00000230: de95 073f fc90 e93c 5230 193e 4e0c 843b
00000240: 0e3e 393d 2d53 cabd cfe6 5dbd 704f fb3d
00000250: 45ce 9d3e fde1 89bd baf5 a83e dd17 0b3d
00000260: 8ffd 003d f757 043f f507 893d c08a 7d3e
00000270: 815e 39be 396d ac3e e92f b63e 4a3e e83d
00000280: 61cf b23d e914 dc3c ebfd 46bd 5e20 623e
00000290: da37 b9ba 8950 a13d 578d 0abe b38a c23d
000002a0: 75be 1dbe 22a9 173e 139f 933e 577f fe3d
000002b0: ca62 4abe 5137 bb3e 3662 433e e621 083d
000002c0: 60f5 dcbe e1ff a73d 9708 ae3e c04d 9e3b
000002d0: 5d23 ca3e 0226 8bbe 0153 d9bb cbef 2ebe
000002e0: 2a09 82be 6c61 9dbd d410 3abd cbf1 54bd
000002f0: a64a adbd 513b 243d 4d52 a53e db38 d53d
00000300: 097d ce3d a6da 413e a7c6 223a 3801 983c
00000310: 0244 b73d 1747 093d 6e5f e4bd 4580 ba3e
00000320: db1d 653e be6d 7bbe 107c c43d c596 d63d
00000330: 125b e33d db3c b83e 318d bb3e cc0a 00bd
00000340: b7c4 6b3e 1dc1 75bd 5f3b fcbd 0a81 173e
00000350: c9a8 963e aee2 bc3e 5dd5 1ebe 6620 94be
00000360: 79ac d2bd 320e 73be 758d a6bd 1e9b c23e
00000370: cdda cd3e 5ef7 84be e4cc 2d3e b058 7f3d
00000380: 620c 5bbe 206b 8a3e ec2f eb3d fcf1 c63d
00000390: fa4c ad3e 8fa2 1e3e 98fa 33be 7816 e0be
000003a0: a7b7 90be 4845 0f3e c4c7 7fbe c2e1 13bf
000003b0: 7ef9 14be e0a6 9fbc 3edd 023d e7b7 c63e
000003c0: 9bce 1b3e f5fa 233d 0f5a 943d c319 733c
000003d0: 4f1c 303e cfac 973e 8b58 cd3e 9d7b c6bd
000003e0: f6b2 1d3f b4a6 f83d b7e3 89be 8a96 cdbd
000003f0: d219 e33d 2e76 8c3e 6926 bf3d 4b03 0fbe
0.2062638 -0.18224311 0.1764123 0.24582773 -0.16540869 -0.2530141 -0.23746122 0.055738803
-0.41626334 -0.0061670067 0.39946142 0.010488698 0.075532146 0.056209106 -0.033008974 0.09210868
-0.1883167 -0.18324214 0.019014068 0.009423448 0.11326763 -0.124593586 -0.053583268 -0.043389533
0.24328667 0.20930886 0.15622038 -0.20553918 0.037564397 0.14804237 0.023508629 0.095590025
-0.21521817 0.08043485 0.23211274 0.06760374 -0.2374095 0.17371026 0.018820072 0.19826028
0.150147 0.03259853 0.15514514 0.075309895 8.298916e-05 -0.08876833 -0.30874032 -0.05412104
-0.054616936 -0.12806173 0.20649727 0.0799323 -0.0792717 0.108475015 -0.05475774 -0.3029151
-0.14639826 0.13405408 -0.05703127 0.02908688 0.3701476 0.20491669 0.080987886 -0.17535512
0.0027374418 -0.013994737 0.1031841 -0.07313075 0.16282615 -0.043087717 0.06757872 0.17617105
-0.25902238 0.119104736 -0.0025374056 0.3808506 -0.24552941 0.19904563 -0.16390808 -0.11260189
0.18037601 0.0006966839 0.06260036 0.21478012 -0.02464336 0.054729845 -0.3451239 -0.32035515
-0.14001288 0.0077394145 0.010230836 -0.110041566 0.114697404 -0.061075516 0.12782115 -0.1507196
-0.23780021 -0.044157233 0.18038651 0.040173132 0.23300475 0.042504556 0.07722773 -0.061200242
0.036751095 -0.017563736 -0.33604082 0.021021107 0.12717336 -0.06277374 0.14394838 -0.0748427
0.047052022 0.13129184 -0.09445544 0.25948927 -0.066566244 0.09117242 -0.050594356 0.16300552
-0.119874485 -0.017482707 -0.12094453 -0.11024793 -0.1510666 0.12069585 -0.06502982 -0.1920966
-0.028345596 0.06201818 0.17202304 0.08168615 -0.08255676 0.40613943 -0.054979622 -0.0034454728
0.023921773 0.1524381 0.16600896 -0.04389695 0.52963054 0.028511517 0.14959839 0.004029787
0.045225196 -0.09879146 -0.054175194 0.12271011 0.30821434 -0.06732557 0.32999974 0.033958305
0.031491812 0.51696724 0.06690971 0.2475996 -0.18102457 0.3367708 0.35583428 0.11340006
0.08730961 0.02686544 -0.048582 0.2208266 -0.0014131025 0.07876689 -0.1353048 0.09499111
-0.15404685 0.14810613 0.28832301 0.12426632 -0.19764248 0.3656564 0.19080433 0.033235453
-0.43155956 0.08203102 0.3399093 0.004831046 0.39480105 -0.27177435 -0.0066322093 -0.17083661
-0.25397617 -0.076845974 -0.045426205 -0.051988404 -0.08461504 0.04009563 0.32289353 0.10411235
0.10082442 0.18931064 0.0006209411 0.018555269 0.08948518 0.033515062 -0.11151014 0.36425987
0.2237467 -0.24553582 0.095939755 0.10477976 0.11101355 0.3598393 0.36631158 -0.031260297
0.2302426 -0.05999862 -0.12316012 0.14795318 0.29425648 0.36891693 -0.15511079 -0.28930968
-0.10286803 -0.23735884 -0.081324495 0.3800897 0.40205994 -0.25969976 0.16972691 0.06234044
-0.21391442 0.27034855 0.1148375 0.097141236 0.3384779 0.15491699 -0.17576063 -0.43767142
-0.28265116 0.13991272 -0.24978548 -0.57766354 -0.14548299 -0.019488752 0.031949274 0.3881218
0.15215532 0.040034253 0.0724374 0.014837685 0.17198299 0.2962403 0.40106615 -0.09691546
0.616012 0.12141171 -0.26931545 -0.10038479 0.11088909 0.27433914 0.09333498 -0.139661

conv1d/conv1d_bias f4 [64]
00000000: 4f19 dabd c0f1 6dbd e5f1 61bd 772a 6cbd
00000010: ee24 62be 395f 9fbd c7a7 99be e35e 5abe
00000020: 976a 4bbe 2ee3 b5bd 7f94 6dbe 69d0 20bd
00000030: e99e 07be cac3 6abd 0c5e 0bbe 1058 03be
00000040: 28b7 3bbe 1e7a 6ebe 5190 ddbb b252 7bbe
00000050: dee1 38be 0846 31be b44f 21be 8b90 72be
00000060: c8bd 98bd 75bc 67bc 4a42 0ebc 1a61 31be
00000070: d702 11bc edaf debc e703 f1bc 9888 1dbe
00000080: d05c 29be a709 47bd d9b3 c5bd 69c3 f4bd
00000090: 46f6 43bd 71e2 eebd 3d9e afbc 13ef 4cbc
000000a0: ba09 e9bd 081d 1abe 6096 25be 25e1 3bbe
000000b0: 832a 61bd 5fd4 15bd a063 09bd 21d3 cabc
000000c0: 8944 07be c969 b3bd a3a7 5ebd 2c92 e0bd
000000d0: 8680 b2bc c319 9bbd abdd 8fbd 726d 6dbe
000000e0: 0013 b5bc 91b1 90be f434 89be ac47 6cbd
000000f0: a8cb b9bd b44b 27be 5a81 32be ce60 5bbe
-0.106493585 -0.05809188 -0.05516233 -0.057657685 -0.220844 -0.07781834 -0.30010816 -0.21325259
-0.1986488 -0.08881222 -0.23201178 -0.039261255 -0.13244213 -0.057315625 -0.13610095 -0.12826562
-0.18331587 -0.23288772 -0.0067615886 -0.24543265 -0.18054911 -0.17311871 -0.1575306 -0.23687951
-0.07458073 -0.014144053 -0.008682797 -0.17322198 -0.008850775 -0.027183497 -0.029420806 -0.15384138
-0.16539311 -0.04859319 -0.09653444 -0.11951334 -0.047842287 -0.11664284 -0.021437759 -0.012508172
-0.11378808 -0.15050137 -0.16170645 -0.18347605 -0.054972183 -0.036579486 -0.033542275 -0.024758877
-0.13209738 -0.08760411 -0.05435909 -0.1096538 -0.0217898 -0.07573273 -0.07024702 -0.23186281
-0.022103786 -0.28260472 -0.26798213 -0.05768554 -0.090720475 -0.16337472 -0.17432156 -0.21423647

conv1d_1/conv1d/ExpandDims_1 f4 [128, 1, 5, 64]
00000000: 2ffe 2ebe a679 0c3e c130 b0bc 794b 80bd
00000010: a232 fabd bf6e d63b c1e0 a9bd 0871 adbc
00000020: 09c7 98be cb65 803d baef 3abe ba2a 623e
00000030: 7962 213e 5d3d 53be 6d0f 583d 4c00 51be
00000040: 7f5a 9d3d d9cb 48bd 4395 f0bd 037c 52bd
00000050: f039 53be 6cdf 9e3c a0d7 38be 225b 18be
00000060: 5b84 103e 7975 be3c 0b20 d03d ae02 4cbd
00000070: 0cf2 43bd bd57 7ebe 2f3a 20be 23b5 d1bc
00000080: dc5d 493e 04a9 803d ddf4 61be 3870 80be
00000090: d912 6fbc 81b0 17bd 286a 7a3e a61f 6bbd
000000a0: a868 24bd 7fb2 4cbe 6f87 683d bcdf 58bd
000000b0: 402f 9e3d 0b98 c7bd f6d2 953e cd7a b03d
000000c0: 0bfa e1bd c1df b23d efaa 74be d971 7f3e
000000d0: 47b5 dabd 53cf 193e 7ef4 1fbe eb2e bb3c
000000e0: 584f 4dbd 8659 c2bd f312 02be d98c 053e
000000f0: 6121 083e 7b7d 86bd 66de c63d 283b b5bd
00000100: 5b22 6abd 0862 ba3d eda3 b7bd aad8 013d
00000110: e3af cf3c 76fd a93d 4600 d9bd 219c 483e
00000120: 26cd 69bd 5e8f 533e 0373 dfbd 32e9 9c3c
00000130: ce78 5ebd e1d0 673e 90cc 4f3d d244 07ba
00000140: 2108 613e 85e1 183e 078e 92bd acf5 163e
00000150: 9598 993d 825b f73c 8b48 83be 3377 e5bc
00000160: 5a16 303c 05a0 8ebd 56bb 70be fcda da3b
00000170: 1941 273e f374 853e 1b60 543e 7e3f 8c3d
00000180: 902c 583e 34cc 5a3e f5e6 013d a403 6ebb
00000190: 87ee 963c a1fe b23d 058c 923e d2af cfbd
000001a0: b6c0 dabd 961f fb3d 88e3 0d3e 02ab 0c3e
000001b0: d7d5 853d bfcb bcba 7716 68bd b306 963e
000001c0: d009 693d 296e ebbc d9b2 413e 8cb3 b3bc
000001d0: 116a 9cbe 9dcf e2bb 0ce7 84be eb85 a23d
000001e0: c1dd efbd 0614 c6bc 44b0 a0bc 1f7c 483e
000001f0: 7d6a 98bd 17f0 083e 8d04 e63d 3edb 3b3e
00000200: 6355 383d 0495 e23d 8247 24bd 4258 0cbe
00000210: 62ba ad3d 9e25 59be f96b cd3d e395 a13c
00000220: 2f59 2dbe 65fc 2e3e 9c17 6dbc b157 273d
00000230: d125 863c 3345 03be 9364 24bc a2c1 9d3c
00000240: 821d 14be 05d4 063e 698d 043e 5761 683c
00000250: 6c18 c9bc 3b83 89bc 4e0f 26be 84e5 ab3d
00000260: bd71 033e da08 413e 7256 96bd f4cb 95bd
00000270: 21b8 7e3d dc44 be3c 56bb d7bc c613 9f3d
00000280: 83a3 0339 0a0d fc3c 9d26 96bd fd41 15bd
00000290: 1b19 56be 0a83 d63d 04fb d13d 4ca2 27bd
000002a0: 2def 3ebe 5845 98bd 756f f2bd ce40 debb
000002b0: e865 033d cd02 f53d a918 0d3e c7bb 66bd
000002c0: 86cc 48be 16eb 82be 2cac bebd 7467 d93d
000002d0: 7862 c33d 4ca2 75bc 982b 213c adaa 863e
000002e0: 171b 63bd 6bcf 2c3e 1814 91be 2371 3a3e
000002f0: 2a90 46be df05 1e3d 262e b63d 1618 05bc
00000300: bfbe a2bc 648a 9a3e b4f4 913d bc1b 72bd
00000310: df0a ca3e a7e0 e4bd 76d6 6e3e ad56 18bd
00000320: 9c1a efbd cbbe 2ebd c0eb c8bc 25f7 bb3c
00000330: c367 c73c 6155 b9bd 89da 13be b125 5f3e
00000340: 47f6 2abe 8ced 083e 32b8 a33d 7272 f6bd
00000350: 9ee5 adbc 0796 ed3d 2042 97be b511 acbd
00000360: 05e1 823b a4ea 79bd 333c c4bd f236 38be
00000370: 8bb9 5bbd 8b9c 5f3d 720b d0bd 8704 b1bc
00000380: cce0 413d e17c 4a3e 540a 1ebe 24f1 4e3c
00000390: 44db a63c 4d50 65bc 3a25 853e f646 db3d
000003a0: 43c4 89bd a008 073e f1da 5c3c 3370 72be
000003b0: 96ce ce3c 247d 4d3d 4ce4 02bc 923c c83d
000003c0: 06aa 323d 114f 3fbe aff4 963b ce14 263e
000003d0: 584b 42be 722e 0ebd ef0e 923d 8533 a33d
000003e0: 1c42 033e c2b4 cc3d 89d5 08be 5828 463e
000003f0: 4cb5 6a3e 4852 873b add9 21be 2f63 f73d
-0.17089151 0.1371828 -0.021507623 -0.06264395 -0.12216689 0.0065439637 -0.082948215 -0.021172062
-0.29839352 0.062694155 -0.18255511 0.22086611 0.1576022 -0.20628877 0.052749086 -0.2041027
0.076832764 -0.04902253 -0.117472194 -0.051387798 -0.2062757 0.019393645 -0.18051004 -0.14878514
0.1411299 0.023249375 0.10162362 -0.049807243 -0.047838256 -0.24838157 -0.15647195 -0.025599068
0.19664711 0.06282237 -0.22066064 -0.25085616 -0.014591896 -0.03703356 0.24454558 -0.05740323
-0.04013887 -0.19989966 0.056769785 -0.052947745 0.07723856 -0.09745797 0.29262513 0.086171724
-0.1103402 0.08734084 -0.23893331 0.24945773 -0.10679107 0.15020494 -0.1562061 0.02284952
-0.050124496 -0.094897315 -0.12702541 0.1304201 0.13293983 -0.06566902 0.09710388 -0.08849174
-0.05716167 0.09100729 -0.08966813 0.031700768 0.025352424 0.08300297 -0.10595755 0.19590808
-0.05708041 0.20660159 -0.109106086 0.019154165 -0.054314427 0.22638275 0.050732195 -0.00051600963
0.21975757 0.14929779 -0.07155996 0.14742154 0.07499806 0.030195002 -0.25641283 -0.02801094
0.0107475165 -0.06964115 -0.23508963 0.006678937 0.16333427 0.26065788 0.20739786 0.06848048
0.21110749 0.2136696 0.0317144 -0.0036318088 0.018424286 0.08739973 0.2862245 -0.10140957
-0.10681288 0.12261884 0.13856328 0.1373711 0.06534927 -0.0014403983 -0.05666205 0.29301986
0.056894124 -0.028739052 0.18915881 -0.0219362 -0.30549672 -0.006921722 -0.25957525 0.07935699
-0.11712218 -0.02417947 -0.0196153 0.19578598 -0.07442186 0.13372837 0.11231337 0.18345353
0.045003306 0.11063579 -0.040107258 -0.13705543 0.08482815 -0.21205756 0.1003036 0.019724792
-0.16928552 0.17088468 -0.014470961 0.040855113 0.016375454 -0.12819366 -0.010033744 0.01925737
-0.14464381 0.13166817 0.12944569 0.014183364 -0.024547778 -0.016786208 -0.16216776 0.08393386
0.12836356 0.18851033 -0.07340707 -0.073142916 0.062187318 0.023226194 -0.026334446 0.07767443
0.00012554046 0.030767936 -0.07331584 -0.036439884 -0.20908014 0.104742125 0.102529556 -0.040926263
-0.18645926 -0.07435101 -0.11837665 -0.0067826277 0.032079607 0.11963425 0.13778938 -0.056331422
-0.1960927 -0.2556998 -0.09310183 0.10615435 0.09540266 -0.014992308 0.009837054 0.2630209
-0.055445757 0.16875999 -0.28335643 0.1820722 -0.19390932 0.038579818 0.08895521 -0.008123418
-0.019866345 0.3018371 0.071267515 -0.05910848 0.3946142 -0.111756615 0.23323998 -0.037192035
-0.11674997 -0.042662423 -0.024526477 0.022944996 0.02434147 -0.09049488 -0.14438833 0.21791722
-0.1669551 0.13371867 0.07994117 -0.120335475 -0.021227654 0.11600881 -0.29542637 -0.08401815
0.0039941096 -0.061014786 -0.095817946 -0.1798971 -0.053643744 0.05459265 -0.10158433 -0.021608604
0.047333524 0.197742 -0.15433627 0.012630735 0.020368226 -0.013996196 0.26004964 0.10706894
-0.06726887 0.13186884 0.013479934 -0.23675613 0.025244992 0.05016817 -0.0079890005 0.09777178
0.04361918 -0.18682505 0.0046068053 0.16218874 -0.18974054 -0.034712262 0.071317546 0.07968811
0.12818187 0.09995414 -0.13362707 0.19351327 0.22920722 0.0041296817 -0.15805693 0.12079465

conv1d_1/conv1d_bias f4 [128]
00000000: 4fe8 b4bc 0843 08bd a8a1 fe3c eda3 0abe
00000010: 0ed6 18bd 5f93 93bd 6430 27be 4086 45bb
00000020: d7a3 3ebd acae 31bd 8e33 333c d29a 49bd
00000030: 9575 f6bc 9e12 a1bd ac4a c1bd 729d 5bbd
00000040: aaf5 b4bd 88be 4ebc 7cde 9fbc 1e3f 29be
00000050: 04c8 3cbe 5a74 2cbe d89a 32be 9759 4dbd
00000060: bb32 cebc 41bf 22be e75d 8ebb e928 ecb9
00000070: 679e 73bd 73ae f5bd 2793 b7bb bb88 86bd
00000080: ddb3 14be ab2a bdbd 9e7d 78bd 3eba 11be
00000090: cc1d 01be cb72 5bbd 9699 9abd d7a4 293d
000000a0: 6b54 0abd 6e53 86bc f882 06be 2e85 08be
000000b0: a84e 87bc 068b b8bd 6a66 7dbe 112e 183d
000000c0: 82dd afbd 492c b6bb cff9 353d c881 55be
000000d0: afcd debd 4a72 05be a15b 9ebd 93a5 5abd
000000e0: 244a 09be 66f0 9dbd 95c0 f3bd b5df 7fbc
000000f0: 851c 60bd 0aea 64bd 6644 b83c 096f 52bd
00000100: 7675 5fbc 4f3b 9fbd ecd9 05be f523 3fbd
00000110: 129d 53bd 6b57 87bc 9a34 aebd 1527 7ebd
00000120: b65a 7ebd dcc5 8abd ee05 86bc b631 24be
00000130: d1fe 26be daf9 91bd 65d9 1bbd 1213 dabd
00000140: faab 8cbd d6e7 7abd 888d a0bd 7ff3 483d
00000150: 922d 3abe 1ea4 83bd 438b 01be 1eef 28bd
00000160: 4e85 39bd 567f b5bc cca3 d7bd 22d0 95bd
00000170: 1d97 fcbd 63c7 8abd cedf dfbd 7f3a 6bbd
00000180: 2f83 6bba 14aa d7bd b1f8 c3bb f11e e8bc
00000190: b267 9dbd 5192 4dbe f1da b9bd 7396 a0bd
000001a0: 29c7 75bd 176a c4bd 0bbd 1bbc 2f6e e6bc
000001b0: 3104 b2bc 2082 ecbd 7269 f9bd 23dd 33bd
000001c0: 61ac 1fbe 4a52 c7bd 6602 89bd 93f7 c5bd
000001d0: 99ef 35be bc4e 16bd 0c0e 10bd 484d 4cbb
000001e0: dab4 bdbd fd39 543c ddfa fcbd d6a4 bfbd
000001f0: 9fcc 3dbe ceec 56bd f855 babd da9c b23d
-0.02208343 -0.03326705 0.031082943 -0.13539095 -0.037313513 -0.07205843 -0.16327053 -0.0030139834
-0.04654297 -0.04337947 0.010937585 -0.049219914 -0.030085364 -0.07864879 -0.09438071 -0.05361695
-0.08835919 -0.012618668 -0.019515269 -0.16527984 -0.18435675 -0.1684126 -0.1744188 -0.050134268
-0.025170675 -0.1589327 -0.00434469 -0.00045043908 -0.059477236 -0.11996164 -0.0056022587 -0.06569048
-0.14521737 -0.09236654 -0.060666673 -0.14231202 -0.12609023 -0.053576272 -0.075488254 0.04141697
-0.033771913 -0.016397204 -0.13135898 -0.13332054 -0.016516998 -0.090108916 -0.24746099 0.037153307
-0.08587171 -0.0055594784 0.04442769 -0.20850289 -0.10879075 -0.13031879 -0.077323206 -0.05338056
-0.13407189 -0.07711868 -0.119019665 -0.015617301 -0.0547147 -0.05588726 0.022493552 -0.051375423
-0.013638845 -0.07774984 -0.13071412 -0.04666515 -0.051663466 -0.016521176 -0.08506127 -0.06204899
-0.062098227 -0.0677602 -0.01636025 -0.16034588 -0.16308142 -0.071277335 -0.03804912 -0.106481686
-0.068687394 -0.061256252 -0.07839495 0.04906034 -0.18181446 -0.06427787 -0.1265078 -0.041243665
-0.045293145 -0.022155445 -0.10529289 -0.07315089 -0.1233351 -0.06776311 -0.10931359 -0.057428833
-0.00089840865 -0.10530487 -0.005980574 -0.028335067 -0.07685794 -0.20075347 -0.09074963 -0.07841196
-0.060004387 -0.095905475 -0.009505521 -0.028128712 -0.021730514 -0.11548257 -0.12178315 -0.043912064
-0.15593101 -0.09732492 -0.066899106 -0.09666362 -0.1776718 -0.03669618 -0.035169646 -0.0031173993
-0.0926301 0.012953279 -0.12352536 -0.09357612 -0.18535088 -0.05247193 -0.090984285 0.08721323

output/MatMul_bias f4 [5]
00000000: 5cdf 6e3c 2804 1b3e 6a59 0c3e c33e 52be
00000010: 0f2d 763c
0.01457962 0.15138304 0.13705984 -0.20531754 0.015025391

output/kernel/transpose f4 [5, 32]
00000000: 9432 113f 880b 323e f7b5 053f 7942 a9bf
00000010: 0fb5 4b3d 9c0d 09bf 53d4 19bf d6d7 80bf
00000020: bf27 af3e c170 123f c7ab 7f3f 1a21 2abf
00000030: 4884 58bf eb65 253f d961 87bf 983f 05bf
00000040: e61b babe 5f40 343f 10cf 5e3f d0ff 40bf
00000050: f706 b23e 34a5 5c3e 5393 953e 4769 533f
00000060: bcde 07bf 5d62 603e 1d4f 203f 1372 2dbf
00000070: 1967 fabe 4586 113e cf78 a4be 345b 25bf
00000080: 107a 083f 4425 a13f 5853 443d fa2d 20be
00000090: bca9 1bbf 3a1f 233f 3522 4b3f 3d04 23be
000000a0: e3c7 b2be 04db aabe 0a26 59be e3da 453f
000000b0: b04f cd3e 3fad f13e d585 6a3f 2ae7 97be
000000c0: 9496 ac3e d68c cc3e f149 19bf 2276 1abf
000000d0: 4176 95bd 02c8 32bf 4f0c 9ebe 00a5 10bf
000000e0: 18f5 523e b2fd 62bf d9c6 5fbf 8d5a b9be
000000f0: b7ea cd3e 4dee 1b3e 274a 76bf 2f19 dc3e
00000100: 7eab debe 1a32 45bf 8600 d6be 20fa dc3d
00000110: 3ddf 143e 295b debe e520 b2be dec1 7f3f
00000120: d39c 6ebf b90a 6b3f 7a76 1abf bb46 ddbd
00000130: 184c bdbd 3fee 82be 0373 3fbf 402f 0e3f
00000140: e79d d5be 98b6 cf3d af43 123f a5cb 49be
00000150: a72e 68bf 0611 a23e 1fe5 db3d 4de3 48be
00000160: 789c 5a3f aa03 783e 1f84 e2bc e03d f63e
00000170: 0afd b2bc d501 5abf 563e 013f c210 33bf
00000180: 6bd2 10bf 0b6d 16bf 16f4 5b3e fbc9 953e
00000190: 2fad ad3e ccf1 e0be 4017 c4bd 4748 16be
000001a0: 6b8f 2e3f fe53 4abf 6754 103f 7049 61bf
000001b0: d734 fcbd e7ad 31bf c34a 4c3f 552d a2be
000001c0: 3676 c43d 4f7d 87bf a0d3 b7be af26 2abe
000001d0: 3a9f 373f c697 1f3f 89a9 9d3e ea57 f0be
000001e0: a1cc 20bf 7d40 273f 6e6f e23e 85dd 493e
000001f0: dabe 013e 8dc0 103f a975 093e 3b65 4f3f
00000200: b537 6e3f 0a3e 4d3b 31e2 20bf 5d1e c93d
00000210: 7306 3e3f 9bf2 9f3f 7a20 30bf 9446 c73e
00000220: d020 313f 7c6d 103e 130f 643e 4aa4 5d3f
00000230: 8d09 55bf d4ab 63be 8b48 bebe 22f9 263f
00000240: cabf 3a3f 6636 043f f93e 973e dadc 813f
00000250: 03ff 0a3e f89a 983f 2ee5 90bf afc3 803f
00000260: b39d 22bf d0e7 2ebf 870d 0ebe bb11 a3bf
00000270: a2cc 543f a7f2 3f3e 8d17 2f3f cbd8 b03f
0.567178 0.17387211 0.5223078 -1.3223411 0.049733218 -0.5353639 -0.60089606 -1.0065868
0.3421001 0.572033 0.99871486 -0.6645676 -0.84576845 0.6460864 -1.0576736 -0.5205016
-0.3634941 0.7041072 0.870347 -0.7539034 0.3477094 0.21547395 0.29213962 0.82582515
-0.5307424 0.21912523 0.6262072 -0.6775219 -0.48906782 0.14211376 -0.3212342 -0.6459229
0.5331125 1.2589498 0.047931045 -0.15642539 -0.6080587 0.6371952 0.7934907 -0.15919586
-0.34918126 -0.3337022 -0.21205917 0.7728712 0.4009986 0.4720249 0.9161046 -0.29668552
0.33708632 0.399512 -0.5987845 -0.60336506 -0.07297946 -0.6983644 -0.30868766 -0.5650177
0.20601308 -0.8866836 -0.8741279 -0.36201897 0.40218136 0.15227623 -0.962069 0.42987964
-0.43490213 -0.77029574 -0.41797274 0.10789895 0.14538284 -0.43428925 -0.34790722 0.9990519
-0.93208045 0.91813236 -0.6033703 -0.108045064 -0.09243029 -0.25572392 -0.7478487 0.5554085
-0.41722032 0.10142249 0.57134527 -0.1970659 -0.90696186 0.31653613 0.10737061 -0.19617958
0.85395 0.24220148 -0.02765089 0.48094082 -0.021849174 -0.85159045 0.5048574 -0.69947445
-0.5657107 -0.58760136 0.2147983 0.2925566 0.3392119 -0.43934476 -0.09574747 -0.14676009
0.6818759 -0.7903441 0.5637879 -0.8800268 -0.12314766 -0.6940598 0.7980158 -0.3167521
0.095928594 -1.0585116 -0.35903645 -0.16616319 0.71727335 0.6234096 0.30793408 -0.46942073
-0.6281224 0.65332776 0.4422564 0.19713409 0.1267046 0.5654381 0.1342379 0.8101384
0.9305375 0.0031317496 -0.6284514 0.098202445 0.7422859 1.2495912 -0.68799555 0.38921034
0.6919069 0.14104265 0.22271375 0.8657881 -0.832177 -0.22233516 -0.3716472 0.65223897
0.72948897 0.51645505 0.29540232 1.0145524 0.13573842 1.1922293 -1.131994 1.0059718
-0.6352188 -0.6832247 -0.13872348 -1.2739786 0.83124745 0.18744908 0.6839531 1.381616

rnn/tf_lite_lstm_cell/cell_bias f4 [64]
00000000: 0f5a a8bd 8b9f c0bd 2ff0 e73d 565e a13d
00000010: 760a c4bd 83ac 833d b236 54bd 986d 88bd
00000020: e6ae f8bc 08bb 1e3d 2a19 55be 7dd3 66bd
00000030: 88e2 ae3d 2b7e fd3c 932f a1bd cac3 97bc
00000040: aca3 893a e933 2e3d 437e f13d d241 a93b
00000050: 7c43 8f3c 04c4 5e3e a788 143d 7468 963c
00000060: 4e7e 5cbb 07ca 023e 04bb 6a3b 9822 d4bd
00000070: 0da0 2fbe b207 51bb 7b39 82bd ab08 be3c
00000080: 87b9 13be bfe2 fcbd df9e 16be 5466 42bd
00000090: f85c 1abe 1700 a1bd 058d 0abe 6221 df3c
000000a0: 9506 893d 11a5 003c cd03 683d 8ea9 d6bc
000000b0: ae65 debd 9b35 523d d50c cdbd c51f 043d
000000c0: 60fa 9bbd 7c4b 90bd e976 f0bc 3fb1 ff3c
000000d0: 22e3 24bc fd6c dd3c 33e2 563d dbdd 19bd
000000e0: e102 af3d b971 babd 5440 3cbc c9d2 48bd
000000f0: 911a cfbb b9ea 2f3d cf8f 20bd fd3d 24bd
-0.08220302 -0.094054304 0.11325108 0.07879321 -0.09572308 0.064293884 -0.051809974 -0.06661528
-0.030356836 0.038752586 -0.2081038 -0.056354035 0.08539301 0.03094395 -0.07870402 -0.018525977
0.0010501049 0.042529974 0.11791661 0.005165317 0.017488234 0.21754462 0.036263134 0.018360354
-0.003364462 0.1277238 0.0035817036 -0.10358161 -0.17150898 -0.0031895456 -0.0635862 0.023197493
-0.14426242 -0.12347936 -0.14709042 -0.04746087 -0.15074527 -0.07861345 -0.13530357 0.027237598
0.066907085 0.007851855 0.05664425 -0.026203897 -0.108592376 0.051320653 -0.10012213 0.03225686
-0.076161146 -0.070456475 -0.029353576 0.031212447 -0.010063918 0.027029509 0.052461814 -0.037565093
0.08545471 -0.09103722 -0.011489946 -0.049029145 -0.0063203056 0.04294846 -0.039199647 -0.04009818

rnn/tf_lite_lstm_cell/cell_to_cell_w f4 [64, 64]
00000000: 66fa 36be 4001 5e3d 0e66 a1bd 9aa7 b33d
00000010: fb7f c3bd 0075 c7bb 7290 683e 8d74 7abd
00000020: d354 4d3e 516f a3be be80 633e 6914 7d3e
00000030: f79c 883c 125e 99bd d3c2 993d 8630 0fbe
00000040: 7319 4e3e 9a88 663e cd80 00bd 17f7 6dbe
00000050: 4d9a 683d 0ce1 723d 3e3d 9bbe 4566 10be
00000060: a7e9 103e c536 9937 6ec9 b33d dab0 f93c
00000070: 9e49 093d e9d3 113e fc18 f23d 78a3 11be
00000080: 56ca 83be ae57 843d 8992 88bc 5aa5 33be
00000090: a4ea 2aba 1c37 073e fddc b03d faaf ad3d
000000a0: 64ca b3bd ec1c 91bc f890 95bd 77ac 7f3e
000000b0: 6963 94be 8186 383e 44f8 a6bd 7dd0 303e
000000c0: b117 3abe 82f3 58be 9a50 863e 3c3a 3e3e
000000d0: 5387 983e b2d0 023e fc3e 77bd a699 093e
000000e0: 4e5a b3be 6b98 ed3c 7625 673d 38ea 0f3e
000000f0: 348d bebc be05 b7bd 78fc 813d 4cdf 893e
00000100: 6611 9dbd 9c64 2d3e 28e9 7d3e 7ec8 853e
00000110: 0cd8 59bd 12c5 bdbc aa53 2d3e 61b3 89bd
00000120: 5c30 263e 3d0b 8fbe e5a3 ee3d 0619 3e3e
00000130: d696 9e3d 3ea3 21be 515f aabe a7fe b6be
00000140: b0b9 38bd ebdf 113e 0bc0 4dbd fad5 ffbc
00000150: 0837 103a b180 103d 312e fcbd 972f 413e
00000160: db6e 12be 6ede fabd f764 a1bd 4fe6 9cbe
00000170: 395c 963d 8ce9 753e 7679 8dbd 3038 87bc
00000180: bf2b 3e3d 650c b2bd b8b2 c43d f33e 883e
00000190: 1aff 863e 2fa6 32be a2f6 153e 8558 71be
000001a0: 1944 263e 7bcf dbbd 11fb 603e ebd0 473e
000001b0: 3f6c 1f3e 88af 58bc f2f9 413c c685 f33d
000001c0: c584 943d 7767 fa3d a6ee 483e 0cb4 02be
000001d0: 1d00 9c3e 7991 653e cfe6 ddbd 7f4b 2dbe
000001e0: 3efb ebbd b878 5cbe bf3a 90bc 5d1f 6e3e
000001f0: 5904 0c3e bc8e 89be ab8c 5abd 7f64 44bd
00000200: 3b62 923e a6f2 35be 6abf 4c3e 33c2 7bbe
00000210: c09c 79be 4698 1e3e d088 3f3e 6f6b eb3d
00000220: 5c15 ba3c b057 6cbd 19bb 38be 7621 a33d
00000230: 960e 0d3e 4946 57be 6990 973e 239f 353e
00000240: 29df debd 4d87 d73c 38cd 38be 0761 79be
00000250: 9fa0 58be 57d2 363e 72e6 a6be 42a4 123e
00000260: b906 8c3e af0f 47be 75ad 39be 3c60 363e
00000270: d2ad c5bd 2091 9dbd d6f7 d9bd d5fe 61bd
00000280: b275 8abd e2b4 3d3d ffee c6bb bef1 bbbd
00000290: 2cc2 dcbd 8409 f93d d83a 1cbd 680f 803e
000002a0: 5260 983e 9d0b 4a3e 8d65 8e3e c721 26be
000002b0: d7b2 8b3d 46e5 07be 0827 77be 7f21 a8bd
000002c0: 9d23 973d 34fa 3a3e 5aca 6abd 8126 9abd
000002d0: 8194 acbe db8b 5abe 4bb1 033e 34b9 73be
000002e0: 0abb 303e 3fcc 043e 7ac9 903e 0548 31be
000002f0: af4c c7bb 28d2 97bb 8830 2dbe b51c 00be
00000300: e86a 8dbd fb70 0cbe a66d 533e 1300 8d3e
00000310: 59a0 bcbe b2d2 d73d d4c5 cc3d 4d7e 96be
00000320: a5e4 62be ccd9 b53d 09b5 d8bd 06a5 b03c
00000330: 89e6 4e3e 2a71 723d 5193 943d d2dc 9cbd
00000340: 922a d43d 40b6 713c 78bc 0f3d d731 c2bd
00000350: ff93 46bd 5d64 a33e 4979 a73e 463a 823e
00000360: 2b9a 4abe ab4d 453e f83d 143e 6e4b 29be
00000370: b22d f0bc 7a15 abbe d9fa a5bd 4760 693e
00000380: 8d2a 2abe 749e 363e f07a 6bbe 7822 81be
00000390: a387 7ebd 7283 9fbd 7347 d6be 8709 553d
000003a0: 476f 2e3d baa9 06be 1508 513e 2d9f f4bd
000003b0: e2ca 043e a9c7 70be 8cb1 77be 4225 febd
000003c0: 7870 4cbe d31e c9bd 87a5 1cbe 7a9b 0bbe
000003d0: e38f 363e c744 2ebe 4c35 5cbe 4511 9e3d
000003e0: 76c9 10be 1fa9 473d 332a 3b3b 53ee 80bd
000003f0: d230 803e b2d5 3b3d b624 ecbc 56e0 63be
-0.17868957 0.05420041 -0.078807935 0.08772202 -0.09545895 -0.0060869455 0.22711352 -0.061146308
0.20051889 -0.31920865 0.2221708 0.24714817 0.01667641 -0.074886456 0.07507863 -0.13983354
0.20126896 0.22513047 -0.031372834 -0.23238789 0.056787778 0.059296653 -0.30320162 -0.14101513
0.14151631 1.8264525e-05 0.08778654 0.030479837 0.033517472 0.14240994 0.11821172 -0.14222515
-0.25740308 0.06462036 -0.016671436 -0.17543545 -0.00065199495 0.13204616 0.086359 0.084808305
-0.08778837 -0.017713986 -0.07303041 0.24968134 -0.28982094 0.18020059 -0.08152822 0.17267032
-0.181731 -0.21186641 0.2623337 0.18576902 0.29790744 0.12774923 -0.0603628 0.13437518
-0.35029835 0.029003343 0.05643221 0.14054191 -0.02326069 -0.08936642 0.06346983 0.26928174
-0.07669334 0.1693291 0.24795973 0.26129526 -0.053184554 -0.02316526 0.16926447 -0.06723667
0.16229385 -0.27938262 0.11652354 0.18564233 0.077436134 -0.15784928 -0.33275846 -0.3574116
-0.04509896 0.14245574 -0.050231975 -0.031229962 0.00055013644 0.03527898 -0.12313498 0.1886581
-0.143001 -0.12249456 -0.07880586 -0.30644462 0.07341809 0.24014872 -0.069079325 -0.016506284
0.04642844 -0.0869377 0.096044004 0.26610526 0.26366502 -0.17446207 0.14644864 -0.23568924
0.16236915 -0.10732933 0.21970774 0.1951329 0.15568636 -0.013225444 0.011839377 0.1189075
0.07251886 0.122267656 0.19622287 -0.12763995 0.30468836 0.22418775 -0.10835039 -0.1692333
-0.1152253 -0.21530426 -0.017606137 0.23254152 0.13673533 -0.2686671 -0.053356808 -0.047947403
0.2859057 -0.17768344 0.19994894 -0.245858 -0.24376202 0.15487775 0.18704534 0.11495101
0.022715263 -0.057700813 -0.18040122 0.079653665 0.13775095 -0.21022905 0.29602364 0.17736487
-0.10882408 0.026309634 -0.18047035 -0.24353419 -0.21155022 0.17853676 -0.3259769 0.14320472
0.2734888 -0.19439577 -0.18132575 0.17810148 -0.09652294 -0.07693696 -0.10642974 -0.055174667
-0.0676073 0.04631508 -0.006070971 -0.09176968 -0.10779223 0.12160018 -0.038142055 0.25011754
0.29760987 0.19730993 0.27811852 -0.16223823 0.0682122 -0.13271055 -0.24135983 -0.08209514
0.073798396 0.18259507 -0.057321884 -0.07526875 -0.3370705 -0.21342413 0.128606 -0.23801118
0.1725885 0.12968539 0.28278714 -0.1731263 -0.0060821394 -0.004633207 -0.16913044 -0.12510951
-0.069051564 -0.13714974 0.20647296 0.2753912 -0.36841086 0.10538234 0.0999867 -0.29393235
-0.22157533 0.08879432 -0.10581405 0.021563064 0.2020513 0.059189953 0.07254661 -0.07659306
0.10359682 0.014752924 0.035091847 -0.094821624 -0.048480984 0.3191251 0.3270972 0.25435084
-0.19785373 0.19267909 0.14476764 -0.1653268 -0.029318664 -0.33414823 -0.08104486 0.22790633
-0.16617794 0.17833883 -0.22996116 -0.2522161 -0.062141072 -0.07788743 -0.41851386 0.05201104
0.04258659 -0.13150683 0.2041324 -0.11944423 0.12968019 -0.23513664 -0.24188823 -0.1240945
-0.19964778 -0.098203324 -0.15297519 -0.13633528 0.17828326 -0.17018424 -0.21504706 0.07718138
-0.14139351 0.04874527 0.0028559088 -0.06295457 0.25037247 0.045858093 -0.028826099 -0.22253546

rnn/tf_lite_lstm_cell/cell_to_forget_w f4 [64, 64]
00000000: a26c d43d f26d 5fbe c8c1 083f ccb8 f13d
00000010: 4a79 65be e651 853e 5b9d f7bd d8ff c8bc
00000020: e2d8 cbbc 5d6b d33d c687 c8bd d8f0 47be
00000030: 1af8 8e3e e7ce ebbe d675 1cbe 659d 66be
00000040: ac08 18be 8794 cf3e 1a3b 9f3d 8a19 90bb
00000050: 5ab3 b03e 6651 fb3c bfc9 1ebc e8d9 043f
00000060: 0b23 c53c bb84 a9bd 372d 0fbe c397 673e
00000070: 4223 3e3d 3ec9 893c 08b9 8cbe 77fc 80be
00000080: 83d4 593d ca61 d3be b3e4 93be cf06 1abc
00000090: 0e17 66be a9b3 b2bb 236a 333e 871c 8d3d
000000a0: 05d3 723e 80f9 aebd 95a3 2f3e 595e 3ebe
000000b0: 193c e83c c8fe 4ebe a4bc 7e3d 9330 9ebe
000000c0: 0717 b7be 2b96 3a3e f61e d4be cd2c 5dbe
000000d0: ade9 74bd 6818 d03d 7ea5 083f b7c9 07be
000000e0: 6e8a 30be 9e28 2b3e 119c e8bd 0c6d 5bbd
000000f0: 60aa 593e add6 66be ab8b 97bd c342 88be
00000100: b22c 17be ffa0 463b b42a 6cbe 43ca a4bd
00000110: 5e3a 253e be6b 463e 0cc2 01bf f579 893e
00000120: 442f 983d e763 1d3e eccd ab3d ccb9 2ebe
00000130: b631 ecbe 62a7 b1be 2211 ecbe d1f3 2f3d
00000140: a828 a23d f4e6 e33e f43c b03d ec1c 143e
00000150: e5a8 943e c276 8abc 5361 a23e e4be 08be
00000160: 3d05 2dbe 33fd 5b3e 24f3 84be a0bc 0e3d
00000170: f6b2 62be 156b 2e3d 0d18 f43e c5de 2dbe
00000180: 60fc 91bd 2424 8e3e 48ca 713e ecae 86be
00000190: 94d1 90bc b2f4 4a3e 53c8 203e 35b5 42be
000001a0: f319 2f3e 62ed 9bbd 7596 b2be 8301 e13c
000001b0: 3b39 f3bc 0bd6 933a e850 28be b0e3 663e
000001c0: 9b5d 71be c344 d13d b1f6 223e 0c1e e6bd
000001d0: 3499 e0bc fa32 853e 077d a5bd d87e de3d
000001e0: 190f 803d cb0a bd3e d6a5 efbd 9770 6fbd
000001f0: 2b62 ea3e 88c6 75bd 7206 9abe 5a9b cebe
00000200: 902a 5ebd 79fc e83e 7a33 323e d28d ab3d
00000210: 3546 33be b200 0e3e eb7a a63e d773 39be
00000220: 6262 96bd d9d0 3a3e 793e 8f3c 62c1 6abe
00000230: 089e 9d3b 8c17 9ebe ea89 babb 6180 3dbe
00000240: a103 053e ef1e b43e 84bb 7bbd f06f 61be
00000250: f377 9fbe d709 543d 12d4 65bd ce46 383e
00000260: 9ec3 30be 412c f33e e6fd 8c3c 15f0 9c3d
00000270: 1e4b a9be 002c 133e 000a babd c98f 7bbe
00000280: 8aa9 9abe f907 393d f6b1 0d3d ec4c 493e
00000290: 52da a33e d7cf 903c c736 ab3d 3836 afbd
000002a0: 0ec4 413d 420c 483d fdf2 603d 3b6b 053f
000002b0: 0358 13be 2d13 603e 7d10 983b 7b5f 9bbc
000002c0: 125c 623e 22b5 133e 5192 53be 4fa6 94be
000002d0: 63e2 263e 08e4 1cbe 4fb7 533e 6a05 813c
000002e0: 8317 363e 1acf 28be 139a 3b3e 2788 153d
000002f0: 1659 54be 195e 59bc 19dc e73d 2ecb 53be
00000300: 4a3d 99be 0cb5 073e 68cd c0bd 23c7 abbc
00000310: 379e c0bd 334a 7dbe 562c 493c c590 c93d
00000320: a616 f03d 64aa 57bc ccee cdbe c642 01be
00000330: b17b 4fbe b62a 9cbe 67a8 8e3e 01f3 883d
00000340: 54d2 b7bc 99a4 7a3e d548 393e b260 c3bd
00000350: aff3 d23d 5629 28be 0b7c 2c3e a15a ba3d
00000360: b660 85be c561 d43d bc1c 3a3d 632a 813e
00000370: 8b96 93bd 7d02 823d 8043 8d3b 35da 213e
00000380: 9837 193e 8cc9 9abe 5c21 b7be 2ab1 b1bd
00000390: b408 33bd 1441 573e f153 623d a2c3 153e
000003a0: 2013 16bd 88aa bbbb d8ec 2f3e 5738 0cbe
000003b0: 826f 0fbd 5792 76be 04ab 2abe a6d4 683e
000003c0: a7c5 7bbe 0b9a 0cbe fbe4 c9bd b2bd 6a3d
000003d0: b040 5abe c0a3 363e f755 803e aa32 1ebe
000003e0: 5d73 df3b bda8 053d a946 99be b410 dd3d
000003f0: efa0 ff3d c80e 403e 18f5 e6bc 5d44 75be
0.103722826 -0.21819285 0.53420687 0.11802825 -0.2240955 0.26039046 -0.1209056 -0.024536058
-0.024883691 0.10323212 -0.09791522 -0.19525468 0.2792366 -0.4605629 -0.15279326 -0.22520979
-0.14847058 0.40543005 0.077749446 -0.0043975757 0.34511834 0.030678462 -0.009691655 0.51895
0.024064561 -0.082772695 -0.13982092 0.22616486 0.046420343 0.016819593 -0.27484918 -0.25192615
0.053181183 -0.41285545 -0.2888542 -0.009401037 -0.22469732 -0.005453546 0.17520957 0.06890207
0.2371331 -0.08543682 0.17152245 -0.18590678 0.02834897 -0.20214379 0.06219162 -0.30896434
-0.35759756 0.18221347 -0.4142987 -0.21599121 -0.059793163 0.10160905 0.5337752 -0.13260542
-0.17240307 0.16714713 -0.11357892 -0.053570792 0.21256399 -0.2254283 -0.073996864 -0.26613435
-0.14763144 0.0030308363 -0.23063165 -0.08046391 0.16135547 0.19377038 -0.5068672 0.26850858
0.0743089 0.15370141 0.08388886 -0.17063063 -0.46131676 -0.34698015 -0.4610682 0.04295713
0.07917911 0.4451214 0.08605376 0.14464158 0.29035106 -0.016902331 0.31714877 -0.13354069
-0.1689653 0.21483307 -0.25966752 0.034847856 -0.2213858 0.04258259 0.476746 -0.16979511
-0.07128215 0.27761948 0.2361232 -0.2630533 -0.01767806 0.19819906 0.15701418 -0.19014437
0.17099743 -0.076136366 -0.34880415 0.027466541 -0.029690376 0.0011279 -0.16437113 0.22547793
-0.23570864 0.102181934 0.15914418 -0.112362 -0.027416803 0.26015455 -0.08080488 0.10864037
0.0625288 0.36922297 -0.117015526 -0.058456983 0.4577802 -0.060003787 -0.30083042 -0.403529
-0.05423981 0.4550512 0.17402449 0.083766595 -0.1750725 0.13867453 0.32515654 -0.18110596
-0.07342984 0.18243732 0.017485844 -0.22925332 0.0048100986 -0.3087734 -0.00569271 -0.18506004
0.12989666 0.3517985 -0.061458126 -0.22015357 -0.31146201 0.051767197 -0.05611045 0.1799576
-0.17262122 0.474947 0.017210912 0.076629795 -0.33065122 0.14372253 -0.090839386 -0.24566568
-0.30207473 0.04517362 0.034593545 0.1965825 0.32002503 0.01767723 0.08360057 -0.08555263
0.047306113 0.048839815 0.05491923 0.52116746 -0.14389043 0.21882315 0.0046406374 -0.018966427
0.22105435 0.14424565 -0.20661284 -0.29033133 0.16297297 -0.15321362 0.20675395 0.015749652
0.17782407 -0.16485253 0.18320493 0.036506798 -0.20737109 -0.013267064 0.11321277 -0.20682976
-0.29929572 0.13252658 -0.09414178 -0.02096898 -0.09405177 -0.24735336 0.012278637 0.09842066
0.1172307 -0.013163183 -0.4022125 -0.12623128 -0.20262028 -0.30501336 0.27862856 0.06686974
-0.02243916 0.24476852 0.1809419 -0.095399275 0.10300385 -0.16422018 0.16844194 0.09099317
-0.26050347 0.103702106 0.04543756 0.2522765 -0.07206448 0.06348131 0.004311025 0.15805896
0.14962614 -0.30231893 -0.3576764 -0.086763695 -0.04370947 0.21020919 0.055255834 0.14625409
-0.036639333 -0.005727116 0.17180192 -0.13693367 -0.03501845 -0.24079262 -0.166668 0.22737369
-0.24587117 -0.13730638 -0.09858128 0.057309814 -0.21313739 0.17835903 0.25065586 -0.15449014
0.0068191723 0.032631624 -0.29936722 0.107942015 0.124818675 0.18755639 -0.028193042 -0.2395186

rnn/tf_lite_lstm_cell/cell_to_input_w f4 [64, 64]
00000000: 21f5 11bf 53a4 94bc 4440 27be 87e7 e23e
00000010: 6857 e03e 5dd6 a7bb 8082 753d 519a a93d
00000020: 0083 8f3d d1e5 c03d b85f 12be 55b5 9a3e
00000030: 74d7 18be ec8f 8d3e d937 3b3e 1fb0 e5bd
00000040: f3db 6f3e 25c5 f2be 5bba b43d ff1c da3e
00000050: 38ff 1a3d 7f9f 793c 375d b5bd 68b4 e2be
00000060: eafd 00be e7d0 8b3c 057a 773e 93bd 263e
00000070: 4cb4 2b3e c5c2 fc3c ffed 28be 5c7d 01be
00000080: 2626 013e 6c61 35be 4004 78be 3843 f4bd
00000090: 3701 0b3e 48d5 3dbe 72fe a8be 3a59 353e
000000a0: 8924 5ebe e390 833a 7d8b 8cbe 2e9c 85be
000000b0: 79ff d1bd fa4d 9f3e 6421 1c3e d088 b83e
000000c0: 7f4f 093f d4f3 bdbe 4410 073f 4ca8 4dbd
000000d0: 961d c83e 9f26 0dbe dc84 55be 44eb ba3e
000000e0: eec2 ae3c 75ab b5be 021b a03e 6ea4 e53c
000000f0: 818f a43b 6af8 933e 7745 29be 6520 79bd
00000100: e6e0 68be 456e a0be f52f 1b3e 9c7a 1abe
00000110: 3bc0 dc3e 614f f9bd f19e 413e 4ba6 1bbe
00000120: d671 4ebd cf6f efbe c1de 25be b9de 4c3e
00000130: 1a2e 133e 01bf 8c3e 8b94 5c3e 05d7 91be
00000140: 6f3f 9c3e 2864 5ebe 7829 ae3b 91c6 133c
00000150: a767 d8be 5873 e8bd ccdf cebd b46d e93b
00000160: 64b2 ac3d 267e 703d d062 623e 2b07 293d
00000170: 2e97 93bd 3070 94be e8a1 6c3e 0b24 26be
00000180: 2dc0 edbd e95d 7a3e 20d7 353d bfef 7d3e
00000190: 6c03 ad3c a341 933b d1a0 d4bd 116b 9bbe
000001a0: 7c47 97bd 014f ccbc 53eb d1bd 8d10 2e3e
000001b0: ac78 ccbd 0ade b33d e5b4 413e 96bd 723e
000001c0: be57 9b3e e699 243e e72d 3dbe 7cce 8e3c
000001d0: 6db9 1d3e c6cf 73be ceae a73e d92c 1d3e
000001e0: 821a 16bd ed83 ad3d 9f74 9e3e 18de a2be
000001f0: cad4 32be bd2d 843e b8fb 97bb 921f d53e
00000200: 06a6 f7bb 4889 2ebc 377b 913e dadb 74be
00000210: df82 91be 168f 613d 4b60 5a3e 6f31 b13c
00000220: a128 53be 502d f2bd bd80 09bd 89b3 dfbd
00000230: 0de8 0e3e 6bb8 abbd b353 56bb 3a7f 683d
00000240: 0d28 53bd 5af8 893e d662 aebe 3ee3 a1be
00000250: 35e3 103e ea9a 50be 654d c8be 8a0d 853e
00000260: 9dab 873e 4841 84be 2ed1 a33c 36bd 153e
00000270: b221 7fbe 6c3b debe 40ab 12be 0ebd bdbe
00000280: 15b8 1c3e c36c 7abd e294 29be 9494 a2bd
00000290: 4386 e03d 0861 45bc 6e39 e53d c66d a83c
000002a0: 75da 5f3e dd00 c5bb dab9 5d3e 1472 d63d
000002b0: 1635 2b3e 46cc f43d 5e2b eabd 7650 9cbe
000002c0: 5f85 83be 919d 0cbe 27d3 513c edd2 8dbc
000002d0: 1d75 f7bd fb50 953b aff5 7f3e 5692 6abd
000002e0: 520b 053c 717e 983b f8fd 3b3e 84f6 9dbe
000002f0: d880 f7bc 6179 fb3d 5e2f f9bd ddc4 15be
00000300: 92ca 0bbe 02b5 88be b7d7 81be 6727 8c3e
00000310: 2f70 06be f510 373e 25d3 913d b6f3 883c
00000320: 2e60 49be 4058 c43d 5e76 23be c609 a03c
00000330: a62f 973b f6d9 19be 0c8b 7d3e e8c8 953e
00000340: 4915 523e 65eb 08be fe1f 95be c16f d73c
00000350: 28ff 6bbe 3e27 15be 3b4c 063e d767 143e
00000360: e219 33be a66b 9ebd e061 3bbe 1d6a 163d
00000370: 0185 983e f8ff 0dbe b578 d1bd 100b f03d
00000380: 17f8 fb3d 7810 59be 93f8 c3be 326e 783d
00000390: b70f e13c c7e4 3cbd 899b 743e 5f1d 75be
000003a0: 8b0f d9bd e380 02be 667e 5f3d 106e 46be
000003b0: 6316 ac3d 6180 643c f0b8 263e 87f6 1abe
000003c0: 0ac5 a9bd 3602 7f3d 6aa4 57be 4323 dabb
000003d0: dc0c 88be 7e3f 9ebd 3643 b6bd acd5 8abd
000003e0: 656d 4f3e 75e4 fc3d 3600 09be 5981 0ebe
000003f0: b3c5 a6bd bb6c 693e 2799 8f3e 84cc 4abe
-0.5701466 -0.018144762 -0.16333109 0.44317266 0.43816686 -0.0051219896 0.059938908 0.08281387
0.07007408 0.09418834 -0.14294326 0.3021647 -0.14925939 0.27648866 0.18283023 -0.11215233
0.23423748 -0.47416034 0.08824607 0.42600247 0.03784105 0.015235781 -0.0885567 -0.44278264
-0.1259686 0.017067386 0.2416764 0.16283254 0.16767997 0.030854592 -0.16497038 -0.12645477
0.12612209 -0.17712945 -0.24220371 -0.119268835 0.13574682 -0.18538392 -0.33006626 0.17709818
-0.21693625 0.0010037686 -0.2745017 -0.26095718 -0.10253806 0.3111418 0.15247113 0.3604188
0.53636926 -0.3710009 0.52759194 -0.05020933 0.39085072 -0.13784264 -0.20851463 0.36507618
0.021333184 -0.35482374 0.31270605 0.028032508 0.00502199 0.28900462 -0.16530405 -0.06082191
-0.22742042 -0.3133413 0.15155013 -0.15085834 0.4311541 -0.121733434 0.18908288 -0.15200154
-0.05040153 -0.4676499 -0.16198255 0.20006837 0.14373055 0.27489474 0.2154104 -0.2848436
0.30517146 -0.21717894 0.005315002 0.00901951 -0.4226658 -0.11350125 -0.101012796 0.0071236733
0.08432463 0.058714055 0.22108006 0.0412666 -0.072065696 -0.28991842 0.23108637 -0.16224687
-0.1160892 0.24449886 0.044394612 0.24798487 0.021119796 0.0044939085 -0.10382236 -0.30355123
-0.073866814 -0.024940016 -0.10249963 0.16998501 -0.09983954 0.08782585 0.18916662 0.23705134
0.3034038 0.16074333 -0.18474542 0.017432444 0.15402766 -0.23809728 0.32750553 0.1534914
-0.036646374 0.084724285 0.3094835 -0.3181007 -0.17463985 0.25816146 -0.0046381615 0.4162565
-0.0075576333 -0.010652848 0.28414318 -0.23911992 -0.2842016 0.055068098 0.21325795 0.021630017
-0.20620967 -0.11825049 -0.03357004 -0.109229155 0.13955708 -0.08384784 -0.0032703697 0.056761958
-0.051551867 0.2694729 -0.3405978 -0.31618685 0.14149173 -0.20371595 -0.39121547 0.25986892
0.26498118 -0.25831056 0.019997206 0.1462296 -0.24915197 -0.4340471 -0.14323139 -0.370583
0.15304597 -0.06113888 -0.165607 -0.07938495 0.109631084 -0.01204706 0.111925945 0.020560157
0.21860678 -0.006012066 0.21652928 0.104709774 0.1671947 0.119530246 -0.11434053 -0.30530137
-0.25687692 -0.13731982 0.01280669 -0.017312491 -0.120828845 0.0045567728 0.24996065 -0.057268463
0.008120375 0.004653745 0.183586 -0.3085214 -0.030212805 0.122790106 -0.12167238 -0.14625879
-0.13651493 -0.26700598 -0.2535989 0.27373812 -0.13128732 0.17877562 0.07120351 0.016717773
-0.19665596 0.09587145 -0.15963122 0.01953591 0.0046138344 -0.15024552 0.24760073 0.29254842
0.20515932 -0.13371046 -0.2912597 0.026298406 -0.23046553 -0.14565751 0.13115017 0.14492737
-0.17490342 -0.07735376 -0.18299055 0.03672229 0.29788974 -0.13867176 -0.10228101 0.1172086
0.12303179 -0.21197689 -0.38275585 0.060651965 0.027473314 -0.046116617 0.23887457 -0.23936985
-0.10598668 -0.12744479 0.054563902 -0.19377923 0.084027074 0.013946624 0.16281486 -0.15133105
-0.08289535 0.062257968 -0.21058813 -0.0066570356 -0.2657231 -0.07726954 -0.08899538 -0.06779036
0.20256574 0.12348262 -0.13378987 -0.1391653 -0.08143177 0.22795384 0.28046533 -0.19804579

rnn/tf_lite_lstm_cell/cell_to_output_w f4 [64, 64]
00000000: 994a 043e 91cc bfbd 9187 8e3e 7bfc 8cbe
00000010: 2bfd 85bd 93f6 0c3d eb73 11be 9ced 95bd
00000020: d1a9 70be 331d c0bc ef68 5ebd 3b22 cabe
00000030: ff13 87bc e612 1ebe e698 c9be 19a2 02be
00000040: e370 043e 6728 ba3e f664 02be 8b5b e33d
00000050: 57b7 bd3e 64ca 9ebd b98e 7a3d f0ee 063f
00000060: da61 873d d34b eb3d 97bc f7bc 9aea c1be
00000070: f516 b4bd 29b1 b23d 88a6 0cbd df2c d7be
00000080: 9d75 d83e e898 23bc 4ac0 29be 107a 2cbe
00000090: b0ec d23d 7c04 903d 1957 ce3e c121 83bd
000000a0: afb8 c63e 9677 02bd fc96 603e 9f53 94be
000000b0: 7a06 b03c 40f5 6c3d d58c 113e a66c b5be
000000c0: 3b68 c1be 753a bc3e cc72 17bd 51f4 97be
000000d0: 3651 0fbd 2545 893c c34b 913d cc07 f9bd
000000e0: 208e fabd 7e5c 133e 20f7 2abd c342 7cbe
000000f0: 2425 533e a2cf e3bd 7b21 2ebd 154f 9cbd
00000100: 6caf ddbd 281d 2e3d 2e43 85be 7cd8 ee3d
00000110: 3d35 1c3c daae 27be 35a8 44be 1335 3fbe
00000120: 4494 cfbd 4e50 923c 3296 89bd b857 96be
00000130: 3265 2bbe a1c6 38be 5f88 2bbe d638 023e
00000140: 34fa cd3d 7dcf 203e 3770 cb3c 1924 ee3d
00000150: b2a8 a63e 7643 c3be 239a f1bc 39d8 ac3d
00000160: 68ea 15be 3b93 573e 9ef9 e1be 1db3 c43d
00000170: ed8f 683d 00f4 ed3c 86fa 213e 6a42 87be
00000180: 1f47 a43d 8f14 e23e e68e 893d 5e48 d1bb
00000190: fa0b 983e 345a e23c 72df 713d cbf1 cbbd
000001a0: 7f30 6d3e bb4c 2abe 075a 82be 63a0 8e3e
000001b0: b97d 69be 0c6a cfbb 7a2a 3cbe 2160 893e
000001c0: d4c4 97bd 6508 5abe bd60 3c3e db58 aabe
000001d0: 9ecf 7fbc 4cad 813d 0153 96be 5549 323e
000001e0: bd1f b2bd 262d 2e3e 0e7b 173d 798f 043e
000001f0: 3c23 7d3e 8a4e 063c 9fa1 43bc f0d5 fe3b
00000200: 1b69 d1bd a8a1 363e d2ff 02be 6057 ad3d
00000210: 82c9 ba3d d90e b5bc 86e7 09bc 0ae0 e13d
00000220: abe5 2c3e d1d0 0d3e 8f61 093e 2c53 c7bd
00000230: bb51 29be b7ea 20bd 7b6b 343e 6ad9 153d
00000240: 0490 55bd dc0d 79be f7a4 55be 6ad4 1cbd
00000250: cb53 81be 24e8 db3d 8cfb 0abd 6512 58bc
00000260: 7959 0cbe 82f7 3cbd 9ce3 003e 321d e5bd
00000270: 2a20 c53c 5d3f 30be 337c eabc 453d 49be
00000280: fdcf 95bd fca2 bb3d fd63 b03d 5e17 a4bd
00000290: ea07 b8bd 2252 263e 38a2 43be e906 abbd
000002a0: 12cd 75bd f865 c13d e7dd da3d 7741 6ebc
000002b0: 88b6 d5bd 1d78 d7bc 227e 54bb e894 b3bd
000002c0: 6d10 2bbe d55a 813d d631 2a3d fdb1 ee3b
000002d0: 55a2 69be 356b c33d 5548 c83e eaa0 41bd
000002e0: b5f4 823d db2d 22bd 655e dd3d 8d34 93be
000002f0: 9009 39bd 09b1 9abd 32f8 0ebe ee2e 283e
00000300: 8fa7 67be 4244 aebe ea47 f23d 9044 0f3e
00000310: 3f34 cd3d 7735 9bbd 2087 7d3d 2c93 f53d
00000320: 6fba 3bbd bf31 263e 3e3a 95be b044 603e
00000330: e1ff 393d 5e42 9ebd f404 433e 74bd 07be
00000340: 26b6 8bbd bda8 613e 5023 79bd 6e16 a8bd
00000350: 147b 8cbd 589b f7bd fc6a 983d 67a3 49bd
00000360: 42c1 bcbd 43ca 313e 904c 743d c07d 4ebe
00000370: 6233 333d 55ec 6dbe f958 67be 35bd 993d
00000380: 6e92 54be da13 ce3d 6138 93be fb56 e93d
00000390: d60c 04bd 6620 d9bc b104 4bbe b4c9 73be
000003a0: 7f69 44be c338 5d3e 40e5 f4bc 294d 193e
000003b0: d946 0c3e 5f49 63be 90b9 a23d 41dc c03d
000003c0: 6781 75bd cc2e 343c c2b0 9fbe 9e99 2ebe
000003d0: be96 6bbd 386c f3bd 4f24 8e3e 2d2d b23d
000003e0: 0fbe 0a3e 0254 94bd ecec dcbd 9a30 a03e
000003f0: 7eed 46be 2f20 0ebe f655 663e c326 c9bd
0.12919082 -0.0936519 0.27837804 -0.27536377 -0.065424286 0.03441484 -0.14204375 -0.07320711
-0.2350228 -0.023451423 -0.05429929 -0.3947924 -0.016489027 -0.15436897 -0.39374465 -0.12757148
0.12933688 0.3635895 -0.12733826 0.11101445 0.3705394 -0.07753447 0.061171267 0.5270834
0.066104606 0.11489072 -0.030241294 -0.378743 -0.08793441 0.08725197 -0.034338504 -0.4202642
0.42277232 -0.009985186 -0.16577259 -0.16843438 0.10299051 0.07032105 0.40300825 -0.064029224
0.38812777 -0.031852327 0.21932596 -0.28970048 0.021487463 0.057851076 0.1421388 -0.35434455
-0.37774834 0.3676335 -0.036974713 -0.29678586 -0.03498956 0.016756603 0.070945285 -0.1215969
-0.122341394 0.14390752 -0.041739583 -0.24634843 0.20619637 -0.11123587 -0.0425124 -0.07632271
-0.10824475 0.042508274 -0.26027817 0.11662385 0.009534177 -0.16375294 -0.19204791 -0.1867259
-0.10135701 0.017860558 -0.067181006 -0.293638 -0.16737822 -0.18044521 -0.1675124 0.12716994
0.10057488 0.1570415 0.024833782 0.11627979 0.3255058 -0.38137406 -0.029492443 0.08439679
-0.146402 0.21052258 -0.44135755 0.09604476 0.056777883 0.029047012 0.15818223 -0.26417857
0.08021378 0.4415631 0.06716709 -0.0063868007 0.29696637 0.027630903 0.059050985 -0.09958228
0.23163031 -0.16630833 -0.2545931 0.2785674 -0.22801866 -0.0063297804 -0.18375579 0.26831153
-0.07410589 -0.21292265 0.18396278 -0.33270916 -0.015613465 0.06331882 -0.29360202 0.17410786
-0.0869746 0.1700941 0.03698259 0.12945355 0.24720472 0.008197436 -0.011940389 0.007776968
-0.102251254 0.17835104 -0.127929 0.08463931 0.09120466 -0.022101806 -0.008417016 0.1102906
0.16884486 0.13849188 0.13416122 -0.09732661 -0.16535084 -0.03928634 0.17619126 0.036584295
-0.052139297 -0.24321693 -0.2086371 -0.03828851 -0.2525924 0.10737637 -0.0339313 -0.013187979
-0.13706006 -0.04613448 0.12586826 -0.11187209 0.024063189 -0.17211671 -0.028623676 -0.19652279
-0.07315061 0.09161946 0.08612821 -0.080122694 -0.089858845 0.16242269 -0.1910485 -0.083509274
-0.060010023 0.09443277 0.10686856 -0.014541975 -0.10435206 -0.026302392 -0.0032423814 -0.08768636
-0.16705485 0.06316153 0.041551434 0.0072844015 -0.22815831 0.095419325 0.39117685 -0.0472726
0.063943304 -0.039594512 0.1080902 -0.2875103 -0.045175135 -0.07553298 -0.13961866 0.16424152
-0.22622512 -0.34036452 0.11830123 0.13990998 0.10019731 -0.07578557 0.061896443 0.119909614
-0.045832094 0.16229914 -0.29145998 0.21901202 0.04541004 -0.07727502 0.19044858 -0.13255864
-0.068218514 0.22037025 -0.060824692 -0.08207403 -0.06859413 -0.12090176 0.07442281 -0.0492281
-0.092165485 0.17362313 0.05964333 -0.20165157 0.043750174 -0.23234685 -0.22592534 0.075067915
-0.20758983 0.1006238 -0.2875395 0.11393543 -0.032238804 -0.026504707 -0.19826008 -0.23807412
-0.19180869 0.21603684 -0.029894471 0.1497084 0.13698901 -0.22195958 0.079455495 0.0941701
-0.05993786 0.010997485 -0.31189543 -0.17050788 -0.057516806 -0.118858755 0.27762076 0.08700023
0.13549064 -0.07242586 -0.10787377 0.3128708 -0.19426534 -0.13879465 0.22493729 -0.09821846

rnn/tf_lite_lstm_cell/forget_bias f4 [64]
00000000: bee7 9e3f f849 913f e38c 993f 35c8 a23f
00000010: 32bf 723f 30fb 853f e297 8e3f 91c0 893f
00000020: 6741 863f 31f1 8d3f 0e6c 933f b882 813f
00000030: b22b 8c3f 99ff 893f d244 8e3f b3fa 533f
00000040: 6219 883f 423f 993f 0a1a 743f 9316 8e3f
00000050: f290 7a3f 75e4 893f 4fe0 8a3f 3774 733f
00000060: edb3 883f f97f 903f e604 753f 9175 8e3f
00000070: a8b8 753f 345f 993f c09d 883f 7a25 813f
00000080: ab34 813f 80c0 8f3f 6866 843f a63e 8f3f
00000090: 419a 9e3f 2a3e 963f 6d82 923f 4ef8 863f
000000a0: 074d 9a3f 42c8 6b3f 2245 8c3f b274 853f
000000b0: ad02 8a3f b913 853f e3f8 813f 05e1 853f
000000c0: 848f 9d3f 354d 403f 2ce2 8d3f b0c3 8e3f
000000d0: fd19 8f3f 137c 943f b21e 8b3f a6de 883f
000000e0: 5d0d 8c3f 83b4 823f 4240 733f 9bbf 7c3f
000000f0: 0353 873f 67e0 7c3f a52b 813f 7c49 933f
1.2414472 1.1350698 1.199612 1.2717348 0.9482299 1.0467281 1.1140101 1.0761892
1.0488709 1.1089231 1.1517351 1.0118017 1.0950835 1.0781127 1.1114752 0.8280441
1.0632746 1.197243 0.9535223 1.1100639 0.9787742 1.0772845 1.0849704 0.95099205
1.0679909 1.1289054 0.957106 1.1129628 0.9598489 1.1982179 1.0673141 1.0089562
1.0094198 1.1230621 1.0343752 1.1190994 1.2390825 1.1737721 1.1446053 1.0544527
1.2054757 0.92102444 1.0958598 1.0426238 1.0782067 1.0396644 1.0154079 1.0459296
1.2309422 0.7511781 1.1084647 1.1153469 1.1179806 1.1600364 1.0868742 1.0692947
1.0941578 1.0211338 0.95019925 0.98729867 1.0572208 0.9877991 1.0091444 1.1506801
