app/src/main/assets/classifier_25.tflite (tflite, 453020 bytes, 30 tensors)

conv1d/conv1d/ExpandDims_1 f4 [64, 1, 5, 25]
0	0x3cbce316	0.023057502
1	0x3da54352	0.08069481
2	0x3c7325de	0.014840571
3	0x3defdb86	0.11711793
4	0xbd12733f	-0.03575444
5	0xbd88be79	-0.06676955
6	0x3e3d3b3c	0.18479627
7	0x3e61ba24	0.22043663
8	0x3e4f225b	0.2022795
9	0x3dd658fa	0.1046619
10	0x3c260499	0.010132932
11	0xbd8fc83e	-0.07020615
12	0x3dadaa1e	0.08479713
13	0x3e0ebde4	0.13939625
14	0xbd8b9cd8	-0.06817025
15	0x3cc6de4d	0.024275923
16	0x3d6980be	0.057007544
17	0x3b9f26a9	0.0048569036
18	0x3e2ee703	0.17080311
19	0x3e2e4ed7	0.17022263
20	0xbcc85b73	-0.024457669
21	0xbdab2582	-0.083567634
22	0x3d3717af	0.04470032
23	0x3e54d217	0.20783268
24	0x3db7996e	0.08964811
25	0xbb65baa0	-0.0035053864
26	0xbdc6ade4	-0.09701136
27	0x3d036525	0.03207888
28	0xbd7758d4	-0.060387447
29	0xbdae89d8	-0.08522385
30	0x3e0f0e76	0.1397036
31	0xbc826403	-0.01591683
32	0xbe46998e	-0.19394514
33	0xbdd1d82a	-0.10246308
34	0xbda16a74	-0.078816324
35	0x3a88181a	0.0010383159
36	0xbceb21ae	-0.028702583
37	0xbe1c014f	-0.15234874
38	0x3dc4d01c	0.09610006
39	0xbb40aaff	-0.0029398797
40	0x3e17130c	0.1475336
41	0x3e146ac0	0.14493847
42	0x3cf20db9	0.02954756
43	0x3d72aefc	0.05924891
44	0xbccf8166	-0.025330257
45	0xbd484071	-0.04888958
46	0xbe45fdb4	-0.19335061
47	0x3e1f5cfb	0.15562813
48	0x3e303a87	0.17209826
49	0xbe450a1d	-0.19242139
50	0x3e4e2f44	0.20135218
51	0xbd8a1365	-0.067419805
52	0x3e4f3ff5	0.20239241
53	0x3cc164d8	0.023607656
54	0x3d83c799	0.064345546
55	0xbe4dd897	-0.20102154
56	0xbdd91afe	-0.106008515
57	0x3d862cdb	0.06551524
58	0x3e03f8a7	0.12887822
59	0x3dda806d	0.106690265
60	0x3b130da6	0.0022438555
61	0x3c492dc8	0.0122789815
62	0xbe2ddb15	-0.16978104
63	0xbd381f3f	-0.044951674
64	0xbbc7bf14	-0.0060957763
65	0x3c1d0a4e	0.009584976
66	0xbe568e5b	-0.20952742
67	0xbe435a18	-0.19077337
68	0x3d7792f5	0.060442884
69	0x3d72523f	0.059160467
70	0x3da33d59	0.079706855
71	0xbe15b6c5	-0.14620502
72	0xbdb95c5d	-0.0905082
73	0xbb1f5286	-0.0024310662
74	0x3e46f0a9	0.19427742
75	0xbb825462	-0.0039773444
76	0xbe56d45f	-0.2097945
77	0x3bb01bf9	0.0053744284
78	0x3e820f76	0.2540242
79	0xbe41f21e	-0.18940017
80	0x3e02189c	0.127047
81	0xbe004a9a	-0.12528458
82	0x3e10d996	0.14145502
83	0x3d167cba	0.036740042
84	0xbcce164a	-0.025157113
85	0xbe5f7619	-0.21822394
86	0x3e4d03db	0.20021002
87	0xbdc618d0	-0.09672701
88	0x3cbccb24	0.023046084
89	0x3c6937de	0.014234511
90	0x3dc245b1	0.09485949
91	0xbe59590b	-0.21225373
92	0x3e3fb61a	0.1872181
93	0x3e043c73	0.12913685
94	0xbdb05d5e	-0.086115584
95	0xbd1ac796	-0.037787996
96	0x3e1ad3c8	0.1511985
97	0xbe5283cd	-0.2055809
98	0x3bf1c4c0	0.0073781908
99	0xbda68f31	-0.0813278
100	0xbe1145de	-0.14186808
101	0x3e012735	0.12612613
102	0x3e03c13d	0.12866683
103	0x3de2f182	0.1108122
104	0xbe378c34	-0.17924577
105	0xbe12092e	-0.14261314
106	0x3e35ed0c	0.17766207
107	0xbd131c6a	-0.03591577
108	0x3d34ff5b	0.04418884
109	0x3ddf3b40	0.10899973
110	0xbdf35b12	-0.11882605
111	0xbe09b9cf	-0.13449787
112	0xbd507b89	-0.050899062
113	0x3e4e3107	0.2013589
114	0xbe0a6734	-0.13515931
115	0xbdae5961	-0.085131414
116	0xbdaa28fd	-0.08308599
117	0xbd17ee10	-0.03709227
118	0xbde6c6f6	-0.112684175
119	0xbe3847d3	-0.17996149
120	0x3e4547b8	0.1926564
121	0x3befbf11	0.007316478
122	0xbe262303	-0.16224293
123	0x3bac7853	0.005263367
124	0xbd0ca625	-0.034338135
125	0xbe2cb40e	-0.1686556
126	0xbe1700c9	-0.14746393
127	0xbd888555	-0.06666056
128	0xbdf6b7a1	-0.12046743
129	0x3e00a4d0	0.12562871
130	0xbb6199e6	-0.0034424006
131	0x3e18661c	0.14882702
132	0xbd94b41d	-0.072609164
133	0xbccee3b8	-0.02525507
134	0xbe3a7675	-0.1820925
135	0xbd819495	-0.06327168
136	0xbdb7e9b9	-0.08980126
137	0x3c6f9a07	0.014624125
138	0xbe53c79d	-0.20681615
139	0xbe5fcc36	-0.21855244
140	0x3e1793c0	0.14802456
141	0xbd3f557d	-0.046712387
142	0x3dc23548	0.09482819
143	0xbe071bba	-0.1319417
144	0x3e40e6f2	0.18838099
145	0x3e5724a7	0.21010076
146	0x3d914e9f	0.07095074
147	0x3cbc2313	0.022965943
148	0xbdcb7cbf	-0.09935903
149	0xbe46483f	-0.19363497
150	0x3e483092	0.19549778
151	0x3d1313b2	0.035907455
152	0x3e558cb9	0.20854463
153	0xbcd9b91a	-0.026577521
154	0xbdecc9c0	-0.11561918
155	0xbdf2ade1	-0.11849571
156	0x3df17faa	0.11791928
157	0x3e44af46	0.19207487
158	0xbda289a6	-0.079364106
159	0xbdbd87b2	-0.092543975
160	0xbc89ce89	-0.016822116
161	0xbdc0a1ea	-0.09405883
162	0x3d448eee	0.04798787
163	0xbe18c941	-0.14920522
164	0xbe3bc8b9	-0.18338288
165	0xbdffcfd8	-0.12490815
166	0x3e2ec9a0	0.17069101
167	0x3e0ecd03	0.13945393
168	0xbd7eb2c9	-0.06218222
169	0x3b719cab	0.0036867063
170	0x3e1cd23d	0.15314575
171	0x3e25414c	0.1613819
172	0xbe3fdd7b	-0.18736832
173	0x3e69442a	0.22779909
174	0xbd8dc3f3	-0.0692214
175	0xbd2b8c40	-0.0418818
176	0xbe278f79	-0.16363324
177	0x3db8f1cb	0.09030493
178	0xbe29fd1a	-0.16600457
179	0xbcdb5388	-0.02677323
180	0xbcfc9a2f	-0.03083524
181	0xbe1c3e0d	-0.15258045
182	0x3ca78c98	0.020452783
183	0x3e043231	0.12909772
184	0xbd211e50	-0.03933555
185	0x3cd2f1db	0.025750091
186	0x3dca941c	0.09891531
187	0xbe1e4259	-0.15454997
188	0xbcbf9966	-0.023388576
189	0xbdfe9c84	-0.12432197
190	0x3e07ef4e	0.13274881
191	0x3e14f2f3	0.14545803
192	0xbda77818	-0.08177203
193	0xbe08969c	-0.13338703
194	0xbd11bbfe	-0.035579674
195	0x3d3a1181	0.04542685
196	0x3e321ff4	0.17395002
197	0x3e54a927	0.20767651
198	0xbd065008	-0.032791167
199	0x3c9bd7e3	0.019023841
200	0xbe2b6f62	-0.16741708
201	0xbc0d7d6c	-0.00863586
202	0x3e5006b6	0.2031506
203	0x3e302d0b	0.17204683
204	0xbe3defed	-0.18548556
205	0x3e567bd2	0.20945671
206	0x3ce30b98	0.02771549
207	0xbdd7d5f0	-0.10538852
208	0x3d69d418	0.057087034
209	0x3dcff277	0.101536684
210	0xbcf4ca98	-0.02988176
211	0xbdebf97f	-0.11522197
212	0x3e4c967c	0.1997928
213	0xbd0b333a	-0.0339844
214	0xbd04732b	-0.032336395
215	0x3e36c9cf	0.17850421
216	0xbe05f238	-0.1308068
217	0xbe1b1e2c	-0.15148228
218	0xbe650d86	-0.2236844
219	0x3dfeaa18	0.124347866
220	0xbd904ffe	-0.07046507
221	0xbe370e5b	-0.1787657
222	0xbe27ca58	-0.16385782
223	0xbd230425	-0.039798874
224	0x3e40df30	0.1883514
225	0x3cc91c89	0.02454974
226	0xbd2d0223	-0.042238366
227	0x3ca0529f	0.019570647
228	0x3daa08c4	0.08302453
229	0xbdc0c8ef	-0.09413325
230	0xbcf70460	-0.030153453
231	0xbdeaa815	-0.1145784
232	0x3dc69871	0.09697045
233	0x3e5ebcaf	0.21751665
234	0x3d7feba9	0.062480602
235	0x3e09f528	0.13472426
236	0xbd0ede1b	-0.034879785
237	0x3c0767b9	0.0082644755
238	0xbe25755a	-0.16158047
239	0xbb98f983	-0.004668416
240	0xbdcf11a7	-0.10110789
241	0xbe2be538	-0.16786659
242	0x3c9e545a	0.019327331
243	0xbd7017c4	-0.058616415
244	0x3cb441f5	0.022004107
245	0x3da5032f	0.08057248
246	0xbda0b767	-0.07847481
247	0x3d88dd99	0.066828914
248	0x3da36607	0.079784445
249	0xbe18e139	-0.14929666
250	0x3d460fe1	0.048354987
251	0x3d3a6636	0.045507632
252	0x3d1e319d	0.038621534
253	0x3d8c5ef7	0.068540506
254	0xbbae2005	-0.0053138756
255	0x3e103e1f	0.14086197

conv1d/conv1d_bias f4 [64]
0	0x3d481bdc	0.048854694
1	0xba842502	-0.001008183
2	0xbaa5cc48	-0.0012649382
3	0xbb3ba38a	-0.0028631412
4	0xb913ca5b	-0.00014094396
5	0x3c15090e	0.009096397
6	0x3b157c6e	0.0022809762
7	0x3d1c7e5f	0.038206454
8	0x3d5ba94d	0.053628255
9	0x3d838a89	0.06422908
10	0xb60132e4	-1.925212e-06
11	0xbb05b6b4	-0.002040309
12	0x3c571055	0.013126452
13	0xbaa9f909	-0.0012967895
14	0x3c3b422c	0.011429351
15	0x3cd8ca50	0.026463658
16	0x3a9391a0	0.001125861
17	0x3d5fa055	0.054596264
18	0xba387250	-0.0007036077
19	0x3b88cd42	0.0041748593
20	0x3c89ccbe	0.016821261
21	0x3d0aeac8	0.03391531
22	0x3c918c8f	0.017767219
23	0x3d048746	0.03235557
24	0xba44ddda	-0.0007509865
25	0xbb4cc8b3	-0.0031247556
26	0x3a64c519	0.00087268796
27	0x3abc81c8	0.001438194
28	0x3cdf0668	0.027224734
29	0x3bcb4754	0.0062035713
30	0x3bda766f	0.0066669504
31	0xb972f248	-0.00023169175
32	0x3ce13e58	0.027495548
33	0x3d05bc57	0.032650318
34	0x3b8786ec	0.004135957
35	0x3da12e4c	0.078701586
36	0x3c528502	0.012849094
37	0x3b06e1cd	0.0020581365
38	0xb98ddf0f	-0.00027059807
39	0x3a8b24cb	0.0010615824
40	0x3d4a9951	0.04946262
41	0xb9c2f9d0	-0.00037188688
42	0x3d6688a4	0.056282654
43	0x3d52eb32	0.05149383
44	0x3c2e017f	0.010620474
45	0xb98ca290	-0.00026824
46	0xba8cf50e	-0.0010754184
47	0x3c4a7281	0.012356401
48	0xb6c39af1	-5.8294904e-06
49	0x3b0dd8e0	0.002164416
50	0x3aba229f	0.0014200992
51	0x3c5f67e9	0.013635614
52	0x3d451bd9	0.04812226
53	0x3cf7a2b5	0.030228952
54	0x3c566f64	0.013088081
55	0x3b8edc6b	0.004359772
56	0x3ce5e625	0.028063843
57	0xb592f259	-1.094838e-06
58	0xbb8b729b	-0.0042556054
59	0x3d5673f8	0.05235669
60	0x3cd39de5	0.025832126
61	0xbaa09339	-0.0012250907
62	0xbbee1163	-0.0072652563
63	0x3d14b458	0.0363048

conv1d_1/conv1d/ExpandDims_1 f4 [128, 1, 5, 64]
0	0xbd495809	-0.049156222
1	0xbcf2d5c0	-0.02964294
2	0x3d0f8e47	0.035047796
3	0xbca5998a	-0.020214815
4	0x3dd646b7	0.104627065
5	0xbcb29e34	-0.021803953
6	0x3d8563f2	0.06513204
7	0xbd53d465	-0.051716227
8	0x3d888d88	0.0666762
9	0xbd756b0f	-0.059916552
10	0xbce653de	-0.028116163
11	0xbd88caa2	-0.06679274
12	0xbdb038d7	-0.08604591
13	0xbd2ffe87	-0.042967346
14	0xbd503827	-0.0508348
15	0xbc2f63e5	-0.010704969
16	0x3d10d898	0.03536281
17	0x3e0c1d86	0.13683137
18	0xbdd15cad	-0.102227546
19	0x3d56bb9f	0.052425023
20	0x3d7441a3	0.05963291
21	0xbc91d7e4	-0.01780314
22	0x3d5c32c5	0.053759355
23	0xbd6a623c	-0.05722259
24	0x3c3ffb72	0.011717664
25	0xbd0b48b1	-0.03400487
26	0x3e128f4c	0.14312476
27	0xbd19afbf	-0.03752112
28	0x3deee82d	0.11665378
29	0xbd107260	-0.035265326
30	0xbd208249	-0.03918675
31	0x3cb964ff	0.022631167
32	0x3c8adf09	0.016952055
33	0xbdc11dff	-0.094295494
34	0xbcfb1559	-0.030649828
35	0x3dd8492b	0.10560831
36	0xbdbd7e65	-0.092526235
37	0x3d0cd593	0.034383368
38	0xbcfabac3	-0.030606633
39	0x3d4b9fbb	0.049712878
40	0xbc569e67	-0.0130992895
41	0x3d8a798c	0.067614645
42	0x3df23d8f	0.118281476
43	0x3e1b932b	0.15192859
44	0x3d00df80	0.031463146
45	0x3d50a730	0.050940692
46	0x3d63e749	0.055640493
47	0x3d6c2a27	0.057657387
48	0x3d774691	0.06037003
49	0x3c2025d8	0.009774648
50	0x3e0886a5	0.13332613
51	0x3da2e32c	0.07953486
52	0xbd0714ad	-0.032978702
53	0xbdafb6da	-0.08579798
54	0xbdfb8d82	-0.1228285
55	0xbde8afd6	-0.11361663
56	0xbd40cdf1	-0.0470714
57	0xbdffacc8	-0.12484127
58	0x3d904280	0.07043934
59	0x3d3f8a4b	0.046762746
60	0xbd013a78	-0.0315499
61	0x3e04809d	0.12939687
62	0x3c16f03c	0.00921255
63	0xbdc2a5e3	-0.09504297
64	0x3c3c63df	0.0114984205
65	0xbe091b9a	-0.13389435
66	0x3bf1a7e2	0.0073747495
67	0x3d1caac2	0.038248785
68	0x3e0d53eb	0.13801543
69	0xbd898330	-0.06714475
70	0xbdcd0041	-0.10009814
71	0x3e25178c	0.16122264
72	0x3d875af1	0.066091426
73	0x3c8cddfe	0.017195698
74	0xbc80c576	-0.015719157
75	0xbd086163	-0.033296
76	0xbde49266	-0.11160736
77	0xbdd1bc27	-0.10240965
78	0xbdb03e4c	-0.08605632
79	0x3d365556	0.044514976
80	0xbe0ac26f	-0.13550733
81	0xbdbf9d9a	-0.09356232
82	0x3cbd6178	0.023117766
83	0x3d0c55f2	0.03426165
84	0x3e0ea98b	0.13931863
85	0x3dfc6ff1	0.12326039
86	0xbb961f77	-0.0045813876
87	0xbda7d713	-0.08195319
88	0xbd3f7a60	-0.046747565
89	0xbda6b34b	-0.08139666
90	0xbd9fd7d8	-0.07804841
91	0xbcf2eb26	-0.029653143
92	0xbd1ac58d	-0.037786055
93	0x3d99ae90	0.07503998
94	0x3e0be82a	0.13662782
95	0xbe00a0bb	-0.12561314
96	0xbcca341d	-0.024683053
97	0xbd6214b9	-0.055195544
98	0x3c23e08a	0.010002265
99	0x3e0d730c	0.13813418
100	0xbdd406e1	-0.103528745
101	0xbcf29cb6	-0.029615741
102	0x3de34e7c	0.11098954
103	0xbbff98cd	-0.0078001977
104	0xbd67c280	-0.056581974
105	0xbcf0b7ed	-0.029384578
106	0xbdc4679f	-0.09590077
107	0xbcf8a047	-0.030349864
108	0xbda7400d	-0.081665136
109	0xbd6fffbc	-0.058593497
110	0xbc73c387	-0.01487816
111	0x3d987f5b	0.07446166
112	0x3dc3bf1e	0.09557937
113	0x3dbc301f	0.09188866
114	0x3e00d725	0.12582071
115	0xbd61eb74	-0.055156186
116	0x3e0dcb8b	0.13847177
117	0x3d3d20d3	0.04617388
118	0xbdcab055	-0.09896914
119	0xbc0fd869	-0.008779624
120	0xbd975400	-0.073890686
121	0x3da343a8	0.07971889
122	0xbd20c2f0	-0.039248407
123	0x3c4d69cf	0.012537434
124	0xbdd74458	-0.105110824
125	0x3d2ca532	0.04214973
126	0x3d50311e	0.05082809
127	0x3d8d1823	0.06889369
128	0x3d40461f	0.046941873
129	0xbd2c5971	-0.042077485
130	0xbd4ede08	-0.050504714
131	0xbc797abf	-0.015227019
132	0x3d16e399	0.036838148
133	0xbcc350f9	-0.023842322
134	0x3d2dcad6	0.042429768
135	0xbcd526dc	-0.026019506
136	0x3da51c79	0.08062071
137	0xbe041bf2	-0.12901285
138	0xbd8e12d7	-0.06937187
139	0x3d344355	0.044009525
140	0xbad32cb4	-0.0016111345
141	0xbd74f67d	-0.059805382
142	0x3deace49	0.11465127
143	0x3e0a4b9f	0.1350541
144	0x3cc2f3b0	0.02379784
145	0x3dfdf767	0.12400704
146	0xbdb74490	-0.08948624
147	0x3c46356b	0.012097697
148	0xbde8c85f	-0.11366343
149	0xbacde9c5	-0.0015709928
150	0x3ce9d29a	0.028542805
151	0xbd7017c4	-0.058616415
152	0xbc4a646b	-0.012353043
153	0xbcc278f3	-0.023739314
154	0xbd459afe	-0.048243515
155	0x3dff6fc8	0.124724925
156	0xbbbe0288	-0.0057986416
157	0xbdf87a1c	-0.121326655
158	0xbdb7b716	-0.08970468
159	0x3de9e1cd	0.11420021
160	0x3d523dfd	0.051328648
161	0x3cd5133b	0.026010146
162	0xbddcb6a2	-0.10777022
163	0xbd0d1f77	-0.034453835
164	0x3d1614f0	0.03664106
165	0x3d0e29a5	0.034707684
166	0xbde1755e	-0.11008714
167	0x3ddd7183	0.10812666
168	0x3d89f35c	0.0673587
169	0x3c8abaf7	0.016934855
170	0xbc9f9d12	-0.019484077
171	0x3e02dfa5	0.12780626
172	0x3dace89b	0.084428035
173	0xbda71cce	-0.08159791
174	0xbd37e294	-0.044893816
175	0x3ab8c6d2	0.0014097339
176	0xbdb4b387	-0.088233046
177	0xbce646e0	-0.028109968
178	0xbd5d6bc2	-0.054057844
179	0xbdac26f5	-0.08405868
180	0xbde39ee8	-0.11114293
181	0xbda79e1b	-0.08184453
182	0xbd612731	-0.054969016
183	0x3dd7810e	0.10522662
184	0x3d8dc789	0.06922824
185	0xbd5eb3d2	-0.05437071
186	0x3d6e1fee	0.05813592
187	0x3c2d4465	0.010575389
188	0xbcf93492	-0.030420575
189	0x3df13142	0.11776973
190	0xbe073372	-0.13203219
191	0x3cf304b9	0.029665338
192	0x3de893ce	0.113563165
193	0xbad6100b	-0.0016331685
194	0x3c3a7f05	0.011382823
195	0xbe050619	-0.12990607
196	0x3defe049	0.11712701
197	0x3d9198d5	0.071092285
198	0x3c90d558	0.017679855
199	0x3da37867	0.07981949
200	0xbd91755c	-0.07102463
201	0xbd7c6988	-0.06162408
202	0xbdaafd63	-0.08349111
203	0x3deaae33	0.11459007
204	0x3d2727b7	0.04080936
205	0x3d0623f1	0.03274912
206	0x3da24cfd	0.079248406
207	0xbc904345	-0.017610202
208	0xbe104067	-0.14087068
209	0xbc3dbbef	-0.011580451
210	0xbc9bc8c8	-0.019016638
211	0x3e10afa6	0.14129505
212	0x3de688cd	0.112565614
213	0x3d458bc3	0.04822899
214	0xbdd0a898	-0.10188407
215	0x3c3bcf92	0.011463063
216	0xbdedc6bd	-0.11610172
217	0xbd299117	-0.041398134
218	0xbd8d99b1	-0.0691408
219	0x3da23b13	0.07921424
220	0xbdd31e01	-0.10308457
221	0xbd1a2198	-0.037629694
222	0xbd756d94	-0.059918955
223	0xbcfaa28f	-0.030595092
224	0xbd994040	-0.07482958
225	0xbd8a3d57	-0.06749981
226	0xbdc5edce	-0.09664498
227	0xbd9571fe	-0.07297133
228	0xbc6fcb1f	-0.01463583
229	0x3add1603	0.0016867522
230	0x3daf2642	0.08552219
231	0x3ccdbae5	0.025113532
232	0x3de5f485	0.11228279
233	0xbd07a21e	-0.03311359
234	0x3d8ed69e	0.06974529
235	0xbdee7aac	-0.116444916
236	0x3dda16b4	0.106488615
237	0xbdfded07	-0.12398725
238	0x3dd189ad	0.10231338
239	0xbde41404	-0.1113663
240	0x3d9f8477	0.077889375
241	0x3d9a3ff3	0.075317286
242	0xbc9f6820	-0.01945883
243	0x3bb245d2	0.005440452
244	0xbdbaa48c	-0.09113416
245	0xbe01d2d8	-0.12678087
246	0xbb9b221e	-0.0047342917
247	0x3dab94bd	0.08377979
248	0x3dc76aeb	0.0973719
249	0x3ddbcc9a	0.10732384
250	0x3e0db039	0.13836755
251	0x3d6f5163	0.058427226
252	0x3c364ef9	0.011127227
253	0xbdd6fbc0	-0.10497236
254	0x3ddac2d5	0.106816925
255	0xbd56a7fa	-0.05240629

conv1d_1/conv1d_bias f4 [128]
0	0x3c61a500	0.013772249
1	0x3d89bd0d	0.06725512
2	0x3cf993ef	0.030466048
3	0x3cb43d3f	0.02200186
4	0x3a8d7893	0.001079338
5	0xbc1d910d	-0.009617102
6	0xbc51b1eb	-0.012798767
7	0xbb6908c3	-0.00355582
8	0x3d0c80d7	0.03430256
9	0x3cc8174b	0.02442517
10	0x3bdaecc9	0.006681059
11	0x3b90c6f6	0.0044182492
12	0xbb4368cd	-0.0029817105
13	0x3cb9f1ec	0.022698365
14	0x3b5832e7	0.0032989325
15	0xba83c141	-0.0010052101
16	0x3c82ed82	0.015982393
17	0xbbdda165	-0.0067636245
18	0xbaca8e3f	-0.001545377
19	0xbc025ed6	-0.007957181
20	0xbc150c0b	-0.00909711
21	0x3b2e5366	0.0026600002
22	0xbc21696b	-0.009851794
23	0x3d0fe352	0.0351289
24	0xba6384c2	-0.0008679145
25	0xbbebb33c	-0.0071929973
26	0xba472a26	-0.0007597528
27	0x3c7c745d	0.015408603
28	0x3c25c0b7	0.010116748
29	0x39af5efc	0.0003344937
30	0xba00b183	-0.0004909264
31	0xbb4c7bf4	-0.0031201812
32	0xba0abc86	-0.00052923744
33	0x3c889dee	0.01667687
34	0x3cf15ec5	0.029464135
35	0xbb399723	-0.0028318844
36	0xbbcb1d2a	-0.006198545
37	0xbc1df7f7	-0.009641639
38	0xbc4e9c83	-0.0126105575
39	0x3d1f360b	0.0388699
40	0x3bb02e66	0.005376625
41	0xbb9849f2	-0.004647487
42	0x3b4c09c6	0.0031133755
43	0x3c90e94a	0.017689366
44	0x3c18330c	0.009289514
45	0x393bd012	0.00017911222
46	0x3b6c5699	0.0036062358
47	0x3d1c288e	0.038124613
48	0x3c523b91	0.012831585
49	0xbb178b69	-0.0023123866
50	0x3cda49cf	0.026646523
51	0xba79a11c	-0.00095226034
52	0x3c6c9758	0.01444038
53	0x3a4957dc	0.00076806336
54	0x3c2b9dd9	0.0104746455
55	0x3be0a254	0.0068552885
56	0xbba72b29	-0.0051015806
57	0x3c1d7788	0.009611018
58	0x3bdee223	0.00680186
59	0xbb95e98f	-0.0045749615
60	0xb996b11a	-0.0002874218
61	0x3a16b9fe	0.0005749761
62	0x3d1fa7a9	0.038978253
63	0x3cdebf9c	0.027190976
64	0x3bb2a2cf	0.005451537
65	0x3b61dd6d	0.0034464255
66	0xbb90ad85	-0.0044152164
67	0x3ce2a8e7	0.02766843
68	0x3ac127d2	0.0014736599
69	0x3d522f50	0.051314652
70	0xbb112a90	-0.0022150613
71	0xbb18375b	-0.0023226354
72	0x38b0ea0b	8.435928e-05
73	0xbaf6f20c	-0.0018840446
74	0x3adf91e1	0.0017057025
75	0x3d2f8d2a	0.042859234
76	0xbb038bb1	-0.0020072276
77	0xbc88e228	-0.016709402
78	0xbbd61d11	-0.0065342267
79	0xbc03e3fc	-0.008049961
80	0xba8441db	-0.0010090427
81	0x3c03cc40	0.008044302
82	0x3a45d326	0.0007546417
83	0xbb5f4b88	-0.003407212
84	0x399caf08	0.00029885047
85	0x3b3599c1	0.0027710053
86	0x390de1a5	0.00013530867
87	0x3cc8d8cc	0.02451744
88	0xbb119ee0	-0.002221994
89	0xbc606752	-0.0136965085
90	0x3c25ebe6	0.010127043
91	0x3c3280a7	0.010894931
92	0xbbeb563d	-0.0071819113
93	0x3d016720	0.03159249
94	0x3c96a279	0.01838802
95	0xbbaf5eaa	-0.005351861
96	0x3d10c268	0.03534165
97	0xbcc68622	-0.024233881
98	0x3ad0c7ae	0.001592865
99	0xba3b19de	-0.00071373384
100	0x3c5677fd	0.013090131
101	0x3b32607f	0.002721816
102	0x3b329897	0.0027251595
103	0x3d0ac42c	0.03387849
104	0x3b3e9478	0.0029080193
105	0xbb4caccf	-0.0031230932
106	0x3b24e4cb	0.0025160785
107	0xbbde5ab1	-0.0067857136
108	0xbb3b38a0	-0.0028567687
109	0x3d10e01b	0.035369974
110	0xbc1f9112	-0.009739177
111	0x3d02608e	0.031830363
112	0xbc49ea16	-0.012323877
113	0x3a031462	0.00050002907
114	0x3b02d777	0.0019964853
115	0x3a2fc27e	0.0006704702
116	0x3d0bfb16	0.034175
117	0xbb8b5fa9	-0.004253347
118	0x3b09bcb4	0.0021017017
119	0x3c82906f	0.015938012
120	0x3b14c311	0.0022699276
121	0x3ba15ecf	0.004924632
122	0xbab9d901	-0.0014179052
123	0xbbbc70e0	-0.0057507604
124	0x3d05c6f3	0.032660436
125	0xbbcdb5a2	-0.006277756
126	0x39e87ab0	0.00044341898
127	0x3bbec11a	0.0058213593

output/MatMul_bias f4 [5]
0	0xbe7f6ef8	-0.24944675
1	0xbe3302aa	-0.17481485
2	0xbe034697	-0.12819897
3	0xbe76dc96	-0.24107584
4	0xbe9aa02a	-0.3020032

output/kernel/transpose f4 [5, 32]
0	0x3eef9f6b	0.46801314
1	0xbf274ff1	-0.65356356
2	0x3f348f1d	0.70530874
3	0x3f37ef65	0.7184966
4	0x3f82fab5	1.023276
5	0xbf0a7d09	-0.5409704
6	0x3e045e40	0.12926579
7	0x3ee6cef5	0.4507977
8	0xbe1b4514	-0.1516307
9	0x3ea371f0	0.31922865
10	0x3e66c96c	0.22537774
11	0xbf82d242	-1.0220416
12	0xbec9b5b7	-0.3939645
13	0xbee3e8e2	-0.44513613
14	0xbf669c91	-0.9008265
15	0x3ea4a7cf	0.32159278
16	0x3f217a0b	0.6307685
17	0xbece8145	-0.40333
18	0xbef22543	-0.47294053
19	0xbd3bd1d7	-0.045854416
20	0xbea7cb5d	-0.3277234
21	0x3e841f7b	0.25805268
22	0x3eea5b0e	0.45772594
23	0xbe1c89fc	-0.15287012
24	0x3e931449	0.28726414
25	0xbf2681f1	-0.65042025
26	0xbf5cc294	-0.862344
27	0x3e68aed4	0.22722942
28	0x3ea17c3f	0.31540105
29	0x3ee8d504	0.45475018
30	0x3eea517c	0.45765293
31	0x3d2afaa8	0.04174295
32	0x3e271e19	0.16320075
33	0x3e5ced5a	0.21574917
34	0x3ef117e5	0.47088543
35	0xbea771a0	-0.32703876
36	0xbe93d580	-0.28873825
37	0x3f5f5999	0.8724609
38	0x3f5f14e7	0.8714127
39	0x3db8dc5a	0.09026404
40	0xbe0ba70c	-0.13637942
41	0xbcff26e4	-0.031146474
42	0xbf006143	-0.5014841
43	0x3f181807	0.5941166
44	0x3e8cb434	0.27481234
45	0xbefc27d1	-0.49249128
46	0xbeafe7ad	-0.34356442
47	0x3f040f0c	0.5158546
48	0xbf011009	-0.5041509
49	0xbf180022	-0.593752
50	0xbeb025ed	-0.34403935
51	0xbec71dc0	-0.38889885
52	0x3cca0899	0.024662303
53	0xbf02466c	-0.50888705
54	0x3f24fcce	0.6444825
55	0xbeb2db1b	-0.3493279
56	0xbf04fc01	-0.5194703
57	0xbf20ccdd	-0.62812597
58	0x3ee48ae5	0.44637218
59	0xbd9c4525	-0.07630376
60	0x3e3d0faa	0.18463007
61	0x3e9d9664	0.307788
62	0x3e452e14	0.19255859
63	0xbeebe26a	-0.46071178
64	0x3dc4a87f	0.096024506
65	0xbf14aa9a	-0.5807282
66	0x3e8e9f82	0.2785607
67	0xbf4972d8	-0.7869086
68	0xbe7abf0e	-0.24486944
69	0xbe995605	-0.2994844
70	0x3e068465	0.13136442
71	0xbf0fbc4a	-0.5614668
72	0x3ef8fc5a	0.4863003
73	0x3f063ec2	0.5243951
74	0xbe98f5ac	-0.29874933
75	0xbeebc7ff	-0.46051022
76	0xbe9155af	-0.28385684
77	0x3ede96b5	0.43474355
78	0xbf3a3f70	-0.7275305
79	0x3e896c08	0.26840234
80	0xbebbb917	-0.3666465
81	0x3c959c5d	0.018263036
82	0xbe0a2b14	-0.13492996
83	0xbe915508	-0.28385186
84	0xbf298732	-0.66221917
85	0x3f2f5e48	0.68503237
86	0xbf45329a	-0.77030337
87	0x3ef2b916	0.47406834
88	0xbf01c141	-0.5068551
89	0x3e90ed82	0.28306204
90	0x3e72cd90	0.23711228
91	0xbe9e5736	-0.30925912
92	0xbf2c7cf0	-0.6737814
93	0x3eee0793	0.46490154
94	0x3f1751cd	0.59109193
95	0xbe93d660	-0.28874493
96	0x3f5cdb44	0.8627207
97	0xbe180e13	-0.14849119
98	0x3e99e11a	0.3005455
99	0x3ee29651	0.44255307
100	0xbebc75f2	-0.36808735
101	0x3eebe21b	0.46070942
102	0x3d09549f	0.033527967
103	0xbedd3e6b	-0.43211684
104	0x3f414a00	0.7550354
105	0xbf90293a	-1.1262581
106	0x3f0be2ca	0.5464293
107	0x3dc3d83f	0.0956273
108	0xbc5b8c60	-0.013400167
109	0xbc693554	-0.014233906
110	0x3e39855e	0.18117282
111	0xbf4aac55	-0.7916921
112	0x3ec89086	0.39172763
113	0xbf071179	-0.52761036
114	0xbe8ced54	-0.27524817
115	0x3e8e9746	0.27849787
116	0x3e14a8ee	0.14517567
117	0xbed39662	-0.4132567
118	0xbd2ca7b6	-0.04215213
119	0xbf050d97	-0.5197386
120	0xbdcd0ccb	-0.10012206
121	0x3efcaaf1	0.49349168
122	0xbea942b3	-0.330587
123	0xbe864f58	-0.2623241
124	0x3eaccb69	0.3374894
125	0x3f1472dd	0.5798777
126	0x3eb5f7e3	0.35540685
127	0xbf17f1c1	-0.5935326
128	0xbeced595	-0.40397325
129	0xbe12dc01	-0.14341737
130	0x3f374461	0.7158871
131	0x3df864e5	0.12128619
132	0x3f041cf3	0.51606673
133	0xbded52ae	-0.115880355
134	0x3dd0e175	0.101992525
135	0x3f23b77c	0.6395185
136	0xbf34b9db	-0.7059609
137	0xbe54605e	-0.20739886
138	0x3f25c9f6	0.6476129
139	0xbcf5e1d7	-0.030014915
140	0x3f250281	0.64456946
141	0x3e126665	0.14296873
142	0x3ed9852e	0.4248442
143	0xbe5a19f0	-0.21298957
144	0x3f2c695a	0.67348254
145	0xbd9834a1	-0.07431913
146	0xbf4ba805	-0.7955325
147	0xbf81cd0f	-1.0140704
148	0xbe9b3dc4	-0.3032056
149	0x3f2e2ea9	0.6803995
150	0xbedc066f	-0.42973658
151	0xbf4b2cc8	-0.79365206
152	0xbf80cdc4	-1.0062795
153	0xbe72c887	-0.23709308
154	0x3f001a91	0.5004054
155	0xbf2f391b	-0.6844651
156	0x3f17dd83	0.59322375
157	0x3efd1277	0.4942815
158	0x3d83ae1c	0.06429693
159	0xbeb2330c	-0.3480457

rnn/tf_lite_lstm_cell/cell_bias f4 [64]
0	0xbb98d5f8	-0.004664179
1	0x3cfd3c63	0.030912584
2	0x3d3fc56e	0.046819143
3	0xbc87e866	-0.016590308
4	0xbc852782	-0.01625419
5	0x3c296dc6	0.010341113
6	0x3c7fd288	0.015614159
7	0x3c411832	0.011785554
8	0x3cb368ec	0.021900617
9	0x3d247940	0.040154696
10	0xbc241d14	-0.010016698
11	0xbc08d2d6	-0.008351048
12	0xbc6ba0f2	-0.014381634
13	0xbd34e63f	-0.044164892
14	0xbaccbc2f	-0.0015620048
15	0xbb00e7bf	-0.0019669381
16	0x3c20b19b	0.009807969
17	0xbd882ca2	-0.06649138
18	0xb9887716	-0.00026028667
19	0xbc150b77	-0.009096972
20	0xbc0ab83d	-0.008466777
21	0xbadbf904	-0.0016782586
22	0xbc900fc3	-0.01758564
23	0xbd16d4f9	-0.0368242
24	0xbd4e65e4	-0.05039014
25	0xbc9b6e4e	-0.018973496
26	0xbc4e1d9a	-0.0125803
27	0xbbefddd2	-0.007320144
28	0x3c9ec9cb	0.019383332
29	0xbc94aa67	-0.01814766
30	0xbca8ed65	-0.020621011
31	0xbcb09b4c	-0.021558426
32	0xbce82cc0	-0.028341651
33	0xbcdcf639	-0.026972877
34	0xbced9c7c	-0.029005282
35	0xbd29fe8a	-0.041502513
36	0x3c990fcd	0.018684292
37	0xbb165d53	-0.002294381
38	0x3c2cf6e5	0.010556911
39	0x3c857cd6	0.016294878
40	0x3ccedfda	0.025253225
41	0xbd61ef92	-0.055160113
42	0x3cdf6798	0.027271077
43	0x3c3b4b82	0.011431577
44	0x3ca9eabd	0.020741815
45	0xbca3874a	-0.019961972
46	0x3b425710	0.0029653944
47	0x3c86d1a3	0.016457384
48	0x3c51649a	0.012780333
49	0x3cde51fb	0.0271387
50	0x3b22e89c	0.0024857884
51	0x3c51bbee	0.012801154
52	0x3d4e0abc	0.050303206
53	0x3c8ac064	0.016937442
54	0x3b9c8489	0.0047765416
55	0xbce61181	-0.028084518
56	0x3c19080a	0.009340296
57	0xbc8af178	-0.016960844
58	0x3d3d4125	0.046204705
59	0xbc5351a9	-0.012897887
60	0xbd2e76e1	-0.04259384
61	0xbd07de26	-0.03317084
62	0x3d3af665	0.045645136
63	0xbafd256a	-0.0019313518

rnn/tf_lite_lstm_cell/cell_to_cell_w f4 [64, 64]
0	0xbd923715	-0.07139412
1	0xbe2894dc	-0.16463035
2	0x3d122bd3	0.035686325
3	0xbddef34d	-0.1088625
4	0xbde18397	-0.11011427
5	0x3dc74ce0	0.097314596
6	0xbd957625	-0.07297925
7	0xbd19ce22	-0.0375501
8	0xbdf7521b	-0.12076207
9	0x3bb56d83	0.0055367365
10	0x3c8b09ed	0.016972506
11	0x3c6574f6	0.014004936
12	0xbe495023	-0.19659476
13	0xbc06c6b3	-0.0082260845
14	0x3de9b23e	0.1141095
15	0xbd14499f	-0.036203023
16	0x3d294acc	0.041331097
17	0x3e2beffd	0.16790767
18	0x3e80b07d	0.2513465
19	0xbd557242	-0.052110918
20	0x3cc28da8	0.023749188
21	0x3e4d4bab	0.20048396
22	0x3a5133ca	0.00079804345
23	0xbe0b8828	-0.13626158
24	0xbcc2f7f0	-0.023799866
25	0xbe379c48	-0.1793071
26	0xbe06586a	-0.13119665
27	0xbe2a2706	-0.16616449
28	0xbc3f5576	-0.01167809
29	0x3e574e95	0.2102607
30	0xbd281658	-0.041036934
31	0x3e0ab294	0.13544685
32	0x3e2e91a9	0.17047752
33	0xbe103ee5	-0.14086492
34	0x3e0f0f5e	0.13970706
35	0x3e0f6f19	0.14007224
36	0x3e502e23	0.203301
37	0xbc4d8cdf	-0.012545793
38	0x3d9af50e	0.07566272
39	0xbcdb46c4	-0.026767142
40	0x3d758829	0.059944306
41	0x3c319b34	0.010840226
42	0xbd64f9a0	-0.055902123
43	0x3db621fe	0.08893202
44	0xbe25a903	-0.16177754
45	0x3d361111	0.04444987
46	0x3e4e0bba	0.20121661
47	0x3e1150ee	0.14191028
48	0x3de1cacd	0.11025009
49	0xbe25b7df	-0.16183423
50	0x3d2f6d14	0.042828634
51	0x3d6248d3	0.05524523
52	0xbd2d58c3	-0.042320978
53	0x3db33b72	0.08751573
54	0xbe46bc08	-0.19407666
55	0xbd259f64	-0.04043521
56	0xbe0841ec	-0.13306397
57	0x3e3135b2	0.1730564
58	0x3e1e5349	0.15461458
59	0xbd142e5b	-0.03617702
60	0xbd5884d5	-0.052861053
61	0x3c80d3d4	0.015726008
62	0x3de83582	0.11338331
63	0xbc9ee28b	-0.019395133
64	0x3da6ed97	0.081507854
65	0x3dfa805e	0.12231515
66	0x3e34208f	0.17590545
67	0x3e25a09a	0.16174546
68	0x3de5d34c	0.11221942
69	0xba3d85b6	-0.00072297023
70	0x3e343721	0.17599155
71	0xbc9febf2	-0.019521687
72	0xbc7fc3cd	-0.015610647
73	0xbdf6cfbc	-0.12051341
74	0x3d8c787b	0.06858917
75	0xbdf2f2bb	-0.118627034
76	0x3e336277	0.1751803
77	0xbdd6d88a	-0.1049052
78	0x3dd3fbe4	0.10350779
79	0xbd991afb	-0.07475849
80	0x3e5040bf	0.20337199
81	0xbdff1209	-0.12454612
82	0x3e5d72f0	0.21625876
83	0xbd9f6c51	-0.077843316
84	0xbe12699b	-0.14298098
85	0x3c805b8b	0.015668651
86	0xbce69895	-0.028148929
87	0x3d9ae9b8	0.075641096
88	0xbc6d1ef8	-0.014472716
89	0xbdf5abe1	-0.11995674
90	0xbd9dec06	-0.077110335
91	0xbe49df00	-0.19713974
92	0xbd0a0437	-0.033695426
93	0xbe640645	-0.22268017
94	0xbddffdbf	-0.1093707
95	0xbda06cea	-0.07833274
96	0x3bb90027	0.00564577
97	0x3c413916	0.0117933955
98	0xbdade8a3	-0.084916376
99	0x3cf0b4e7	0.029383136
100	0x3e23cf89	0.15997137
101	0xbdc38c56	-0.09548251
102	0x3e028870	0.1274736
103	0xbd652149	-0.055939946
104	0x3cedbf85	0.029021988
105	0xbd8dc344	-0.069220096
106	0xbe0698a4	-0.13144165
107	0xbe38868b	-0.18020074
108	0x3d8111be	0.06302212
109	0xbe3b9f0f	-0.18322395
110	0xbbd29257	-0.0064261365
111	0xbe1d7703	-0.1537743
112	0xbd8436b4	-0.06455746
113	0xbe0e3e4e	-0.13890955
114	0xbe30b52f	-0.17256616
115	0xbe35ad03	-0.1774178
116	0xbe0dec97	-0.13859783
117	0xbd3721a7	-0.044709828
118	0x3c80c20a	0.015717525
119	0xbdf038a0	-0.1172955
120	0x3e147248	0.1449672
121	0xbe29106f	-0.16510175
122	0x3e3441c0	0.17603207
123	0xbe43023d	-0.19043823
124	0xbe23f395	-0.16010888
125	0x3d371990	0.044702113
126	0xbe0ce26b	-0.13758247
127	0x3df06692	0.11738314
128	0x3df9ec0c	0.122032255
129	0x3c58909b	0.01321807
130	0x3d03cb6e	0.032176428
131	0x3e34c652	0.17653778
132	0xbe11fdd7	-0.14256988
133	0xbd098504	-0.03357412
134	0xbd8ffd3d	-0.07030723
135	0x3e323f96	0.17407069
136	0x3e458fd4	0.19293147
137	0x3cfa464d	0.0305511
138	0x3e1cdd4f	0.15318798
139	0xbe666f25	-0.22503336
140	0xbe4c25f6	-0.19936356
141	0x3c073d38	0.008254342
142	0xbd9e44bc	-0.07727954
143	0xbd58b58b	-0.052907508
144	0x3dffce38	0.12490505
145	0x3e0ee640	0.13955021
146	0xbd092d61	-0.033490542
147	0x3deca5b6	0.11555044
148	0xbcf816e6	-0.030284356
149	0xbd1fbe6e	-0.038999967
150	0xbe076473	-0.13221912
151	0xbdc0f037	-0.09420817
152	0x3d87ed19	0.0663702
153	0x3e4087fa	0.18801871
154	0x3da11d6e	0.078669414
155	0x3d2f453e	0.042790644
156	0xbe49f855	-0.19723637
157	0x3bea35bb	0.0071475185
158	0xbdf4ca30	-0.11952627
159	0x3dda939a	0.10672684
160	0xbe6fc64d	-0.2341549
161	0x3dd1d961	0.1024654
162	0x3e1f0e23	0.15532736
163	0x3d291a38	0.04128477
164	0x3e25091f	0.1611676
165	0xbdbf1109	-0.09329421
166	0xbe19ae64	-0.15007931
167	0x3e4257e9	0.18978848
168	0xbd207d98	-0.039182276
169	0xbe7c4bac	-0.24638242
170	0x3e5582c6	0.20850667
171	0x3df54144	0.11975339
172	0x3e18ddcb	0.14928357
173	0xbc398a19	-0.011324429
174	0x3de30f59	0.11086912
175	0x3e5c7ea2	0.21532682
176	0x3ce06d0f	0.027395753
177	0x3e247d8d	0.16063519
178	0xbd99828e	-0.074956045
179	0xbe15ec64	-0.14640957
180	0xbe23fe32	-0.16014937
181	0x3d320622	0.04346288
182	0x3e3d6a82	0.18497661
183	0xbd133fd7	-0.035949554
184	0xbe41642c	-0.18885869
185	0xbd203641	-0.03911424
186	0xbdc6b829	-0.097030945
187	0xbe3d78e0	-0.18503141
188	0xbe08cc03	-0.13359074
189	0x3dc950a9	0.09829838
190	0x3cff69dc	0.031178407
191	0x3bda6a93	0.0066655367
192	0x3d24d717	0.04024419
193	0xbdd30096	-0.10302846
194	0x3d3814fb	0.044941884
195	0xbe56d880	-0.20981026
196	0xbe259df0	-0.1617353
197	0xbe12ab7e	-0.14323232
198	0x3e3763ec	0.17909211
199	0xbe127765	-0.14303358
200	0xbe3dc262	-0.18531182
201	0x3d65e939	0.05613062
202	0x3e25bd94	0.161856
203	0x3db22d1f	0.087000124
204	0x3ddf439f	0.109015696
205	0xbd261378	-0.04054591
206	0xbd39a722	-0.045325406
207	0xbe2f0d24	-0.17094857
208	0x3e1cb228	0.15302336
209	0xbe4176fa	-0.18893042
210	0xbe5b21a0	-0.21399546
211	0xbe0591bb	-0.13043873
212	0x3d5b3472	0.053516813
213	0x3d47beef	0.048766073
214	0x3e56426a	0.20923772
215	0x3dc3701a	0.09542866
216	0xbcba9ecc	-0.022780798
217	0xbccaf475	-0.02477477
218	0x3e3e0225	0.18555506
219	0x3e0d0fdc	0.13775581
220	0xbe4cf504	-0.20015341
221	0x3e448fe4	0.19195515
222	0xbe21ceed	-0.15801592
223	0xbdff87c2	-0.124770656
224	0xbd24452e	-0.040105037
225	0xbd24b1d0	-0.040208638
226	0x3d35207e	0.04422044
227	0x3e26ede3	0.16301684
228	0x3e28aa9b	0.16471331
229	0x3de352c6	0.11099772
230	0x3dbfed8b	0.093714796
231	0x3dc2cbbf	0.09511518
232	0xbd4e837b	-0.05041836
233	0x3e54f3c3	0.20796113
234	0x3d60ec17	0.054912653
235	0x3e2c6de8	0.16838801
236	0x3d8d85a6	0.06910257
237	0xbe16fc3c	-0.14744657
238	0xbe3403e1	-0.17579605
239	0xbdcc26f2	-0.09968366
240	0xba58a8c5	-0.0008264895
241	0x3d3e92f7	0.046526875
242	0xbe1235eb	-0.1427838
243	0xbe138618	-0.14406621
244	0xbe36f1d2	-0.17865685
245	0x3e3152c4	0.17316729
246	0x3df6a83f	0.12043809
247	0xbdf9e24c	-0.12201366
248	0x3ca8a2fb	0.020585528
249	0x3e247a84	0.16062361
250	0xbe5a979a	-0.21346894
251	0x3db62078	0.08892912
252	0xbe470692	-0.194361
253	0x3c568669	0.013093569
254	0xbe5b8d8c	-0.21440715
255	0xbc3bb2ee	-0.011456234

rnn/tf_lite_lstm_cell/cell_to_forget_w f4 [64, 64]
0	0xbaa4984c	-0.0012557595
1	0xbe3c7844	-0.18405253
2	0xbe42be84	-0.19017988
3	0xbe4ebffb	-0.20190422
4	0x3db64e05	0.089016
5	0x3e35b825	0.17746027
6	0xbddac8ee	-0.106828555
7	0xbbcd3df8	-0.0062634908
8	0xbc646231	-0.013939426
9	0xbdcff781	-0.101546295
10	0xbdee8841	-0.11647082
11	0x3dd1edf5	0.10250465
12	0x3da2b808	0.079452574
13	0xbde50076	-0.111817285
14	0xbde7a002	-0.11309816
15	0x3dd9242c	0.10602602
16	0xbd5b3f9e	-0.053527467
17	0x3dd09b61	0.10185886
18	0xbc7ba939	-0.01536017
19	0xbe21108b	-0.15728967
20	0xbc0b26b5	-0.008493115
21	0x3e3a004b	0.18164174
22	0x3d706d47	0.058697965
23	0xbde6c136	-0.11267321
24	0xbd86dd5f	-0.06585192
25	0x3da97847	0.08274894
26	0xbd147a8f	-0.036249693
27	0x3d7242a1	0.059145574
28	0xbbf5bfa2	-0.007499651
29	0xbddfaf99	-0.109221645
30	0xbbb9be5d	-0.005668445
31	0xbdd708b3	-0.10499706
32	0x3e5ddea4	0.21666962
33	0x3c194072	0.009353744
34	0x3e178d9e	0.14800116
35	0xbe46692f	-0.19376062
36	0xbe032493	-0.1280692
37	0xbcf3b931	-0.029751392
38	0x3e098197	0.13428341
39	0x3e5deeba	0.21673098
40	0xbe43a2b3	-0.19105034
41	0xbe437292	-0.19086674
42	0x3e0370b8	0.12835968
43	0xbdc83484	-0.097756416
44	0x3d1d3203	0.038377773
45	0xbe455927	-0.1927229
46	0xbe3b05c6	-0.18263921
47	0x3dbfcc04	0.09365085
48	0x3d6ce066	0.05783119
49	0xbe430d15	-0.19047959
50	0xbe3e464c	-0.18581504
51	0xbe4192f9	-0.18903722
52	0x3e4d0f91	0.2002547
53	0xbe371a79	-0.17881192
54	0x3db6ccc5	0.089257754
55	0x3df38fb8	0.118926466
56	0x3d49281a	0.04911051
57	0x3dda03ea	0.10645278
58	0xbd92f70e	-0.07176028
59	0x3e4c4078	0.19946468
60	0x3e145994	0.14487296
61	0xbdd1bae7	-0.10240727
62	0x3db67c16	0.08910386
63	0x3df00af7	0.117208414
64	0xbdef477c	-0.116835564
65	0x3d070766	0.03296604
66	0xbd8a094f	-0.06740057
67	0x3e015b03	0.12632374
68	0xbc69da3d	-0.0142732235
69	0xbd47da00	-0.048791885
70	0x3dbdc64b	0.09266337
71	0xbd9aa29b	-0.07550546
72	0xbdb86215	-0.09003083
73	0x3dfbf156	0.123018906
74	0xbe10cdb5	-0.14140971
75	0x3e26b155	0.16278584
76	0xbcd7c41f	-0.026338635
77	0xbe381412	-0.17976406
78	0x3e3c0ec9	0.18365015
79	0xbc6424b5	-0.013924767
80	0x3e2d0359	0.16895808
81	0xbe5a4d87	-0.21318637
82	0x3c814056	0.015777748
83	0xbe33331c	-0.17499965
84	0x3e2b1bcb	0.16709821
85	0xbda99938	-0.08281177
86	0x3c0f0e5d	0.008731452
87	0x3d22b6d0	0.039725125
88	0x3e51459c	0.2043671
89	0x3e28f208	0.16498578
90	0xbe1f0c82	-0.15532115
91	0x3d0860db	0.033295494
92	0x3c1d739f	0.009610086
93	0xbd54f58a	-0.051991977
94	0x3c341a95	0.010992666
95	0xbd520e41	-0.051283125
96	0xbcd884a4	-0.026430435
97	0xbe52b8d9	-0.20578326
98	0x3d45ce6f	0.048292574
99	0xbc55bc17	-0.013045332
100	0xbd6c4553	-0.0576833
101	0xbe2ccac4	-0.16874224
102	0x3d4f979b	0.05068169
103	0x3d47b6b2	0.048758216
104	0xbdb12966	-0.08650474
105	0x3ccbe693	0.02489022
106	0x3e302899	0.17202987
107	0x3e3c1b56	0.18369803
108	0xbe407bdb	-0.18797247
109	0x3d77b93e	0.060479395
110	0xbd30fa80	-0.043207645
111	0x3e1625cc	0.14662856
112	0xbc6e717d	-0.014553425
113	0x3bd9bf49	0.0066451174
114	0x3dab0c76	0.08351986
115	0xbd3db4c0	-0.046314955
116	0x3e1a2cc2	0.15056136
117	0x3d76d515	0.060261805
118	0xbe249b8a	-0.16074958
119	0xbdbe2828	-0.09285003
120	0x3d3a31c7	0.045457628
121	0x3d0ca882	0.03434039
122	0x3bae6f1d	0.0053233043
123	0xbe441589	-0.1914884
124	0x3daf4b1a	0.08559246
125	0x3e3a1672	0.18172625
126	0x3e5bbdcf	0.21459125
127	0xbdc33408	-0.095314085
128	0x3e37a769	0.17934956
129	0xbd90e2ac	-0.07074484
130	0x3cbc23b6	0.022966247
131	0xbdceae56	-0.10091846
132	0x3c471f37	0.012153438
133	0x3def2dc6	0.116786525
134	0x3e056eb1	0.13030507
135	0xbdfaff3b	-0.122557126
136	0x3da0c5ca	0.07850225
137	0xbdcfaf1b	-0.101408206
138	0x3d8cf5cd	0.0688282
139	0x3daf23ce	0.08551751
140	0x3d1f38ab	0.038872402
141	0x3e1a128b	0.15046136
142	0x3db958e9	0.090501614
143	0x3dd4946e	0.10379873
144	0xbd5922ba	-0.053011633
145	0x3e51d60c	0.20491809
146	0x3c633743	0.013868156
147	0xbd69803a	-0.057007052
148	0x3d1568e2	0.036476977
149	0xbe394fe3	-0.1809688
150	0xbdcb54c6	-0.099282786
151	0xbc6bab02	-0.014384033
152	0xbdcc2d53	-0.099695824
153	0x3e0365b5	0.12831767
154	0x3e07ef80	0.13274956
155	0x3dc30dac	0.09524092
156	0xbe2a7eb1	-0.16649891
157	0x3da23ad8	0.0792138
158	0x3e53ec05	0.20695503
159	0xbd9b22f2	-0.07575025
160	0x3e490fb5	0.19634898
161	0xbe5a49b9	-0.21317185
162	0xbde1e56b	-0.11030086
163	0xbd32138c	-0.043475673
164	0xbd4b07e7	-0.049568083
165	0x3e572b31	0.2101257
166	0xbd8512e2	-0.06497742
167	0xbdf1c860	-0.118057966
168	0x3b16ab36	0.0022990233
169	0x3e1acb8f	0.15116714
170	0xbe4c9fe6	-0.19982871
171	0xbdadd3d4	-0.08487669
172	0x3da0fed8	0.078611076
173	0xbe3940ff	-0.180912
174	0xbdd6a39d	-0.104804255
175	0xbe453669	-0.19259037
176	0xbdc5606a	-0.0963753
177	0xbdddd199	-0.10830993
178	0xbe38fd62	-0.18065408
179	0xbdb816d4	-0.08988729
180	0x3e510f4f	0.20415996
181	0xbe1ea02f	-0.15490793
182	0x3d50a47c	0.050938115
183	0xbe53de4e	-0.20690271
184	0x3b1aa1e7	0.0023595036
185	0x3e47ebbe	0.19523522
186	0xbd9a4a12	-0.07533659
187	0x3dcc4f74	0.09976092
188	0x3bd806f5	0.006592626
189	0xbe67daa9	-0.22642006
190	0x3d1612bb	0.036638957
191	0x3dddbce7	0.10827046
192	0xbd8d1cec	-0.06890282
193	0xbe4c5f6a	-0.19958273
194	0xbc622f6e	-0.013805253
195	0x3e3b348f	0.18281768
196	0xbdb4d95f	-0.08830523
197	0x3e43d5a4	0.19124466
198	0x3e3db30e	0.18525335
199	0x3e444cbe	0.191699
200	0xbd5a5626	-0.053304814
201	0x3db8b645	0.0901914
202	0x3e39312b	0.18085162
203	0x3e3c977f	0.18417166
204	0x3df71092	0.120637074
205	0x3e40f274	0.18842489
206	0x3d2c48db	0.042061668
207	0xbd968843	-0.073502086
208	0xbdcc15b3	-0.09965076
209	0xba9ef7dc	-0.0012128311
210	0xbe410404	-0.18849188
211	0xbdbfaa89	-0.09358699
212	0xbcec0db2	-0.028815124
213	0xbc5e288a	-0.01355947
214	0x3e032b7b	0.12809555
215	0x3bc0f892	0.005889007
216	0xbe361c66	-0.1778427
217	0xbd825897	-0.063645534
218	0x3df12c11	0.11775983
219	0x3d03531f	0.032061692
220	0xbd6b7aa1	-0.057489995
221	0x3e439d40	0.19102955
222	0x3d571dae	0.05251854
223	0x3be82954	0.007085005
224	0xbe4620bf	-0.19348429
225	0x3bdf1cf4	0.0068088714
226	0x3c4abe49	0.012374469
227	0x3e37de3c	0.1795587
228	0x3d9185cd	0.071055986
229	0x3ca60ae9	0.020268874
230	0x3e3982da	0.18116322
231	0xbe5f3075	-0.21795829
232	0xbdcdac06	-0.100425765
233	0xbe12c4a0	-0.14332819
234	0x3e1d3b13	0.15354566
235	0xbe49b1d6	-0.19696745
236	0xbc8546a6	-0.01626904
237	0x3e4b282b	0.19839542
238	0xbe2a5c72	-0.16636828
239	0x3d79ad42	0.060956247
240	0x3d6827be	0.056678526
241	0x3df7b166	0.12094383
242	0xbe428be0	-0.1899867
243	0xbdab26ab	-0.08356985
244	0xbe1a1c22	-0.15049794
245	0xbd7d2b31	-0.06180877
246	0xbe3b6e13	-0.18303709
247	0x3e21fa12	0.1581805
248	0xbde76507	-0.11298566
249	0xbe23fdb2	-0.16014746
250	0x3d8380dc	0.06421062
251	0xbdea45e8	-0.11439115
252	0x3e1044b0	0.14088702
253	0xbb604249	-0.0034219197
254	0xbe2549df	-0.16141461
255	0x3e371e5f	0.1788268

rnn/tf_lite_lstm_cell/cell_to_input_w f4 [64, 64]
0	0x3dc4bacb	0.096059404
1	0xbdcd61cb	-0.10028418
2	0xbdb5521d	-0.088535525
3	0x3da59968	0.080859005
4	0xbe5337a6	-0.20626697
5	0xbe01e7c6	-0.12686071
6	0x3d8f9be0	0.07012153
7	0xbe086367	-0.13319169
8	0xbe4d7c8e	-0.20067045
9	0xbe2509fb	-0.16117088
10	0x3e53b154	0.20673114
11	0xbd1b26cb	-0.037878793
12	0xbe4f6a29	-0.2025534
13	0x3e307471	0.17231919
14	0x3df199b0	0.11796892
15	0x3e33604b	0.17517202
16	0xbe265b84	-0.16245848
17	0x3cdd12e8	0.026986554
18	0xbe350808	-0.17678845
19	0xbe517212	-0.2045367
20	0xbb9ead95	-0.00484247
21	0x3e31434f	0.17310832
22	0xbc1551c5	-0.009113734
23	0xbcde1069	-0.027107434
24	0x3dea7f97	0.11450117
25	0x3e16f358	0.14741266
26	0xbc284bb9	-0.01027196
27	0xbde9ac52	-0.114098206
28	0x3e57e65f	0.21083973
29	0x3dfa4f53	0.12222161
30	0x3c9b3d12	0.018950019
31	0x3ccd8a19	0.025090264
32	0x3df26766	0.11836128
33	0x3e19febd	0.15038581
34	0x3d8528c4	0.06501916
35	0xbe319c53	-0.17344789
36	0xbcf65943	-0.03007186
37	0xbd9f014f	-0.077639215
38	0xbbe78b51	-0.0070661684
39	0x3e50649a	0.20350876
40	0xbe16a184	-0.14710051
41	0x3d9dd6df	0.07706999
42	0x3e0be763	0.13662486
43	0xbe060e58	-0.13091409
44	0x3def6711	0.1168958
45	0x3dfd10d9	0.12356729
46	0x3e5de476	0.21669182
47	0x3e0651e2	0.13117173
48	0xbd57b8a6	-0.05266633
49	0xbe3d97d5	-0.1851495
50	0xbe367bee	-0.17820713
51	0x3d852bf8	0.06502527
52	0x3dcc53dc	0.099769324
53	0xbd3273a3	-0.04356731
54	0xbe137be9	-0.14402737
55	0x3e3c886c	0.18411416
56	0x3d379f4d	0.044829655
57	0xbdb575a9	-0.088603325
58	0xbe618ef9	-0.22027196
59	0xbc94c23c	-0.018159024
60	0x3e604f77	0.21905313
61	0x3e291f16	0.16515765
62	0xbe54e77b	-0.20791428
63	0x3d0f7154	0.035020187
64	0x3ddecc82	0.108788505
65	0x3dcec539	0.10096211
66	0x3b96924f	0.004595078
67	0xbe31fc81	-0.17381479
68	0x3e1b3e53	0.15160494
69	0x3b7df216	0.003874903
70	0x3d495d81	0.049161438
71	0xbdf5db1e	-0.12004684
72	0xbdcbbfe8	-0.099487126
73	0x3dac6333	0.08417358
74	0xbe5056dc	-0.20345634
75	0x3bfda1de	0.0077402433
76	0x3d9529bf	0.07283353
77	0xbbd41223	-0.0064718886
78	0x3d954a7d	0.07289598
79	0xbe2b86e9	-0.16750683
80	0x3e13a435	0.14418109
81	0x3e1dda33	0.15415268
82	0xbe363f70	-0.17797637
83	0xbe090ad1	-0.13383032
84	0xbd40bfc0	-0.047057867
85	0x3ce22531	0.027605625
86	0x3e44de29	0.19225372
87	0x3d077da2	0.033078797
88	0xbdec5490	-0.115395665
89	0xbe1370f9	-0.14398564
90	0xbc242fa1	-0.010021121
91	0xbdf0c2e2	-0.11755921
92	0x3e3c977d	0.18417163
93	0xbd9f1b70	-0.07768905
94	0xbe3cae29	-0.18425812
95	0xbcceddc6	-0.025252234
96	0x3e5081ee	0.20362064
97	0xbe011492	-0.12605503
98	0x3e58356b	0.21114127
99	0xbde8c3fe	-0.113655075
100	0xbc67cb6e	-0.0141476225
101	0xbdfed259	-0.124424644
102	0xbe50e651	-0.20400359
103	0xbe15f005	-0.14642341
104	0x3d6cf265	0.057848353
105	0x3dcf4ad6	0.10121696
106	0xbe0226f7	-0.12710176
107	0xbe205805	-0.15658577
108	0xbe099789	-0.13436712
109	0x3cddbf22	0.027068678
110	0x3dbf4940	0.09340143
111	0xbc29e39f	-0.0103692105
112	0x3d729ab8	0.059229583
113	0xbd5460dd	-0.05185019
114	0x3cee030d	0.02905419
115	0xbdfee8d9	-0.12446756
116	0xbdb67594	-0.08909145
117	0xbdb82880	-0.089921
118	0x3e44194a	0.19150272
119	0xbd5dc2e1	-0.05414093
120	0x3e2294e0	0.15877104
121	0xbdebdf08	-0.11517149
122	0x3cb16114	0.021652736
123	0x3e1b2dd8	0.15154207
124	0xbd2b1248	-0.04176548
125	0x3e33514b	0.1751148
126	0x3e19b6a4	0.15011078
127	0x3e1f0683	0.15529828
128	0xb8ebd72a	-0.00011245751
129	0x3de7049e	0.112801775
130	0xbd96a3fd	-0.07355497
131	0xbc83a269	-0.016068654
132	0xbe578b3f	-0.21049212
133	0xbe1ea2c6	-0.1549178
134	0x3e3efef1	0.1865194
135	0x3d254714	0.04035099
136	0x3da956e9	0.0826853
137	0xbe3eeefc	-0.18645853
138	0x3db7af5d	0.08968995
139	0x3dc24d44	0.094873935
140	0x3e31367b	0.17305939
141	0x3e09e4db	0.13466208
142	0xbe501610	-0.20320916
143	0xbd236cd8	-0.039898723
144	0xbe0a6881	-0.13516428
145	0x3d4702d5	0.048586685
146	0x3e5fe3d5	0.21864255
147	0xbe173a56	-0.14768347
148	0xbe34aaec	-0.17643327
149	0xbdbf60b9	-0.0934462
150	0x3d5d8588	0.054082423
151	0xbd8ae45c	-0.06781837
152	0x3d3fd932	0.046837993
153	0x3e0aafaa	0.13543573
154	0x3d132331	0.035922233
155	0xbdb6d36d	-0.08927045
156	0xbe418fd9	-0.1890253
157	0xbd082980	-0.033242702
158	0xbb1d02a8	-0.0023957882
159	0x3d36bd5e	0.04461419
160	0xbe3a77c4	-0.1820975
161	0x3e467359	0.19379939
162	0x3e45088e	0.19241545
163	0x3d5d6351	0.054049794
164	0x3dbb1a4e	0.091358766
165	0x3de5c458	0.1121909
166	0x3d501948	0.05080536
167	0xbe18e696	-0.14931712
168	0x3d825498	0.06363791
169	0x3de95d64	0.11394766
170	0x3e344572	0.17604616
171	0xbd8483e2	-0.06470467
172	0xbe01e51d	-0.12685056
173	0x3e45ad8e	0.19304487
174	0xbc2068f7	-0.009790651
175	0xbe51929a	-0.2046608
176	0x3e5cf2f7	0.21577059
177	0x3dfaa259	0.122379966
178	0x3cb4a7be	0.022052642
179	0x3d3ae33b	0.04562686
180	0x3d23f9d1	0.040033165
181	0xbd887835	-0.06663553
182	0xbe2f6e1b	-0.17131846
183	0xbb0caf63	-0.0021466843
184	0xbc1dbec2	-0.009628
185	0x3d5ac25b	0.053408008
186	0xbd12e1c2	-0.03585983
187	0x3b3d6d9c	0.0028904444
188	0xbd6a84f4	-0.0572557
189	0x3e3b3a60	0.18283987
190	0x3e0ca145	0.13733394
191	0xbceb63c9	-0.028734105
192	0xbc813ca9	-0.015775995
193	0xbdcf154a	-0.101114824
194	0x3d412274	0.047151998
195	0x3e516946	0.20450315
196	0x3e14aafc	0.1451835
197	0xbe4124da	-0.18861714
198	0x3d83bc43	0.064323924
199	0xbe2eec1c	-0.17082256
200	0xbdb24b27	-0.087057404
201	0xbdb39a25	-0.08769635
202	0x3e382e36	0.17986378
203	0x3e3c0092	0.18359593
204	0x3dbefb26	0.093252465
205	0x3debafd0	0.11508143
206	0xbdef53f9	-0.116859384
207	0xbe495947	-0.19662963
208	0x3deb5aaa	0.11491902
209	0xbdc3c200	-0.09558487
210	0xbddd2403	-0.10797884
211	0xbd565c03	-0.052333843
212	0x3e48b3c4	0.19599825
213	0xbce0007f	-0.027343987
214	0xbe104767	-0.14089738
215	0xbe622adf	-0.22086667
216	0x3da5174d	0.08061085
217	0xbddba0e8	-0.1072405
218	0x3be709a9	0.007050712
219	0x3dfb04e0	0.12256789
220	0x3e1e042b	0.15431277
221	0xbd48b11d	-0.048997033
222	0x3e2067ed	0.15664645
223	0xb98d1fcb	-0.00026917303
224	0xbd900183	-0.07031538
225	0xbdf19ae0	-0.11797118
226	0xbc970cd5	-0.018438736
227	0xbdc33742	-0.09532024
228	0x3e2deace	0.16984102
229	0xbd7f85d9	-0.062383506
230	0xbe0d9e45	-0.13829906
231	0xbd97a176	-0.07403843
232	0x3e284e8c	0.16436213
233	0xbe3f8e88	-0.18706715
234	0xbd5d22b9	-0.053988192
235	0x3e29cf6e	0.16583034
236	0xbd85d84d	-0.06535397
237	0x3b020497	0.0019839162
238	0x3d651781	0.05593062
239	0xbd5ac45d	-0.053409923
240	0x3e2617d6	0.1622003
241	0x3c710562	0.014710756
242	0xbd27dcba	-0.040981986
243	0xbbb863e9	-0.0056271446
244	0xbe32b433	-0.17451553
245	0x3e574b6b	0.21024863
246	0xbe5a6cac	-0.21330518
247	0x3e463aa2	0.19358304
248	0xbd635a04	-0.055505767
249	0xbdbaa265	-0.091130055
250	0xbe3226f7	-0.17397676
251	0x3da3994d	0.07988224
252	0xbe53750e	-0.20650122
253	0x3de63b05	0.11241726
254	0xbcf65be4	-0.030073114
255	0x3da5b560	0.08091235
