app/src/main/assets/classifier_612.tflite (tflite, 473280 bytes, 30 tensors)

conv1d/conv1d/ExpandDims_1 f4 [64, 1, 5, 40]
0	0xbd6109a8	-0.05494085
1	0xbe2a22d6	-0.16614851
2	0x3e8ea4c4	0.2786008
3	0x3e371d08	0.17882168
4	0x3d3b0d60	0.045667052
5	0xbd929113	-0.07156577
6	0xbea4e90b	-0.32209048
7	0x3e16b945	0.14719112
8	0xbde034e5	-0.10947589
9	0x3e34c0af	0.17651628
10	0x3d57b06f	0.052658495
11	0x3db266de	0.087110266
12	0x3e182e76	0.14861473
13	0x3dc489bf	0.095965855
14	0xbe7cf8b4	-0.24704248
15	0xbd0d153f	-0.03444409
16	0xbe3136ca	-0.17306057
17	0x3c136ccf	0.00899811
18	0xbcb0f4f6	-0.021601181
19	0x3dbd29cf	0.0923649
20	0x3e349cad	0.17637892
21	0x3b8b7a6a	0.0042565363
22	0xbdd16990	-0.102252126
23	0x3c6434ea	0.013928631
24	0xbe194993	-0.14969473
25	0x3dd9ee1b	0.10641118
26	0x3e0bc8b6	0.13650784
27	0x3ddf5807	0.10905462
28	0x3daf79cd	0.085681535
29	0x3d2c0de4	0.042005435
30	0x3d936cf3	0.07198515
31	0xbdc7a1e6	-0.097476766
32	0x3def2176	0.11676304
33	0xbd4cd1e4	-0.050004855
34	0xbe4d83c6	-0.20069799
35	0x3e500376	0.2031382
36	0xbd5f7ce9	-0.054562483
37	0xbe497bd9	-0.1967615
38	0x3b9c258e	0.004765219
39	0x3d9359c0	0.07194853
40	0x3deb4d61	0.11489368
41	0x3d64aae8	0.05582705
42	0x3e6b48ce	0.22976992
43	0x3e505164	0.20343548
44	0x3d3ed82f	0.046592887
45	0xbdd3448d	-0.103158094
46	0xbdd65172	-0.10464753
47	0x3d32f09c	0.043686494
48	0xbe3567fc	-0.17715448
49	0x3e9b4924	0.3032924
50	0xbd0f7f8f	-0.03503376
51	0xbd9e866a	-0.07740481
52	0x3e560b09	0.20902647
53	0xbd9b03de	-0.07569097
54	0xbde306b4	-0.11085263
55	0xbd1dc603	-0.038518917
56	0xbe36844a	-0.17823902
57	0xbd2bf0af	-0.04197758
58	0xbe399e5f	-0.1812682
59	0x3e66fe15	0.22557862
60	0xbdf7de55	-0.12102953
61	0xbdecaa79	-0.115559526
62	0x3dd48b94	0.10378185
63	0xbdab6039	-0.083679624
64	0xbdf7c790	-0.120986104
65	0x3e650cdb	0.22368185
66	0x3d0cc231	0.034364883
67	0xbdce1afe	-0.10063742
68	0x3de8757e	0.11350535
69	0x3cce86b3	0.025210714
70	0xbd7d734f	-0.061877545
71	0x3dbe7aca	0.09300764
72	0xbc50a352	-0.012734251
73	0x3caa9222	0.020821635
74	0x3e225e06	0.1585618
75	0xbd9eca03	-0.077533744
76	0x3e38039e	0.1797013
77	0x3a8378d7	0.001003052
78	0x3d90a28f	0.070622556
79	0xbe8e48f2	-0.27790028
80	0xbdb9cacd	-0.09071884
81	0xbcb6f48e	-0.02233341
82	0x3e314b32	0.17313841
83	0x3ca5659c	0.020190053
84	0x3c407f31	0.011749075
85	0xbe494ef0	-0.19659019
86	0xbd95bc1c	-0.0731127
87	0xbc9e68a5	-0.019337008
88	0xbdc352b5	-0.095372595
89	0x3d912695	0.07087437
90	0x3db0bb8e	0.08629523
91	0xbcfde44c	-0.03099265
92	0x3dc9d12b	0.09854349
93	0x3e1b36ca	0.15157619
94	0xbe756bfd	-0.23966976
95	0xbaca6766	-0.0015442192
96	0x3d4df0f3	0.050278615
97	0x3e358eba	0.17730227
98	0x3c921c2e	0.017835703
99	0x3db8fed7	0.09032982
100	0xbdbba479	-0.0916223
101	0xbc936be9	-0.017995792
102	0x3da6e876	0.08149807
103	0xbd2cf0ef	-0.04222196
104	0xbe7b5ec0	-0.24547863
105	0x3d2384a0	0.039921403
106	0xbd91c14a	-0.07116945
107	0xbd1351d6	-0.035966717
108	0xbdf4ff71	-0.11962784
109	0x3de22f39	0.11044163
110	0x3dd176df	0.10227751
111	0xbd1c2652	-0.038122483
112	0x3e11c1a9	0.14234032
113	0xbdc35660	-0.09537959
114	0xbc0c0337	-0.008545688
115	0xbbb844a7	-0.0056234184
116	0x3e0d9717	0.13827167
117	0x3db102df	0.08643126
118	0xbe0f5163	-0.1399589
119	0xbdd9a3bf	-0.10626935
120	0xbd97c3e2	-0.074104086
121	0xbe641069	-0.22271885
122	0x3e3fa50c	0.18715304
123	0xbdbecc80	-0.09316349
124	0xbd804afb	-0.062643014
125	0x3d253487	0.040333297
126	0xbd016cf0	-0.03159803
127	0x3d4ba870	0.04972118
128	0x3c91f0aa	0.017814953
129	0x3e566421	0.20936634
130	0x3d884493	0.066537045
131	0x3de415b1	0.1113695
132	0x3e324d85	0.17412384
133	0x3e02e39d	0.1278214
134	0xbe440b9e	-0.19145057
135	0xbe4b3e02	-0.19847873
136	0xbdd315bd	-0.103068806
137	0x3e6345d7	0.2219461
138	0xbdf84d91	-0.121241696
139	0x3d26a404	0.04068376
140	0x3e09bbe4	0.13450581
141	0x3e332098	0.17492902
142	0x3e5a1ea3	0.2130075
143	0xbd87da02	-0.066333786
144	0xbe4f0460	-0.20216513
145	0x3e25648c	0.16151637
146	0x3e091ba9	0.13389458
147	0x3e018b4f	0.12650798
148	0xbdfd020a	-0.123539045
149	0xbd8fb544	-0.070169955
150	0x3c1915dc	0.009343591
151	0x3dadf200	0.084934235
152	0xbe0e71dd	-0.13910623
153	0xbd84b7ea	-0.06480391
154	0x3d9a4c74	0.075341135
155	0xbd89cd1c	-0.06728575
156	0x3e09460f	0.13405631
157	0xbcc64c0a	-0.02420618
158	0xbe458062	-0.19287255
159	0x3c9f3f72	0.019439433
160	0xbdd4b8fa	-0.10386844
161	0xbd4e8e1f	-0.050428506
162	0x3e99cfc0	0.30041313
163	0x3dcbfc37	0.099602155
164	0x3d04d4f9	0.03242967
165	0xbe799fc5	-0.24377353
166	0xbe5f549d	-0.21809621
167	0x3d559793	0.052146506
168	0x3dd0c0a8	0.10192996
169	0x3eab7c03	0.3349305
170	0x3d8b3ffb	0.06799313
171	0xbad33319	-0.0016113251
172	0x3e9466f2	0.2898479
173	0xbd9fe707	-0.07807737
174	0x3da6e876	0.08149807
175	0x3d65c1ea	0.056093134
176	0xbdf8f2a4	-0.12155655
177	0x3e90ef29	0.28307465
178	0xbd58ea8a	-0.05295805
179	0x3e45f8b9	0.19333161
180	0x3d2c7cb4	0.042111114
181	0x3de803a5	0.1132882
182	0x3d20f1d0	0.03929311
183	0x3dc832de	0.09775327
184	0xbd1c3fc5	-0.038146753
185	0xbd654392	-0.055972643
186	0x3df7450a	0.12073715
187	0xbd57aef6	-0.05265709
188	0x3d96742b	0.07346376
189	0xbbe805d7	-0.0070807743
190	0xbcd10ca9	-0.025518732
191	0xbda899a5	-0.0823243
192	0x3df4f810	0.11961377
193	0x3d4510c7	0.048111703
194	0xbd156cab	-0.036480587
195	0xbdbae270	-0.09125221
196	0xbd3cea20	-0.046121716
197	0xbdb33737	-0.08750766
198	0xbd8c8067	-0.06860428
199	0x3e0fd7f0	0.14047217
200	0xbdcdf100	-0.10055733
201	0xbdf5f7da	-0.120101646
202	0xbeb90866	-0.3613922
203	0xbe8a1124	-0.26966202
204	0x3dadb4b9	0.08481736
205	0x3e11bf96	0.1423324
206	0xbe670977	-0.22562204
207	0x3db41d4f	0.08794653
208	0x3b1dc8f5	0.0024076079
209	0x3d97ab91	0.074057706
210	0xbeb66cb7	-0.35629818
211	0xbc90af83	-0.017661816
212	0xbdc588af	-0.09645211
213	0x3d9a8ed8	0.075467765
214	0xbd0f32a4	-0.034960404
215	0xbd82875b	-0.06373473
216	0x3c8116e9	0.015757995
217	0x3cb55d49	0.022139208
218	0x3c150954	0.009096462
219	0x3e0fd039	0.14044274
220	0xbe83c8e8	-0.25739217
221	0x3e1629c5	0.14664371
222	0xbcad9d3d	-0.021193141
223	0x3de6a329	0.11261589
224	0x3d730483	0.059330475
225	0x3de06ee0	0.10958648
226	0x3d5d97cd	0.054099847
227	0x3dd7fed9	0.10546655
228	0xbe0724ee	-0.13197681
229	0x3e05f99b	0.13083498
230	0xbe68df8d	-0.22741528
231	0x3db8e3e4	0.09027842
232	0xbdeba4f5	-0.115060724
233	0xbd6f0470	-0.05835384
234	0x3dc6a542	0.09699489
235	0x3e48a805	0.19595344
236	0x3cb91842	0.022594575
237	0xbcf1b644	-0.029505856
238	0xbe201428	-0.15632689
239	0x3e8bb3ad	0.2728552
240	0x3e0685e4	0.13137013
241	0x3d8019b0	0.062548995
242	0x3cd46273	0.02592585
243	0xbe300afa	-0.17191687
244	0x3e8189f9	0.25300577
245	0x3e31c1df	0.17359112
246	0xbdf657ed	-0.12028489
247	0xbdbec9c3	-0.09315827
248	0x3dcfcffa	0.1014709
249	0xbdc2a287	-0.09503656
250	0xbda7d290	-0.081944585
251	0x3e218428	0.1577307
252	0x3ce78148	0.028259888
253	0x3db32d6e	0.087488994
254	0xbd95042e	-0.07276188
255	0xbddc467d	-0.10755632

conv1d/conv1d_bias f4 [64]
0	0xbd275a31	-0.040857498
1	0xbde9d9d6	-0.11418502
2	0xbde26310	-0.11054051
3	0xbc710398	-0.0147103295
4	0xbc41afa2	-0.011821659
5	0xbe372f52	-0.17889145
6	0xbdf79929	-0.1208976
7	0xbe11fb7f	-0.14256094
8	0xbd93af21	-0.072111376
9	0xbd81f7d1	-0.06346095
10	0xbd18c482	-0.03729678
11	0xbba49d90	-0.0050236657
12	0xbd925a06	-0.07146077
13	0xbd4b3d0e	-0.049618773
14	0xbe035152	-0.1282399
15	0xbd71eaee	-0.059061937
16	0xbbaa7ecd	-0.005203104
17	0xbd21e158	-0.039521545
18	0xbd0d7def	-0.034543928
19	0xbc13b379	-0.009014958
20	0xbc60a943	-0.01371223
21	0xbdc37458	-0.09543675
22	0xbc827663	-0.015925592
23	0xbd25cf89	-0.040481124
24	0xbd0f1f39	-0.034941886
25	0xbce0db03	-0.027448183
26	0xbcaaee65	-0.020865628
27	0xbd9856cf	-0.074384324
28	0xbbdc259e	-0.0067183515
29	0xbd20a97b	-0.03922413
30	0xbd7696c1	-0.060202364
31	0xbe1f1e57	-0.15538917
32	0xbd0644e7	-0.032780554
33	0xbccd99d7	-0.02509777
34	0xbe03a20b	-0.12854783
35	0xbccef540	-0.025263429
36	0xbc8d4dca	-0.017249007
37	0xbc19ba9c	-0.00938287
38	0xbd1eca54	-0.038767174
39	0xbd5868cb	-0.052834313
40	0xbc64a417	-0.013955138
41	0xbc099398	-0.0083970055
42	0xbce31869	-0.0277216
43	0xbbbe00fc	-0.005798457
44	0xbcb25a09	-0.021771448
45	0xbcd28ab3	-0.025700903
46	0xbbbffa24	-0.0058586765
47	0xbd6eb7ac	-0.058280632
48	0xbd479e51	-0.048734967
49	0xbce5166b	-0.027964791
50	0xbdee780e	-0.11643992
51	0xbd9638e1	-0.073350675
52	0xbc9ac9e6	-0.0188951
53	0xbd835758	-0.06413144
54	0xbc41b7ee	-0.011823637
55	0xbdbb85e7	-0.09156399
56	0xbced689f	-0.028980551
57	0xbd43d60d	-0.047811557
58	0xbc27b8a5	-0.010236894
59	0xbd8420a0	-0.06451535
60	0xbc245f28	-0.010032453
61	0xbcd5d0b9	-0.026100503
62	0xbca7450f	-0.020418672
63	0xbb8fecd8	-0.0043922476

conv1d_1/conv1d/ExpandDims_1 f4 [128, 1, 5, 64]
0	0x3cf96a92	0.030446324
1	0xbe1927ce	-0.1495659
2	0xbe4d6edf	-0.20061825
3	0xbde42608	-0.111400664
4	0x3dc6edfd	0.097133614
5	0x3db48276	0.08813946
6	0xbdc76475	-0.097359575
7	0xbd9ab46d	-0.07553945
8	0x3e09251b	0.13393061
9	0x3d7ba0d9	0.061432693
10	0x3d7cd520	0.06172669
11	0xbe5fa0be	-0.21838662
12	0x3e164716	0.14675555
13	0xbdd28772	-0.102797404
14	0x3d63648f	0.055515822
15	0x3d9bffc6	0.07617144
16	0x3e1c27a8	0.15249503
17	0xbba93dfd	-0.0051648603
18	0xbe1ca0b1	-0.15295674
19	0xbe0fb347	-0.14033233
20	0xbe79676e	-0.24355862
21	0xbd92af87	-0.071623854
22	0xbd40ad80	-0.047040462
23	0xbdf3075f	-0.1186664
24	0xbcae49b0	-0.021275371
25	0x3dd4f1b2	0.10397662
26	0x3c0fc518	0.008775018
27	0x3dd804ba	0.105477765
28	0xbe5e9211	-0.21735407
29	0xbd892f9f	-0.06698536
30	0xbbb2e795	-0.0054597356
31	0xbe0b23fb	-0.13587944
32	0xbdba73d7	-0.09104126
33	0x3d902146	0.070375964
34	0xbdb9c9e7	-0.09071713
35	0x3e32956c	0.17439812
36	0xbe44bbab	-0.19212215
37	0xbcb93bae	-0.022611465
38	0xbd4539f0	-0.048150957
39	0x3e25fe71	0.16210343
40	0x3d04fc57	0.032467213
41	0xbd5fe310	-0.054659903
42	0xbd0105c1	-0.031499628
43	0xbe033649	-0.12813677
44	0x3db2543f	0.08707475
45	0x3e091800	0.13388062
46	0xbe860458	-0.2617519
47	0x3d38679e	0.045020692
48	0x3d8bfade	0.068349585
49	0x3db1c418	0.0867998
50	0x3d50db2b	0.050990265
51	0x3cfd0ba5	0.030889342
52	0xbe4fecc5	-0.20305164
53	0xbd56f2cd	-0.052477647
54	0xbdd2edd4	-0.10299268
55	0x3e0eef02	0.13958362
56	0xbd9b09ac	-0.07570204
57	0xbc39a316	-0.011330387
58	0xbeabfe12	-0.33592278
59	0xbe0d09f8	-0.13773334
60	0xbe106982	-0.14102748
61	0xbba2fa43	-0.004973681
62	0xbd7d9903	-0.0619135
63	0xbe3ccfd3	-0.18438654
64	0x3d117061	0.035507564
65	0x3c4000a4	0.011718903
66	0xbdc88b41	-0.097921856
67	0xbe5c2947	-0.21500121
68	0x3caecf11	0.021338971
69	0xbced879f	-0.028995333
70	0xbd43e617	-0.047826853
71	0xbe0abe37	-0.13549124
72	0xbdc2c172	-0.09509553
73	0xbd54d57f	-0.05196142
74	0xbd89e638	-0.06733364
75	0xbe2981dd	-0.16553445
76	0x3d289655	0.041158993
77	0xbe7ce71d	-0.24697538
78	0x3db59ef7	0.08868211
79	0xbdb591f8	-0.08865732
80	0xbc0dafb1	-0.008647845
81	0x3d4155a7	0.047200825
82	0xbe371f43	-0.17883019
83	0xbd543887	-0.05181172
84	0x3cb84f2a	0.022498686
85	0xbdc29af2	-0.0950221
86	0xbe1c5cc0	-0.15269756
87	0xbd8a020b	-0.06738671
88	0xbd46edd0	-0.04856664
89	0x3ba6220b	0.005069976
90	0xbd9ed3af	-0.07755219
91	0x3d01e1da	0.03170953
92	0xbe37cf4d	-0.17950173
93	0xbec1a657	-0.3782222
94	0x3dfdac2c	0.12386355
95	0xbe52d3a5	-0.20588548
96	0xbbd4f87e	-0.006499349
97	0x3bcc504f	0.0062351595
98	0xbe15c3e5	-0.14625509
99	0xbe1bd32b	-0.15217273
100	0xbdddce7d	-0.108304
101	0xbbd0aeda	-0.0063685
102	0xbe104f0c	-0.14092654
103	0xbdbcdb53	-0.0922152
104	0xbd5e8a45	-0.054331083
105	0xbddb7d4a	-0.10717256
106	0x3dfed184	0.12442306
107	0xbe57ff65	-0.21093519
108	0x3e4e3329	0.20136704
109	0xbe1bb83b	-0.15206997
110	0xbe03dd06	-0.12877283
111	0x3e25af82	0.16180232
112	0x3cf79367	0.030221654
113	0x3d358ff2	0.04432673
114	0xbd043d4e	-0.032285027
115	0x3dac42a8	0.08411151
116	0xbdebd51e	-0.11515258
117	0xbe0c0a36	-0.1367577
118	0xbe091225	-0.13385828
119	0x3e422ed8	0.18963182
120	0x3d3a820f	0.04553419
121	0xbd2edbb5	-0.042689998
122	0xbd6bb98d	-0.057550002
123	0xbe503d86	-0.2033597
124	0xbe919512	-0.28434044
125	0x3c925302	0.017861847
126	0xbdc6286a	-0.09675677
127	0x3e1215b1	0.14266087
128	0x3dd2ce88	0.10293299
129	0xbb902743	-0.0043992116
130	0xbdfe77fa	-0.124252275
131	0xbe9968cc	-0.29962766
132	0x3d48b67b	0.049002152
133	0x3d032340	0.03201604
134	0xbe17a827	-0.14810239
135	0xbd5c3134	-0.05375786
136	0x3c9e6fd7	0.019340439
137	0x3c676708	0.014123686
138	0xbd69114c	-0.05690126
139	0xbd813249	-0.06308419
140	0x3d920a30	0.07130849
141	0xbde3c8cf	-0.111222856
142	0x3d821e9e	0.06353496
143	0xbd474864	-0.04865302
144	0xbe2dbec7	-0.16967307
145	0xbd8d40ff	-0.06897163
146	0xbd564e61	-0.05232084
147	0xbda3267b	-0.07966324
148	0xbe045c99	-0.12925948
149	0x3daa64c1	0.083199985
150	0xbc8b036e	-0.016969409
151	0xbcda1e15	-0.026625672
152	0x3de112d7	0.109899215
153	0xbdc1303f	-0.0943303
154	0x3b959c96	0.0045657856
155	0x3e0b0729	0.1357695
156	0xbd848c7c	-0.06472108
157	0xbe52fac4	-0.20603472
158	0x3d7430de	0.059616916
159	0xbcb77ec7	-0.02239932
160	0xbd26ed31	-0.040753547
161	0x3dc37eeb	0.09545692
162	0xbdb00a07	-0.085956626
163	0xbd457719	-0.048209284
164	0xbd19351f	-0.037404176
165	0x3cb1e1a0	0.021714032
166	0xbe2f8f52	-0.17144516
167	0x3bdf9ccb	0.006824111
168	0xbcaa4b1a	-0.020787764
169	0xbe02f218	-0.12787664
170	0x3dfc88e4	0.12330797
171	0xbd7f5a0a	-0.062341727
172	0x3e54ba1e	0.20774123
173	0x3d32af7e	0.043624394
174	0xbe2a60a0	-0.16638422
175	0x3e3bbdd1	0.18334128
176	0xbdd1e88c	-0.10249433
177	0x3df815d7	0.121135406
178	0xbd7f73e6	-0.06236639
179	0x3e56758e	0.20943281
180	0xbdaa19c7	-0.08305698
181	0x3d97dba0	0.07414937
182	0xbd24caa6	-0.040232323
183	0x3e5bd1e0	0.2146678
184	0xbdf49530	-0.11942518
185	0xbd271749	-0.04079369
186	0xbeab1ee8	-0.33422017
187	0xbdd7bfcf	-0.105346315
188	0xbcd0963d	-0.025462264
189	0x3bebadca	0.007192348
190	0x3d0edf83	0.034881126
191	0x3d8b5924	0.068041116
192	0x3e0bf448	0.13667405
193	0x3d388fc1	0.04505897
194	0xbdc88c52	-0.09792389
195	0xbd3ccb47	-0.046092298
196	0xbcecab75	-0.02889035
197	0xbe26523a	-0.16242304
198	0xbd31feaa	-0.043455757
199	0xbe31d360	-0.1736579
200	0x3dbd76bd	0.09251163
201	0x3da457ac	0.080245346
202	0xbe2f079f	-0.17092751
203	0xbd8d15e6	-0.068889424
204	0xbca712ca	-0.020394702
205	0xbcf91108	-0.030403629
206	0xbd8f0767	-0.06983834
207	0x3da2f708	0.07957274
208	0xbd01647e	-0.031589977
209	0x3d8fabc0	0.070151806
210	0xbdac8ac8	-0.08424908
211	0xbc817bd5	-0.015806118
212	0xbe3301d0	-0.1748116
213	0xbd816d07	-0.063196234
214	0xbdbfc3ae	-0.09363495
215	0xbda67c71	-0.08129204
216	0x3c5ca5ae	0.0134672355
217	0xbdd73d75	-0.10509769
218	0x3e084c76	0.13310418
219	0x3d26c953	0.04071934
220	0xbe7ce5d8	-0.24697053
221	0xbdf685a7	-0.12037211
222	0x3dbc8918	0.09205836
223	0xbdb9417e	-0.09045695
224	0xbd0e8acf	-0.034800347
225	0x3db1aadf	0.08675169
226	0x3e220aec	0.15824479
227	0x3d29c056	0.04144319
228	0xbda1d0d1	-0.07901157
229	0xbdd8a4e3	-0.10578325
230	0xbdd440e5	-0.1036394
231	0xbe0f885a	-0.14016858
232	0xbe78979d	-0.24276586
233	0xbdc55aa9	-0.09636433
234	0x3e0540cf	0.13013004
235	0xbc95adcb	-0.018271348
236	0x3d58b2f3	0.052905034
237	0x3deb4c02	0.11489107
238	0xbdd5c10b	-0.10437211
239	0x3e80419e	0.25050062
240	0xbd8dd9e4	-0.06926325
241	0xbd853565	-0.06504325
242	0x3cf3d666	0.02976532
243	0x3d0ea2c1	0.034823183
244	0xbb3f36fb	-0.0029177058
245	0xbe041642	-0.12899116
246	0x3d3405eb	0.043950956
247	0x3d391519	0.045186136
248	0x3ca1d643	0.019755488
249	0xbcae14ae	-0.021250095
250	0xbcb82530	-0.02247867
251	0xbbacd378	-0.0052742325
252	0x3db15d40	0.08660364
253	0x3c7cd62e	0.015431924
254	0x3b248ba7	0.0025107653
255	0x3d86cf14	0.06582466

conv1d_1/conv1d_bias f4 [128]
0	0xbcf58104	-0.029968746
1	0xbc4aaf4a	-0.012370894
2	0xbc9bc4ba	-0.019014705
3	0xbd21d784	-0.039512172
4	0xbd0517e5	-0.03249349
5	0xbc3c71c4	-0.011501733
6	0xbc4403e5	-0.011963819
7	0xbd1af100	-0.03782749
8	0xbe0642a1	-0.13111354
9	0xbd4b51a2	-0.049638398
10	0xbd370de0	-0.044690967
11	0xbe5e7b8a	-0.21726814
12	0x3c064cca	0.008197019
13	0xbcc5c1bd	-0.024140233
14	0xbd1338a5	-0.035942692
15	0xbda3246c	-0.07965931
16	0xbcf26f63	-0.029594129
17	0xbcda05c5	-0.02661408
18	0xbe7cae43	-0.2467585
19	0xbc73c20a	-0.0148778055
20	0xbca6ed95	-0.02037696
21	0xbe4d9970	-0.20078063
22	0xbc193cf4	-0.009352911
23	0xbdd27ee1	-0.102781065
24	0xbe05fe55	-0.13085301
25	0xbd74898d	-0.05970149
26	0xbbbc8d42	-0.005754144
27	0xbde34066	-0.110962674
28	0xbd020c97	-0.031750288
29	0xbd4764ee	-0.04868024
30	0xbcc128b2	-0.023578975
31	0xbdd01b25	-0.101614274
32	0xbcdbd5e3	-0.026835388
33	0xbc6c7123	-0.014431271
34	0xbcfcbba0	-0.030851185
35	0xbcc8c46a	-0.02450772
36	0xbe62b3dd	-0.22138925
37	0xbe3171af	-0.17328523
38	0xbd0a935f	-0.03383195
39	0xbd79a21e	-0.060945623
40	0xbd2c0350	-0.041995347
41	0xbd1b2005	-0.037872333
42	0xbd94c831	-0.07264746
43	0xbc908ac9	-0.017644303
44	0xbe35c820	-0.17752123
45	0xbe2fd6b7	-0.17171751
46	0xbb427b6d	-0.0029675618
47	0xbe0e0a29	-0.13871063
48	0xbe150752	-0.14553574
49	0xbcd2a919	-0.025715398
50	0xbd4d4f21	-0.05012429
51	0xbd6d8261	-0.057985667
52	0xbcb072f4	-0.021539189
53	0xbdd24a9c	-0.10268137
54	0xbd84af60	-0.064787626
55	0xbd267d84	-0.040647045
56	0xbc94bd01	-0.01815653
57	0xbde2e9a4	-0.1107972
58	0xbbae8cff	-0.0053268666
59	0xbd181b06	-0.037135147
60	0xbca90800	-0.020633698
61	0xbdefef02	-0.11715509
62	0xbd20fe93	-0.03930528
63	0xbc0aa7e8	-0.0084628835
64	0xbcad2970	-0.021137923
65	0xbd63f127	-0.055649903
66	0xbe3dc4f1	-0.18532158
67	0xbd54c715	-0.051947672
68	0xbcbf20b8	-0.023331031
69	0xbd915514	-0.070963055
70	0xbd2645d5	-0.04059394
71	0xbcb8b0a8	-0.022545174
72	0xbc2a0fa7	-0.010379708
73	0xbe7fe3e6	-0.2498928
74	0xbd299d16	-0.041409574
75	0xbca78d4d	-0.02045312
76	0xbcf2fcfd	-0.02966165
77	0xbd3f9ebe	-0.046782248
78	0xbafac21e	-0.0019131338
79	0xbd43d4f5	-0.047810514
80	0xbd6f9ce4	-0.058499232
81	0xbcb6b7d7	-0.022304459
82	0xbe3d6d94	-0.18498832
83	0xbcaab111	-0.020836385
84	0xbc3b9633	-0.0114493845
85	0xbd78ce2f	-0.060743507
86	0xbb9f2de5	-0.004857766
87	0xbd9da937	-0.07698291
88	0xbde2890b	-0.11061295
89	0xbdd884f2	-0.10572232
90	0xbcd9fbab	-0.026609262
91	0xbd46c847	-0.048530843
92	0xbd8ebe87	-0.06969934
93	0xbdf7699b	-0.120806895
94	0xbe26bb11	-0.16282298
95	0xbe031a5e	-0.12803027
96	0xbcd258e4	-0.025677152
97	0xbe2061bf	-0.15662287
98	0xbcc0a143	-0.023514396
99	0xbe91a719	-0.28447798
100	0xbcc4a925	-0.024006436
101	0xbd68b432	-0.056812473
102	0x3cac05ca	0.020998854
103	0xbcaf7690	-0.02141884
104	0xbdab754b	-0.08371981
105	0xbd274b47	-0.040843274
106	0xbd0a97c8	-0.033836156
107	0xbd5ea0d0	-0.05435258
108	0xbc3772cb	-0.011196802
109	0xbc4cfb54	-0.012511093
110	0xbcf596d6	-0.02997915
111	0xbc9d5a02	-0.019207958
112	0xbd28766c	-0.04112856
113	0xbce0359a	-0.02736931
114	0xbd2e5b8e	-0.042567782
115	0xbc93a433	-0.018022632
116	0xbd87bc4b	-0.06627711
117	0xbe443917	-0.19162403
118	0xbd3ae8ce	-0.045632176
119	0xbd93d522	-0.07218386
120	0xbc186a74	-0.009302724
121	0xbc9f6700	-0.019458294
122	0xbbd09f88	-0.006366674
123	0xbd1a61a1	-0.037690762
124	0xbc482788	-0.012216456
125	0xbbf9e709	-0.0076264185
126	0xbc0d7491	-0.008633749
127	0xbcd60f68	-0.026130393

output/MatMul_bias f4 [5]
0	0xbe2c9110	-0.16852212
1	0xbbe01d76	-0.0068394495
2	0x3e077c53	0.1323102
3	0xbdc45ba5	-0.09587792
4	0x3e1e983e	0.15487763

output/kernel/transpose f4 [5, 32]
0	0x3f230e93	0.63694113
1	0x3ef6421d	0.48097315
2	0xbf3437b6	-0.7039751
3	0x3f07b906	0.530167
4	0x3f22301b	0.63354653
5	0x3f325117	0.69654983
6	0x3eef482c	0.4673475
7	0x3dca5ec0	0.098813534
8	0x3eda006d	0.4257845
9	0xbedf27b7	-0.43584988
10	0xbe9ae0bf	-0.30249593
11	0xbf167dd5	-0.58785754
12	0x3ef19683	0.47185144
13	0x3ec0ace9	0.3763192
14	0x3f256a66	0.64615476
15	0xbe424cbc	-0.18974584
16	0xbf44e496	-0.76911294
17	0xbf2f7b00	-0.6854706
18	0xbe262366	-0.16224441
19	0x3e9dea99	0.30843046
20	0x3ecd5938	0.4010713
21	0xbeef4f75	-0.46740308
22	0xbedda4eb	-0.43289885
23	0xbef57aa5	-0.47945133
24	0x3d79d5cf	0.06099492
25	0x3e13f6e9	0.14449657
26	0xbef37af1	-0.47554734
27	0x3eb2d3b5	0.34927145
28	0x3e711ce8	0.23546183
29	0xbeb5911e	-0.35462278
30	0xbe214c71	-0.15751816
31	0x3eef8066	0.46777648
32	0xbe30069e	-0.17190024
33	0xbd355539	-0.044270728
34	0x3ef128e5	0.47101513
35	0xbeb1236a	-0.3459733
36	0xbeb6d0f8	-0.35706306
37	0xbe4e905b	-0.20172255
38	0x3edd9339	0.43276384
39	0x3ebb2a7f	0.3655586
40	0xbbfbdfb9	-0.007686582
41	0x3de395e8	0.11112577
42	0xbc703e3a	-0.0146632735
43	0x3ee5fd42	0.44919783
44	0x3eb7ddc1	0.35911372
45	0x3ea5d499	0.32388762
46	0x3e9d4ca8	0.30722547
47	0x3f15d547	0.5852856
48	0x3e49881e	0.19680831
49	0x3e676bfe	0.2259979
50	0xbe015423	-0.12629752
51	0x3ebb83ac	0.36623895
52	0xbece370c	-0.40276372
53	0x3f18554a	0.5950514
54	0xbf2c4865	-0.67297965
55	0xbedefc0d	-0.43551674
56	0x3ea32a6f	0.31868312
57	0x3e9e7ac9	0.30953053
58	0x3ddb5eca	0.10711439
59	0xbeccf389	-0.40029553
60	0xbf207f7a	-0.62694514
61	0x3ebd0759	0.36919668
62	0x3e3f2965	0.18668135
63	0x3ec7b468	0.39004827
64	0xbe49df56	-0.19714102
65	0x3eb8986f	0.36053798
66	0x3e0527cd	0.13003464
67	0xbea74590	-0.3267026
68	0x3eeccec6	0.46251506
69	0xbf044947	-0.5167431
70	0xbe0068f6	-0.1254004
71	0xbd96e4c2	-0.07367851
72	0xbefd2edc	-0.49449813
73	0x3e3c0528	0.18361342
74	0x3e84c743	0.25933275
75	0xbe9ca794	-0.30596602
76	0xbeca2ccb	-0.394873
77	0xbefbdc38	-0.4919145
78	0xbefcaa38	-0.49348617
79	0x3e44bac0	0.19211864
80	0x3e2b3ec7	0.16723166
81	0xbec1e247	-0.37867948
82	0xbe8b5acf	-0.2721772
83	0x3eacb36a	0.33730632
84	0xbe274f9e	-0.16338965
85	0x3e3ebb77	0.186262
86	0x3f010503	0.5039827
87	0x3e9c8c1d	0.30575648
88	0xbefd5e67	-0.49486086
89	0x3e99fc6d	0.30075398
90	0xbe803c36	-0.25045937
91	0xbd145086	-0.036209606
92	0x3eec42c6	0.46144694
93	0x3efa8255	0.4892756
94	0xbf0fbd8b	-0.56148595
95	0xbefd6b59	-0.49495962
96	0x3edc8c4a	0.43075782
97	0xbe4d9616	-0.20076784
98	0x3ef547da	0.4790638
99	0xbebd06d9	-0.36919287
100	0xbece55ed	-0.4029993
101	0x3e197848	0.1498729
102	0xbef5f098	-0.4803512
103	0xbd9ef574	-0.0776166
104	0x3ef58ee8	0.4796059
105	0x3eb2f70e	0.34954113
106	0x3f25b598	0.64730215
107	0x3ecc0dd8	0.39854312
108	0xbeabbe8e	-0.3354382
109	0xbead8724	-0.33892167
110	0x3f12ef52	0.57396424
111	0xbf3dbd5d	-0.7411707
112	0x3de47b39	0.11156315
113	0x3eebad19	0.460305
114	0x3e9146a5	0.2837421
115	0x3d5cf982	0.053948887
116	0xbea00da5	-0.3126041
117	0xbec505c8	-0.38480973
118	0x3e5475d6	0.20748076
119	0xbe07f0da	-0.13275471
120	0x3e552cd2	0.20817879
121	0x3f05995c	0.5218713
122	0xbd8195f6	-0.06327431
123	0x3ebfe3be	0.3747844
124	0x3f03ad24	0.51436067
125	0xbf20a2d9	-0.62748486
126	0x3eeb837a	0.45998746
127	0xbe677b24	-0.22605568
128	0xbf275436	-0.6536287
129	0xbec9ade2	-0.39390475
130	0xbf8f0be0	-1.1175499
131	0x3e42a6de	0.19008967
132	0xbf1ea253	-0.6196644
133	0xbe702956	-0.23453268
134	0xbf2e46b2	-0.6807662
135	0x3e016a94	0.12638313
136	0xbeb44481	-0.35208514
137	0xbf2bb494	-0.67072415
138	0x3e95997b	0.2921866
139	0x3f72dd22	0.9486867
140	0x3f65f582	0.8982774
141	0xbe6d1c13	-0.2315524
142	0xbf451a85	-0.7699359
143	0xbf140e94	-0.57834744
144	0xbf2c32c7	-0.6726498
145	0x3ee56048	0.4480002
146	0xbe7a4617	-0.244408
147	0xbf63edfd	-0.89035016
148	0x3f0a9c71	0.5414496
149	0xbecf572b	-0.4049619
150	0x3f2ae481	0.6675492
151	0x3f82b10c	1.021028
152	0x3e3436be	0.17599007
153	0xbf875ea5	-1.0575758
154	0x3f737605	0.9510196
155	0xbe45c6c0	-0.19314098
156	0xbf12c670	-0.5733404
157	0x3f1fd0cf	0.6242799
158	0x3f53959c	0.8265016
159	0x3dbc2117	0.09185999

rnn/tf_lite_lstm_cell/cell_bias f4 [64]
0	0x3b979efc	0.0046271067
1	0xbd23d669	-0.0399994
2	0xbd8ff9f8	-0.070301
3	0x3dc1a07a	0.094544366
4	0xbd58c25d	-0.052919734
5	0x3dabcabd	0.08388279
6	0x3d22cfb9	0.03974888
7	0xbbc02461	-0.0058637117
8	0xbd79fee8	-0.061034113
9	0xbcaf273a	-0.02138101
10	0xbcd5ca64	-0.026097484
11	0xbd365478	-0.04451415
12	0xbd0a5276	-0.033770047
13	0x3c0d1623	0.008611235
14	0x3c8c3228	0.01711376
15	0x3dab11f3	0.08353033
16	0x3c456139	0.0120471055
17	0x3b905c89	0.0044055623
18	0x3de89d41	0.11358119
19	0x3e217bf0	0.15769935
20	0xbcca0348	-0.024659768
21	0x3d958a8b	0.073018156
22	0xbc844f29	-0.016151028
23	0x3d649cf3	0.05581374
24	0xbcf24ad3	-0.029576695
25	0x3dae3d8a	0.085078314
26	0xbd996756	-0.07490413
27	0x3d5f8e47	0.054579046
28	0xbe3654a6	-0.17805728
29	0xbd7ea357	-0.06216749
30	0x3d8e45d4	0.069469124
31	0xbc946dca	-0.018118758
32	0xba176afd	-0.00057761354
33	0x3d107570	0.035268247
34	0x3db5724c	0.08859691
35	0x3c342bdb	0.010996784
36	0xbdb11c26	-0.08647947
37	0xbe2b81cd	-0.16748734
38	0x3d13ebde	0.036113612
39	0xbcb60a5e	-0.02222174
40	0x3c4ebed7	0.012618742
41	0x3d398cc3	0.045300256
42	0x3ce243c7	0.02762021
43	0x3d28a092	0.041168757
44	0xbda5167e	-0.08060931
45	0x3cda00cc	0.026611708
46	0x3d3b1a94	0.045679644
47	0x3cbbc529	0.022921162
48	0xbd871134	-0.06595078
49	0x3dd0875e	0.10182069
50	0xbc5fcd5e	-0.013659803
51	0x3d571e6f	0.052519258
52	0x3c9c8e49	0.019110816
53	0xbd344db1	-0.044019405
54	0x3d5e0fbe	0.05421423
55	0x3c68499e	0.014177708
56	0xbc2aface	-0.010435773
57	0xbd209129	-0.039200936
58	0xbd974d93	-0.07387843
59	0xba564dfb	-0.0008175072
60	0x3d6865ce	0.056737714
61	0x3ba21d8d	0.0049473704
62	0xbb4d27e2	-0.003130429
63	0x3d2305e2	0.039800532

rnn/tf_lite_lstm_cell/cell_to_cell_w f4 [64, 64]
0	0xbe0eeb38	-0.13956916
1	0xbb8ec954	-0.0043574963
2	0xbd85e9c4	-0.06538728
3	0x3da1a578	0.07892889
4	0x3e5d090f	0.21585487
5	0x3d88e090	0.06683457
6	0xbd87fe8b	-0.06640347
7	0xbe152d96	-0.14568171
8	0xbdf1f47d	-0.118142106
9	0xbe59f4a9	-0.21284737
10	0xbdae7151	-0.08517707
11	0x3e18b3a0	0.14912271
12	0x3e930a9d	0.28719035
13	0xbd1e7034	-0.038681224
14	0x3d642b67	0.055705454
15	0x3d5b3abf	0.05352282
16	0xbe16b200	-0.14716339
17	0x3e5656d9	0.20931567
18	0x3e0b8cf8	0.13627994
19	0x3df36efe	0.118864045
20	0xbcbc4479	-0.022981869
21	0xbb056b70	-0.0020358227
22	0x3e4e7cd4	0.20164806
23	0x3e5de1da	0.21668187
24	0x3d20d5ab	0.03926627
25	0xbe348e01	-0.17632295
26	0x3e31e651	0.17373015
27	0xbd74a3ea	-0.059726633
28	0xbd928ed9	-0.07156152
29	0xbe2b9efb	-0.16759865
30	0xbebb5910	-0.36591387
31	0xbe108296	-0.14112315
32	0xbc34892b	-0.0110190315
33	0x3e28a4b6	0.16469082
34	0xbe71ac6f	-0.23600934
35	0xbe3c19b7	-0.18369184
36	0x3c1d8751	0.0096147815
37	0xbd237d44	-0.039914384
38	0x3e142b85	0.14469726
39	0xbe091ba3	-0.13389449
40	0xbd98cd88	-0.07461077
41	0x3de82c54	0.1133658
42	0x3e518213	0.20459776
43	0xbc43be64	-0.011947248
44	0xbe82d115	-0.25550142
45	0x3e6f94ef	0.23396657
46	0xbc27fedf	-0.010253637
47	0x3e496ffe	0.19671628
48	0x3e4c88f5	0.1997412
49	0xb95102c8	-0.0001993283
50	0x3d21e231	0.039522354
51	0xbded28ea	-0.11580069
52	0x3e16cee2	0.14727357
53	0x3ddea02e	0.108703956
54	0xbe2e70f6	-0.17035279
55	0x3e7cbf9d	0.2468247
56	0xbdf3e6aa	-0.1190923
57	0xbd70ca92	-0.058786936
58	0x3c17bbd9	0.009261095
59	0xbe291e0c	-0.16515368
60	0x3ea5258c	0.32255208
61	0xbd8a808d	-0.067628
62	0x3cbcab95	0.023031035
63	0xbe06e875	-0.13174613
64	0x3d7f2006	0.0622864
65	0xbe3f981d	-0.1871037
66	0xbd8293f3	-0.06375875
67	0x3e99fe45	0.30076805
68	0x3e5011e5	0.20319326
69	0x3e182ff5	0.14862044
70	0x3ca7caae	0.020482387
71	0x3e0bd8a6	0.13656864
72	0x3e35c7f0	0.17752051
73	0x3cf49399	0.029855536
74	0xbd246867	-0.04013863
75	0xbe04421e	-0.12915847
76	0xbd8b3bd2	-0.06798519
77	0xbda4bd6a	-0.0804394
78	0x3d9ed19f	0.07754826
79	0x3e941040	0.28918648
80	0xbb031014	-0.0019998597
81	0x3e605a36	0.21909413
82	0x3dcfb861	0.10142589
83	0x3d59f589	0.053212676
84	0x3d9e7711	0.07737554
85	0xbba112ac	-0.004915556
86	0xbdf11524	-0.117716104
87	0x3e6269aa	0.2211062
88	0xbd9ede78	-0.07757276
89	0x3d7eb8bd	0.0621879
90	0xbe3056b4	-0.17220575
91	0xbe4ebaf9	-0.20188512
92	0xbd1b1126	-0.03785815
93	0x3d9e83ec	0.07740006
94	0xbd9019a9	-0.07036144
95	0xbe37197c	-0.17880815
96	0xbe0b0f69	-0.13580097
97	0x3dcd5733	0.100263976
98	0x3d9fb565	0.0779827
99	0x3e689485	0.22712906
100	0x3c876f0f	0.016532449
101	0xbde68161	-0.11255146
102	0x3d45c8bd	0.048287142
103	0x3d45a4d3	0.04825289
104	0xbd8155cf	-0.06315195
105	0x3daab461	0.08335186
106	0xbd066e73	-0.032820176
107	0x3d0da5e7	0.034582045
108	0xbdb9afae	-0.09066711
109	0x3ea14c78	0.31503654
110	0xbe51ffd4	-0.20507747
111	0xbd381b93	-0.04494817
112	0x3e06215c	0.13098663
113	0x3d7e9c97	0.062161054
114	0xbe4fcb19	-0.2029232
115	0x3e462e63	0.19353633
116	0xbd452743	-0.048133146
117	0xbe6757f5	-0.22592147
118	0x3c3a1646	0.011357849
119	0xbddce878	-0.107865274
120	0xbe63c22e	-0.22242042
121	0x3e0732b4	0.13202935
122	0x3dd91f98	0.10601729
123	0xbe6b8132	-0.22998503
124	0x3eabaa1a	0.33528215
125	0x3e0ea7ee	0.13931248
126	0xbca1461a	-0.019686747
127	0x3e9605fa	0.29301435
128	0x3e90f9a2	0.28315455
129	0xbe2a7c37	-0.16648947
130	0x3de2bab0	0.11070764
131	0x3e9177cc	0.2841171
132	0x3d34793b	0.044060927
133	0x3e29b9b9	0.16574754
134	0x3b571191	0.0032816867
135	0xbce2076a	-0.027591426
136	0xbe75dab5	-0.24009211
137	0xbe4b35a3	-0.1984468
138	0xbe12ed76	-0.14348397
139	0x3dac8488	0.08423716
140	0x3e4413db	0.191482
141	0xbe4eb88f	-0.20187591
142	0xbdf370dc	-0.118867606
143	0x3e7ec17c	0.24878496
144	0x3e2599f3	0.16172008
145	0xbc7812ea	-0.015141228
146	0xbe5b6e11	-0.21428706
147	0xbdf663a0	-0.12030721
148	0x3e390152	0.1806691
149	0xbca4d7db	-0.02012246
150	0x3d830348	0.0639711
151	0xbd8158e3	-0.06315782
152	0xbe0a2b85	-0.13493164
153	0x3e888efe	0.26671594
154	0xbe5db53f	-0.21651171
155	0xbd5c5596	-0.05379256
156	0x3cadeaf5	0.0212302
157	0x3cc4880b	0.023990652
158	0x3eacca9c	0.3374833
159	0xbd7ef41b	-0.062244516
160	0x3de0701a	0.10958882
161	0x3e243b33	0.16038208
162	0x3e05855a	0.13039151
163	0x3ce26efe	0.027640816
164	0x3d8429bf	0.06453275
165	0xbcfcbf67	-0.030852986
166	0xbe37ef14	-0.17962295
167	0xbda4d4cb	-0.080483995
168	0x3e663482	0.22480968
169	0xbd1da049	-0.038482938
170	0x3d80b22b	0.06283983
171	0x3c75fc11	0.015013711
172	0xbddf1708	-0.10893065
173	0x3e093da4	0.1340242
174	0xbbc9b957	-0.0061561274
175	0x3d8556a0	0.06510663
176	0xbe0cf180	-0.13764
177	0x3e376a18	0.17911565
178	0x3da3be72	0.07995309
179	0x3d5a3f18	0.053282827
180	0x3d635bfd	0.05550765
181	0xbe84c677	-0.25932667
182	0xbc85b7a8	-0.016322926
183	0xbd219ddb	-0.039457183
184	0x3e3057bd	0.1722097
185	0xbdb74a39	-0.08949704
186	0x3e18ec54	0.14933902
187	0x3de684a2	0.112557665
188	0x3e14c77b	0.14529221
189	0xbd151793	-0.036399435
190	0xbe68e91b	-0.22745173
191	0x3d9bcd51	0.0760752
192	0x3e5f41f1	0.21802498
193	0xbe4b4106	-0.19849023
194	0xbe294c41	-0.16532995
195	0xbd7d0c17	-0.061779108
196	0x3e6a6ae4	0.22892338
197	0xbce75985	-0.028240928
198	0xbdde88c0	-0.10865927
199	0xbde206ff	-0.11036491
200	0xbe8990c6	-0.26868266
201	0x3e1da741	0.15395834
202	0x3de62a6e	0.112385616
203	0x3d89b875	0.067246355
204	0x3e396b26	0.1810728
205	0xbd16e387	-0.03683808
206	0xbe14ff24	-0.14550453
207	0xbd8a27e8	-0.06745893
208	0x3cd34fe4	0.02579493
209	0x3d218fe8	0.03944388
210	0xbdc99f8f	-0.098448865
211	0x3dedb9ee	0.11607729
212	0x3da63d95	0.081172146
213	0x3d6baf7d	0.057540406
214	0xbde7559a	-0.11295624
215	0x3e0d7049	0.13812365
216	0xbe65d732	-0.22445372
217	0xbe42ab97	-0.19010769
218	0xbe3a791d	-0.18210264
219	0xbd6fec29	-0.05857483
220	0xbeafdaf2	-0.3434673
221	0xbc367020	-0.011135131
222	0x3df55adb	0.1198022
223	0xbd264ab6	-0.040598594
224	0xbd86159d	-0.06547091
225	0xbc5297b0	-0.012853548
226	0xbe132c6f	-0.14372419
227	0xbdf503ad	-0.11963592
228	0xbe8abeab	-0.27098593
229	0x3dc7c73c	0.09754798
230	0x3ca8ed1a	0.020620871
231	0xbe86c5ed	-0.2632288
232	0x3e4b2cf2	0.19841364
233	0x3c822ed6	0.015891474
234	0xbda5fd85	-0.08104996
235	0xbcf7bb84	-0.030240782
236	0x3db5a80f	0.08869945
237	0x3e39c6a0	0.18142176
238	0xbb10bdf8	-0.0022085886
239	0x3e286f76	0.16448769
240	0xbe02aa60	-0.12760305
241	0x3dff9f98	0.12481612
242	0x3da2b3b3	0.07944431
243	0xbb0f21ee	-0.0021840292
244	0xbe5452bd	-0.20734687
245	0xbd2d24e1	-0.0422715
246	0xbd276cf0	-0.040875375
247	0xbd50cfc2	-0.050979383
248	0x3cc4d76f	0.024028508
249	0x3e4f094f	0.20218395
250	0x3e2cc2dd	0.1687121
251	0x3e59a877	0.2125567
252	0x3d1c1fe8	0.038116366
253	0x3ce446a8	0.027865723
254	0xbc44749e	-0.011990694
255	0x3e28d7e9	0.16488613

rnn/tf_lite_lstm_cell/cell_to_forget_w f4 [64, 64]
0	0x3e1beb28	0.15226424
1	0xbd19be58	-0.03753504
2	0x3d808e03	0.062770866
3	0x3e83dca9	0.25754288
4	0xbe82f817	-0.25579903
5	0x3e1f84cf	0.15578006
6	0x3d5edff6	0.054412805
7	0xbdeff428	-0.11716491
8	0xbd991159	-0.07474012
9	0xbe18121c	-0.14850658
10	0xbe7489bf	-0.23880671
11	0x3ca371bd	0.019951696
12	0x3e5d76cd	0.2162735
13	0xbca93ce1	-0.020658912
14	0x3e694c1a	0.22782937
15	0xbd1649d1	-0.03669149
16	0x3eb0c33e	0.34523958
17	0xbc179c84	-0.009253625
18	0xbdb50b8b	-0.08840092
19	0xbd0423bb	-0.032260638
20	0xbcc8f00e	-0.02452853
21	0xbda974fe	-0.082742676
22	0x3e0f00d8	0.13965166
23	0x3dbb128d	0.09134398
24	0xbe3e90d2	-0.18609932
25	0x3ddce06e	0.10784994
26	0x3d7b0355	0.061282475
27	0xbe144ccf	-0.14482425
28	0xbe387468	-0.18013155
29	0x3d97dd71	0.074152835
30	0x3d7ea148	0.06216553
31	0x3d032499	0.032017324
32	0xbe10e10c	-0.14148349
33	0xbce024ba	-0.027361263
34	0x3e0f5514	0.13997298
35	0xbd55073b	-0.05200885
36	0x3db99354	0.09061304
37	0x3e2a27c5	0.16616733
38	0x3e5fd605	0.21858986
39	0xbc5ec2c3	-0.0135962395
40	0x3e2f4da0	0.17119455
41	0xbd1d3529	-0.038380776
42	0x3e322739	0.17397775
43	0x3d5d7445	0.05406596
44	0xbdfaae95	-0.1224033
45	0x3e9eb145	0.3099462
46	0x3d898e8c	0.06716642
47	0xbe2a69f1	-0.16641976
48	0x3d04b0e5	0.032395262
49	0x3e0024d3	0.12514047
50	0x3e830a13	0.25593624
51	0xbe30f078	-0.17279232
52	0xbd2a2197	-0.04153594
53	0xbd85f247	-0.06540351
54	0x3d9f4900	0.077775955
55	0x3c537a44	0.012907568
56	0xbb6c9412	-0.0036099
57	0x3e82c705	0.25542465
58	0xbdb95561	-0.09049488
59	0x3e5c466d	0.2151124
60	0x3c65a512	0.014016407
61	0x3c5bdc6d	0.013419253
62	0x3e5a4e94	0.21319038
63	0xbd55988f	-0.052147444
64	0x3cc0c0f9	0.023529517
65	0xbd17e47f	-0.037083145
66	0xbea69aee	-0.32540077
67	0x3e343d34	0.17601472
68	0xbdea823b	-0.11450621
69	0xbd71b5ec	-0.059011385
70	0xbdf045b4	-0.11732045
71	0x3ca8851f	0.02057129
72	0xbcc6647e	-0.02421784
73	0x3e55e4ae	0.20888016
74	0xbdf50cea	-0.11965354
75	0x3de585c0	0.112071514
76	0xbdb31e58	-0.08746022
77	0xbcc79390	-0.024362355
78	0x3d487789	0.048942123
79	0xbe0906d3	-0.1338151
80	0xbe4197a9	-0.1890551
81	0x3d961d4e	0.07329808
82	0x3da41eca	0.08013685
83	0xbc5fcd9f	-0.013659864
84	0xbe824fa5	-0.2545139
85	0x3e84f7d8	0.2597034
86	0xbe139633	-0.14412765
87	0xbdac4f8e	-0.08413611
88	0xbe0a671a	-0.13515893
89	0x3e35808b	0.17724817
90	0x3e30e26a	0.1727387
91	0xbdd457af	-0.10368287
92	0xbe4745e9	-0.19460262
93	0x3e5284ee	0.20558521
94	0x3bd8e074	0.006618554
95	0xbe749252	-0.23883942
96	0xbe64aa1f	-0.22330521
97	0xbe051dcb	-0.12999646
98	0xbe43c54c	-0.19118232
99	0xbd4974c6	-0.04918363
100	0xbe2d06ad	-0.16897078
101	0x3e75431c	0.23951381
102	0xbc704376	-0.014664521
103	0xbe45a56b	-0.19301383
104	0x3e3e222c	0.18567723
105	0x3e58f301	0.21186449
106	0xbe5168c3	-0.2045012
107	0x3d291d7a	0.041287877
108	0xbd09a91f	-0.033608552
109	0x3e06d7c7	0.1316825
110	0x3db52af9	0.08846087
111	0x3cd42044	0.025894292
112	0x3d039987	0.032128837
113	0xbde3904a	-0.11111505
114	0xbd52ae4f	-0.051435765
115	0xbcea046a	-0.028566558
116	0xbdf567f6	-0.119827196
117	0xbe20932a	-0.15681139
118	0x3e8b23b0	0.27175665
119	0xbd239460	-0.039936423
120	0xbceea4a0	-0.029131234
121	0xbd2acb96	-0.04169806
122	0xbe12f6b2	-0.1435192
123	0xbe49bd04	-0.1970101
124	0xbe32e9e3	-0.17472033
125	0xbc03f9e2	-0.008055182
126	0x3e6fd234	0.2342003
127	0xbe351f68	-0.17687762
128	0xbe780fb3	-0.24224739
129	0x3dd869dc	0.10567066
130	0xbd1de675	-0.03854986
131	0xbe2f2460	-0.1710372
132	0x3d1c0b66	0.038096808
133	0xbcbd8e89	-0.023139255
134	0xbd662719	-0.05618963
135	0x3d5898f0	0.052880228
136	0xbdd9dfef	-0.10638415
137	0xbe1d731b	-0.1537594
138	0xbdf347b0	-0.11878908
139	0x3c374ac6	0.011187261
140	0xbe4d5b4d	-0.2005436
141	0xbe20c299	-0.15699233
142	0xbe67a1d7	-0.22620331
143	0xbe522275	-0.20520957
144	0xbe328f7d	-0.17437549
145	0x3e217746	0.15768155
146	0xbe7ec560	-0.2487998
147	0xbe5619c6	-0.2090827
148	0x3dce5604	0.10075
149	0xbe932110	-0.28736162
150	0xbe098b79	-0.13432111
151	0x3d864997	0.06557005
152	0x3e968233	0.2939621
153	0xbea93a93	-0.330525
154	0x3dd36223	0.103214525
155	0xbdde73b0	-0.108619094
156	0x3e13764d	0.14400597
157	0x3d4d257c	0.050084576
158	0x3e5c6ac3	0.21525101
159	0x3e2b7cc1	0.16746809
160	0x3dc6228e	0.096745595
161	0xbdf421f9	-0.11920542
162	0x3e6c5bcc	0.23081893
163	0x3e73b024	0.23797661
164	0x3d933fd8	0.071899116
165	0x3be2a904	0.006917121
166	0xbd26a797	-0.04068717
167	0x3da23077	0.079194
168	0xbe817611	-0.2528539
169	0xbe9ee8fd	-0.3103713
170	0xbe6da5ca	-0.23207775
171	0x3c710eed	0.014713031
172	0x3e24fc7b	0.16111939
173	0xbea844c6	-0.3286497
174	0xbdfa2ce9	-0.12215597
175	0xbe07d34c	-0.13264197
176	0xbdd053c2	-0.101722255
177	0x3c762aa8	0.0150248185
178	0xbcad5225	-0.021157334
179	0xbdd82351	-0.10553611
180	0xbd885c04	-0.066581756
181	0x3e544a83	0.20731549
182	0x3e8613ac	0.26186883
183	0xbdddd7b2	-0.10832156
184	0xbea80548	-0.3281653
185	0x3d920b6d	0.071310855
186	0xbe28bb6d	-0.16477747
187	0x3e17b0a7	0.14813481
188	0xbdba9c45	-0.09111837
189	0xbd16dd6a	-0.03683225
190	0xbe8097b2	-0.25115734
191	0xbd9bd642	-0.07609226
192	0x3eaa00c8	0.3320372
193	0x3eb2ec41	0.34945872
194	0xbdef7bc1	-0.11693526
195	0xbe193730	-0.14962459
196	0xbcc37fc3	-0.023864632
197	0x3d3e17ef	0.046409544
198	0xbd438567	-0.047734644
199	0xbe32fc85	-0.17479141
200	0xbe88c378	-0.2671163
201	0xbe164122	-0.14673284
202	0xbbad61bd	-0.0052911923
203	0x3eaa8e63	0.33311757
204	0x3cfd00dc	0.030884199
205	0x3e8cdb24	0.2751094
206	0x3ca94dff	0.020667074
207	0x3b84bb87	0.0040506753
208	0xbe6b6ad7	-0.22989975
209	0x3db0dc5d	0.08635781
210	0x3dce2f76	0.10067646
211	0x3da868ed	0.08223138
212	0xbe9df973	-0.30854377
213	0x3dd899c9	0.10576207
214	0xbd6f7bb3	-0.05846758
215	0xbe0ae4ed	-0.13563891
216	0x3e0c8723	0.13723426
217	0x3e8d73ce	0.27627414
218	0x3c308e1e	0.010776071
219	0xbdd5e38c	-0.10443792
220	0x3d67010d	0.056397486
221	0xbe338b17	-0.17533527
222	0xbebf0b64	-0.37313378
223	0xbe844935	-0.25837103
224	0xbdfcb888	-0.12339884
225	0x3e087150	0.13324475
226	0xbe22e0e6	-0.15906104
227	0xbd171be8	-0.036891848
228	0xbd570f3c	-0.052504763
229	0x3d9b07bd	0.07569835
230	0x3e2cd681	0.16878702
231	0xbe0b7a90	-0.13620973
232	0x3e98f16d	0.29871693
233	0x3eaf36f5	0.34221616
234	0x3e0313c1	0.12800504
235	0x3e0417b0	0.12899661
236	0x3dabc57e	0.08387278
237	0x3d7393d6	0.05946716
238	0xbe82d0c6	-0.25549906
239	0xbdb6d10d	-0.08926592
240	0xbcb3d533	-0.021952247
241	0x3ed1a27a	0.40944272
242	0xbe44cbb0	-0.19218326
243	0x3e9be4e9	0.30448082
244	0x3e9981d5	0.29981866
245	0xbe1275c4	-0.14302737
246	0xbd1feb9a	-0.039043047
247	0x3c061977	0.008184782
248	0xbe858b77	-0.26082966
249	0xbe1b35e7	-0.15157281
250	0x3e510b20	0.204144
251	0xbea11c9f	-0.3146715
252	0xbe5347f1	-0.20632912
253	0x3c3013e7	0.010746933
254	0x3d94f7f8	0.07273859
255	0xbd2fc21e	-0.042909734

rnn/tf_lite_lstm_cell/cell_to_input_w f4 [64, 64]
0	0x3d3fe55c	0.046849594
1	0x3e2e19b8	0.17001998
2	0x3e03f169	0.1288506
3	0xbbc7caec	-0.006097188
4	0xbc8d6d41	-0.01726401
5	0xbdc24cdb	-0.09487315
6	0x3d92f93f	0.07176446
7	0x3d67dfb7	0.056609835
8	0x3d37bfae	0.044860534
9	0xbd9f06a2	-0.07764937
10	0xbe97e4bb	-0.29666695
11	0x3e246025	0.16052301
12	0x3c26219f	0.010139852
13	0xbdc01b3f	-0.09380197
14	0xbe7d6845	-0.24746807
15	0xbd12c56e	-0.035832815
16	0x3e207960	0.15671301
17	0x3e4b4b62	0.19852975
18	0x3e56af9b	0.20965426
19	0x3e28dfcc	0.16491622
20	0x3e9cea34	0.30647433
21	0xbe2cdeb8	-0.16881835
22	0x3e155dd8	0.1458658
23	0x3e490edc	0.19634575
24	0xbe9f2e5d	-0.3109006
25	0x3d5ba975	0.053628404
26	0xbd154140	-0.03643918
27	0x3de4a1cf	0.11163675
28	0x3d4993c4	0.049213186
29	0xbe26a60b	-0.16274278
30	0xbea0615f	-0.31324288
31	0xbeb9cad7	-0.36287567
32	0xbe6d9e5a	-0.23204938
33	0xbe8eead2	-0.2791353
34	0xbe110cc8	-0.14165032
35	0xbe52a548	-0.20570862
36	0x3d0f5e88	0.03500226
37	0xbe67734c	-0.22602576
38	0x3dfc11a9	0.12308056
39	0xbe6ceebd	-0.23137946
40	0x3e88998d	0.2667965
41	0xbe725b21	-0.23667575
42	0x3cd4ffd1	0.026000889
43	0x3e0b58da	0.13608113
44	0x3c70965f	0.014684289
45	0x3dba6ac3	0.091023944
46	0x3a90bc58	0.0011042459
47	0x3cd88c75	0.026434163
48	0x3d79a714	0.060950354
49	0xbe1b692f	-0.15176843
50	0x3e8db183	0.27674493
51	0xbe1a8adf	-0.15092038
52	0x3d562049	0.052276883
53	0x3db77691	0.089581616
54	0xbd97861c	-0.07398626
55	0x3e0507c9	0.12991251
56	0xbe66010e	-0.2246134
57	0x3cd266e0	0.02568382
58	0x3cca5406	0.024698269
59	0x3d69ee1d	0.05711185
60	0xbe356c69	-0.17717136
61	0x3e809294	0.2511183
62	0x3da9bbfb	0.082878076
63	0xbe57e41e	-0.21083114
64	0x3e3c7e72	0.1840761
65	0x3e93d56a	0.2887376
66	0xbe93fb4d	-0.28902665
67	0xbc68e0e0	-0.014213771
68	0xbe88c5e2	-0.26713473
69	0x3cc1ac9a	0.023641873
70	0xbe8861e0	-0.26637173
71	0x3de094d1	0.109658845
72	0xbda2accc	-0.07943115
73	0xbd93420d	-0.071903326
74	0xbd05adeb	-0.032636564
75	0xbe5667c0	-0.20938015
76	0xbbb52fc6	-0.0055293767
77	0xbd991039	-0.07473797
78	0x3c033a91	0.008009569
79	0x3e60c5e1	0.21950485
80	0xbcc957f6	-0.024578076
81	0x3d157ddf	0.036496993
82	0x3e1164c2	0.14198592
83	0x3e173935	0.14767917
84	0x3e26fd87	0.1630765
85	0x3e2c4647	0.16823684
86	0x3de06d39	0.109583326
87	0xbe0e1831	-0.13876416
88	0xbe9711e2	-0.2950583
89	0x3e46b2a4	0.19404083
90	0xbe1e8c6d	-0.15483256
91	0xbe1b54ab	-0.15169017
92	0xbe7d5a3f	-0.24741457
93	0x3e918f7d	0.28429785
94	0x3e599961	0.21249916
95	0xbd560f3d	-0.052260626
96	0xbe02310d	-0.12714024
97	0x3cca6971	0.024708482
98	0x3dbd91b1	0.09256304
99	0x3e08f122	0.13373235
100	0xbe0e48be	-0.13894936
101	0x3e6a3ee7	0.22875558
102	0x3de3f7ab	0.11131223
103	0x3d948673	0.07252207
104	0x3e9eec60	0.31039715
105	0x3e11386d	0.14181681
106	0xbd1add69	-0.03780881
107	0xbd0d34a4	-0.03447403
108	0xbe18da8a	-0.14927116
109	0x3e1c2fc7	0.152526
110	0xbaa6399d	-0.0012681965
111	0x3d9f6795	0.077834286
112	0xbd85a503	-0.06525614
113	0x3ea6a9b9	0.32551363
114	0x3e07da72	0.13266924
115	0xbe66fe7f	-0.2255802
116	0xbe4acd9a	-0.19804993
117	0xbdf58de7	-0.11989956
118	0xbe328f6a	-0.1743752
119	0x3e26a3f8	0.16273487
120	0x3e886a33	0.26643524
121	0x3dc5001d	0.09619162
122	0xbe8703cd	-0.26370087
123	0xbe8e84e5	-0.27835765
124	0x3e76b30f	0.24091743
125	0x3e6065b2	0.21913794
126	0x3e07ecbd	0.13273902
127	0xbcc1f986	-0.023678552
128	0x3e1e348b	0.15449731
129	0x3e8f4a43	0.27986345
130	0xbf4a3106	-0.78981054
131	0xbe56ec2d	-0.20988531
132	0x3e24d797	0.16097866
133	0x3e1f4e77	0.15557276
134	0x3e242ec2	0.16033462
135	0x3dfa2171	0.1221341
136	0x3c4f1996	0.0126403775
137	0xbe589230	-0.21149516
138	0x3e44e714	0.19228774
139	0xbe632119	-0.22180595
140	0x3e8b880f	0.27252242
141	0x3e198d1d	0.14995237
142	0x3e2132d3	0.15742044
143	0x3de372d0	0.11105883
144	0xbde0989c	-0.10966608
145	0xbe640b6f	-0.22269987
146	0xbd32f968	-0.043694884
147	0x3cc23964	0.023709007
148	0xbdb7bdb7	-0.08971732
149	0xbda29a33	-0.079395674
150	0x3d8736ad	0.066022255
151	0x3e33cfb3	0.175597
152	0x3c4941b8	0.012283735
153	0xbc0cec42	-0.00860125
154	0x3e6fd5e7	0.23421441
155	0x3da031fd	0.078220345
156	0xbe2c5040	-0.16827488
157	0xbe7a2237	-0.24427114
158	0x3e3e3d70	0.18578124
159	0x3d6a497d	0.05719899
160	0x3e6c2580	0.2306118
161	0xbcffe0ae	-0.031235065
162	0xbeb2d00f	-0.3492436
163	0xbe8539ce	-0.26020664
164	0xbe8317f0	-0.256042
165	0xbe7eb497	-0.24873577
166	0x3cc010c1	0.023445489
167	0xbe0e1918	-0.1387676
168	0xbd5e7fdf	-0.054321166
169	0xbd4899ab	-0.048974674
170	0x3e7a8a7b	0.24466889
171	0x3ca8d716	0.020610373
172	0x3e436119	0.19080009
173	0xbd8c14b5	-0.06839887
174	0xbedb3884	-0.42816556
175	0xbe80312c	-0.25037515
176	0x3db881b1	0.09009112
177	0x3e1ae4dc	0.15126365
178	0x3e1fe7e2	0.156158
179	0xbbc21a9e	-0.005923583
180	0x3e35ba4a	0.17746845
181	0xbd8ae9b5	-0.06782857
182	0x3d586d08	0.052838355
183	0x3c18b9b7	0.009321622
184	0x3db7777e	0.08958338
185	0x3cb9e496	0.022692006
186	0xbe8d755b	-0.27628598
187	0xbea8422b	-0.32862982
188	0x3e6aa256	0.22913489
189	0xbe0969e3	-0.13419299
190	0x3e5fb4dd	0.21846338
191	0x3e5ce216	0.2157062
192	0xbdb0cf1f	-0.08633255
193	0xbde112d2	-0.10989918
194	0xbe3eec68	-0.1864487
195	0x3e680f74	0.22662145
196	0xbd5f67e0	-0.054542422
197	0x3cf65e7f	0.030074356
198	0x3d409080	0.047012806
199	0x3caee77e	0.021350618
200	0xbda3bfed	-0.07995591
201	0xbe68fa3a	-0.22751704
202	0x3ccc6235	0.024949173
203	0x3c862f47	0.016379965
204	0x3d79dbed	0.061000753
205	0x3e91e7b3	0.28497085
206	0xbd14dedd	-0.03634535
207	0xbdf90b4b	-0.12160357
208	0x3d7391db	0.05946527
209	0x3e66024a	0.2246181
210	0x3d8d940a	0.06913002
211	0xbe1d3768	-0.15353167
212	0x3d302227	0.04300132
213	0xbd98f0b7	-0.07467788
214	0x3e87645a	0.2644375
215	0xbe03cf3f	-0.12872027
216	0xbe28aeb4	-0.16472894
217	0x3e4846e5	0.19558294
218	0xbe31d10b	-0.173649
219	0x3e8ae852	0.2713037
220	0xbe696407	-0.22792064
221	0xbebf8554	-0.3740641
222	0x3dbda4bf	0.092599384
223	0x3e0e6174	0.13904363
224	0x3e94916a	0.29017192
225	0xbdee9d05	-0.11651043
226	0x3d2564ce	0.040379338
227	0x3e197422	0.14985707
228	0x3d965937	0.07341235
229	0xbe2a8a2e	-0.16654274
230	0xbd12d5e8	-0.03584853
231	0xbdbde430	-0.09272039
232	0x3db99ef8	0.09063524
233	0xbc18779d	-0.009305862
234	0x3e4a1357	0.1973394
235	0x3e3781d5	0.1792062
236	0x3bab4cda	0.0052276673
237	0x3bcd748d	0.0062699975
238	0xbd13c70b	-0.036078494
239	0x3e56a018	0.20959508
240	0x3e6b6285	0.22986801
241	0xbcd3ea3f	-0.025868533
242	0x3efc0883	0.49225244
243	0x3e37d2b2	0.17951468
244	0x3ebe2dcf	0.37144324
245	0x3ea3bce3	0.31980047
246	0xbe43422d	-0.19068213
247	0xbe11bdfc	-0.1423263
248	0xbdc954cd	-0.098306276
249	0x3dbeb8a3	0.093125604
250	0x3e1a52e9	0.1507069
251	0xbe621ebc	-0.22082037
252	0x3d59c958	0.053170532
253	0xbdd9ad5b	-0.10628768
254	0x3d04190f	0.03225046
255	0x3df25b20	0.11833787
