app/src/main/assets/classifier_102.tflite (tflite, 470848 bytes, 30 tensors)

conv1d/conv1d/ExpandDims_1 f4 [64, 1, 5, 40]
000000 e5 21 2f 3e 7c c5 60 3e 03 e5 08 3e bc 2a 37 3e
       0.17102773 0.21950334 0.13368611 0.17887396
000010 a4 02 74 bc 03 71 ad be 2f 4f 30 be 6e 86 0a 3f
       -0.014893208 -0.33875284 -0.17217706 0.54111373
000020 1c ef 05 be 77 0c f2 bd eb e9 d5 3d 16 5e 28 bd
       -0.13079494 -0.11818784 0.10445007 -0.041105352
000030 f7 5d 91 be b1 88 2b 3d e1 67 b3 3e f4 ac 99 bd
       -0.28392002 0.041878406 0.3504019 -0.07503691
000040 3f b8 39 3e 91 f3 d4 bd 13 3b de 3c 1e e8 88 bd
       0.1813669 -0.10398019 0.027127778 -0.06684898
000050 0b 90 84 be 87 ab e7 bd 20 a8 bc bd 4c 51 a8 3d
       -0.25891146 -0.11312013 -0.09211755 0.08218631
000060 ac a8 d5 bd 07 24 89 bc 55 a5 90 3c d7 3d 2c be
       -0.10432562 -0.016740812 0.017656961 -0.16820465
000070 e4 50 68 be 8e ca 19 be 36 3b bc bb bf 35 a2 3d
       -0.22687107 -0.15018675 -0.005744363 0.079204075
000080 34 ea 93 3d 9a d3 86 be 6c 41 d5 3d d5 ea 1f be
       0.07222405 -0.26333314 0.10412869 -0.15616925
000090 77 41 16 3d 92 68 3c 3e e3 44 36 3d ab 11 0b bf
       0.036683526 0.18399265 0.04449929 -0.54323834
0000a0 81 07 81 bb c3 90 c5 bc e1 5c bd bd a8 df 73 3e
       -0.003937662 -0.02411688 -0.09246231 0.23815787
0000b0 c7 f3 23 3e 3c 3f da be 68 d0 63 be 75 94 ca 3e
       0.16010962 -0.4262637 -0.2224747 0.3956639
0000c0 9c 59 4e be a4 94 ee bd 8c b8 22 3d 65 40 17 bc
       -0.20151371 -0.11649445 0.03972678 -0.009231661
0000d0 dc 79 db be 05 e5 47 3e 03 6f 9c 3d b3 19 50 be
       -0.4286641 0.19520958 0.07638361 -0.20322303
0000e0 e5 c4 1b bd a2 a9 69 3d 3f 16 34 be d1 33 75 be
       -0.03802957 0.05704654 -0.17586611 -0.23945548
0000f0 b6 5a 88 bd 52 f2 e3 bc a9 f2 10 bd 8e fe 09 3e
       -0.06657927 -0.027825508 -0.03538767 0.13476011
000100 2d 24 9c 3c 12 31 07 be 4c d5 25 be 50 98 65 be
       0.019060219 -0.13202313 -0.16194648 -0.22421384
000110 d6 92 44 be 89 dd a5 be eb 4d 59 bd 6f cc cc bd
       -0.19196638 -0.3239558 -0.053052824 -0.0999993
000120 ee 91 01 be 16 23 d7 bd 2e 2a 95 3c ca ad 52 3c
       -0.12653324 -0.10504739 0.01820859 0.012858817
000130 c2 ed c8 bc ce 4a 9f 3d 8f e0 05 3e 65 4a ff be
       -0.024527434 0.0777794 0.13073944 -0.49861446
000140 f0 97 ed bd 67 ca 2f 3c 5b 50 57 3e 37 e0 99 bd
       -0.116012454 0.010729409 0.21026747 -0.07513469
000150 47 ee 33 3e 6b 47 db bd d6 ad 66 be 50 df f8 3e
       0.17571364 -0.10706981 -0.2252725 0.48607874
000160 35 a4 e1 bd 23 2d 7e be 4b 9f 00 3e 85 83 b5 bd
       -0.11017648 -0.24821906 0.12560765 -0.08862976
000170 ac 44 37 be d4 5c 0d 3e 7e 6c 58 3e 1f d5 5b be
       -0.1789729 0.13804942 0.21135136 -0.21468018
000180 04 06 4a 3e 6c c8 be 3d 19 a8 4e be 02 7b d7 3b
       0.19728857 0.09315571 -0.20181312 0.006575943
000190 46 69 24 bd f7 73 55 3d 1d 77 ef bd 1f 4a b4 bd
       -0.04013946 0.052112546 -0.11692641 -0.088032
0001a0 a3 e6 47 be 48 1c 09 be c3 84 93 bd c2 22 b0 bd
       -0.19521575 -0.13389695 -0.07203057 -0.086003795
0001b0 6c 98 5d be cb 17 92 bb ed d7 87 bd 8a 23 1f 3e
       -0.21640176 -0.0044584027 -0.066329814 0.15540901
0001c0 b3 4d 73 bd 46 28 de bd cd 2b 29 be 06 e8 e5 bd
       -0.05940027 -0.10847525 -0.16520615 -0.112258956
0001d0 8f 95 11 bd d2 6b c4 3d bc 81 ae 3d 4f 90 e4 be
       -0.03554302 0.095908776 0.085208386 -0.4464135
0001e0 42 9b f5 3c 0c 53 42 bd f0 c5 19 be f7 38 6f 3d
       0.02998126 -0.04744248 -0.15016913 0.058403935
0001f0 c8 5f ac bc 31 18 5c be de 3b 45 be fe f2 ee 3e
       -0.021041766 -0.21493603 -0.19261119 0.46669763
000200 e2 85 9a bd 9e bb 5f be 48 90 71 bd 9e 3d ff bd
       -0.07545067 -0.21848914 -0.058975488 -0.124629244
000210 01 37 8f be 89 47 29 3e 50 ef 56 3d d9 ed f3 bd
       -0.27971652 0.16531195 0.05247432 -0.119106
000220 42 ea 2b 3e e8 21 02 be f3 61 2c be dc d4 a4 bd
       0.16788581 -0.12708247 -0.1683424 -0.08048412
000230 e9 72 d7 3b 38 19 9c bd a3 de 08 be 18 d9 54 bd
       0.0065749777 -0.076219976 -0.13366179 -0.05196485
000240 d1 a8 e0 bd 88 f1 3e be 4d 99 5c be 63 b8 ba bc
       -0.10969699 -0.18646824 -0.21542855 -0.022793
000250 cb 56 e3 bd 88 01 46 bd 8e 58 8d bc 44 2c a8 3d
       -0.11100539 -0.048341304 -0.01725414 0.08211568
000260 83 e3 96 be 86 54 83 be 98 c1 2b be 59 13 2e 3c
       -0.29470453 -0.25650424 -0.16773069 0.01062473
000270 4f 99 f9 3d 02 b1 f7 3d 0b fb 52 3e 26 37 22 bf
       0.121874444 0.120943084 0.20603578 -0.633654
000280 41 2e e7 bd 44 02 49 3e ca 2e 17 bd ef df 26 3e
       -0.11288119 0.1962977 -0.036909856 0.16296361
000290 84 d4 a2 bd 98 58 40 bd df f8 91 be b0 90 17 3f
       -0.079506904 -0.04695949 -0.28510186 0.5920515
0002a0 39 36 0c be 67 79 b3 3d 6f 29 70 3d 98 84 24 bd
       -0.1369256 0.0876339 0.058633264 -0.040165514
0002b0 b3 d1 8b be 9a 73 94 3e f3 d0 dd bb cf 86 0c bd
       -0.27308425 0.28994447 -0.0067692935 -0.03430825
0002c0 54 98 9d 3c 1d 13 16 be 91 3d 48 be c4 f6 9e 3d
       0.019237675 -0.14655729 -0.19554736 0.077619106
0002d0 02 66 47 be 84 07 b1 3c 53 14 2b be cf 2c 38 3e
       -0.19472507 0.021610029 -0.16706972 0.17985843
0002e0 d7 40 5e 3a 8d 7c c3 bb 22 fe 1b be 5c 0f ed bd
       0.000847829 -0.0059657753 -0.15233663 -0.11575195
0002f0 1a 9f 85 3d 18 4b 50 3d c6 a1 fe bd f1 72 81 3c
       0.06524487 0.050852865 -0.124331996 0.015801879
000300 35 1f 8d be 07 2a 0d be cb a1 08 3e 32 69 60 be
       -0.27562872 -0.13785563 0.13342969 -0.21915129
000310 0f 51 09 3b af 51 aa bd d5 fa 06 3e 27 f8 f5 be
       0.0020952856 -0.08316361 0.13181622 -0.48040888
000320 16 22 8c bd 29 31 e8 bd b4 65 2e 3e c0 3b 1d 3e
       -0.06842439 -0.113375016 0.17030984 0.15354824
000330 ae 77 1f 3e 45 09 28 3d a7 fb 94 bb 91 51 93 bc
       0.15572998 0.041024465 -0.004546601 -0.01798323
000340 63 3c fe 3c ed 46 99 3b 95 67 6e ba af 95 7b bd
       0.031034654 0.0046776445 -0.00090944144 -0.061422046
000350 aa d0 c6 be 18 11 ea bd 1b bb 90 be 7f 04 82 bc
       -0.38831073 -0.114290416 -0.2826775 -0.015871285
000360 71 29 5f be f0 47 ee 3a 06 70 9a be b4 9d cd bc
       -0.21793152 0.0018179398 -0.30163592 -0.025099613
000370 15 b0 43 bd 92 3d 32 3e f0 4d bb bd bc 4f 09 3e
       -0.047775347 0.174063 -0.09145725 0.13409323
000380 68 35 85 bc f2 1c f5 3b b2 67 22 be e0 ca 08 3e
       -0.016260818 0.007480257 -0.15859869 0.1335864
000390 f2 97 cd bd d2 18 de 3d 71 65 15 be c1 6d 82 3e
       -0.10038747 0.10844578 -0.14589478 0.2547436
0003a0 f8 27 a6 3d 45 d1 42 bd 81 8e 45 be 3f ca 1e 3e
       0.08113092 -0.047562856 -0.19292642 0.15506838
0003b0 56 90 af bd 08 70 e5 bc 8e e3 df bd 55 18 d5 bd
       -0.08572452 -0.028007522 -0.109320745 -0.104050316
0003c0 06 4b f6 3d 61 bc 13 3e 27 c7 00 be 41 1d aa bd
       0.12026028 0.1442733 -0.1257597 -0.08306361
0003d0 2c ec 40 bd 6a 35 05 3e a2 c7 0f 3e f5 55 3f 3e
       -0.04710023 0.13008657 0.14040998 0.18685134
0003e0 a6 ea 38 be cd 81 8f bd 58 51 60 3c 5c 58 b5 bd
       -0.18058261 -0.070071794 0.013691269 -0.08854744
0003f0 6f 09 a6 be 1c ca 80 bd 00 55 24 be 1c f3 b7 bd
       -0.32429072 -0.06288549 -0.1604805 -0.08981916

conv1d/conv1d_bias f4 [64]
000000 b5 fa 2b bd 3c 63 95 bd 18 8e ea bd 0b d8 71 bc
       -0.04198714 -0.07294318 -0.114528835 -0.014760981
000010 08 14 ed bc 8b ad c0 3d ee 22 a7 bd 95 cf 52 bc
       -0.028940216 0.09408101 -0.08160959 -0.012866874
000020 59 c9 28 bd 34 b3 77 bd 1b a1 50 3c 28 7c 09 bc
       -0.041207645 -0.060473636 0.012733723 -0.008391418
000030 f7 b0 ea bd 13 64 7b bd 4e de 8e 3c e9 f4 69 bc
       -0.114595346 -0.061374735 0.017439988 -0.014279583
000040 c7 3c 0a be 79 f2 0c 3d 1b 13 4b bc 30 f1 25 bd
       -0.13499747 0.034410927 -0.012394692 -0.040513217
000050 04 f2 07 be d8 a8 e8 bb 47 f5 79 bd 48 7a 57 3d
       -0.13275915 -0.007100206 -0.06102493 0.05260685
000060 72 94 ca bd a7 30 9f 3c b5 42 5c bd a7 9a e4 bc
       -0.09891595 0.019432379 -0.053774554 -0.027905775
000070 37 89 e4 bd 68 4f c5 bd 05 4d ef 3c 12 0d a0 bd
       -0.11158984 -0.09634286 0.02921153 -0.07814993
000080 31 8a 02 be ed c2 b8 bd ce 53 e3 bd de 35 28 bd
       -0.12748028 -0.09021554 -0.11099969 -0.041066997
000090 8b 2f 20 bd f9 8b 14 be 90 78 00 be 94 0d 8b 3d
       -0.03910784 -0.1450652 -0.12545991 0.06789699
0000a0 14 09 08 bd 20 aa 14 3d f7 ea 0f bd 5d ee 10 be
       -0.033211783 0.036295056 -0.03513619 -0.14153428
0000b0 3b 1d 8d 3c a2 f5 65 bc 2f 74 6c bd c9 e9 20 be
       0.017225852 -0.014035614 -0.05772799 -0.15714182
0000c0 71 fc bb bd ea 40 43 bd d2 9a 14 bc 1c e9 ee bb
       -0.09179009 -0.04766933 -0.009070115 -0.0072909724
0000d0 f4 ac 45 bd 56 a0 9e bd d3 71 e9 bd 36 1b 98 bc
       -0.048260644 -0.077454254 -0.11398663 -0.018567663
0000e0 71 56 0d be d0 3b ca bd 71 80 11 bd 8d 53 d3 3c
       -0.13802506 -0.098746896 -0.035522882 0.025796676
0000f0 50 e6 18 bd 5f af 8d bc 2d 01 49 3d a4 90 be 3d
       -0.037329018 -0.017295538 0.049073387 0.09304932

conv1d_1/conv1d/ExpandDims_1 f4 [128, 1, 5, 64]
000000 74 16 e7 3d c1 6f 59 be d0 70 00 bd b5 60 3d 3e
       0.112835795 -0.21234037 -0.031357586 0.18493922
000010 79 85 e6 bc 67 d7 aa 3d 94 6b 3d bd cd e0 2e 3d
       -0.028139817 0.08341866 -0.046245173 0.042694855
000020 d2 43 2e 3d c7 dd 58 bd f9 c5 f2 bc 44 26 f0 3d
       0.042545147 -0.05294588 -0.029635416 0.117260486
000030 64 6d 9a bd 86 49 40 3e d1 bf e0 3d 1c fa 79 be
       -0.07540396 0.18778047 0.10974086 -0.24411815
000040 62 f9 dd bc 00 dc 9c bd c7 62 0d bd d8 95 b8 bb
       -0.027096454 -0.07659149 -0.03451803 -0.005633097
000050 4a 23 34 be a6 62 da 3d bc 5c 4c bd ad f0 e1 bd
       -0.17591587 0.10663347 -0.049893126 -0.110322334
000060 38 a1 26 3d 07 d1 73 3d 20 63 b3 bc db 59 85 3d
       0.040681094 0.059525516 -0.021897852 0.06511279
000070 c4 17 0a bd 4e bc 32 be 55 17 ae 3d 81 d6 32 be
       -0.03371407 -0.17454645 0.08500544 -0.17464639
000080 b9 71 93 be 47 7f d8 3d 92 17 10 be 50 ea 02 be
       -0.287977 0.10571151 -0.14071491 -0.12784696
000090 39 3a 47 3d 8e b0 3e bd 92 57 3e be 4e 95 21 bd
       0.04863951 -0.046555094 -0.18588093 -0.03944903
0000a0 2f ef 2f 3e b5 4f 79 bd a8 65 76 3e 46 81 e0 bd
       0.17181085 -0.06086703 0.24062216 -0.10962157
0000b0 25 b9 5e 3e d5 39 12 be 2d 54 23 be f3 e0 29 3e
       0.21750315 -0.14279874 -0.1595008 0.16589718
0000c0 3a b3 3d be d9 04 d3 3d aa 5c 3a be 05 24 90 bc
       -0.18525401 0.10303659 -0.18199411 -0.0175953
0000d0 31 c7 8c bd e4 09 aa bd 60 0e 38 3c f4 bb 2e bd
       -0.0687393 -0.08302668 0.011233896 -0.042659715
0000e0 80 d6 5f be 3f ec 40 3e 37 fb 86 3c 03 58 1f be
       -0.21859169 0.1884012 0.01647721 -0.15560918
0000f0 e2 46 61 3d 10 5c 4f be 1b 38 b1 be a1 65 21 be
       0.05499924 -0.20249963 -0.34613118 -0.15761425
000100 b4 23 39 3e d2 48 b4 bd 19 09 19 3d 95 ce 90 3d
       0.18080026 -0.08802952 0.03736219 0.070706524
000110 3e e5 5c 3d c8 d6 19 3c 88 d8 80 3d d1 74 97 3e
       0.05392956 0.009389587 0.062913 0.2958131
000120 6f 4a 27 3e 26 d3 a0 3c 4a 7d 38 bc 60 90 15 3e
       0.16336988 0.019631933 -0.01126034 0.14605856
000130 ea 70 a6 3d 52 36 5d 3e 94 2e 93 bd 4d 5d 17 be
       0.081270054 0.21602753 -0.071866184 -0.14781685
000140 83 01 f9 bd fb 10 fb bc e5 3b 04 3e d3 9e 0d 3c
       -0.121584915 -0.030647745 0.12913473 0.008643824
000150 33 34 dc bd a1 75 be bd 22 e9 ff bc 3b 03 91 3d
       -0.10752144 -0.0929978 -0.031239096 0.07080694
000160 a3 dc 57 3c 82 cb 05 3b c2 88 04 3c 46 88 9b 3d
       0.0131751625 0.002041549 0.008089246 0.075943515
000170 00 f6 0b 3d 00 65 15 3c 8c 96 d0 bd a7 16 b6 be
       0.03417015 0.009118319 -0.101849645 -0.35564157
000180 04 61 34 be 36 bd c2 bc 2f c5 5b bd c3 91 47 bd
       -0.17615134 -0.023771863 -0.053654846 -0.048722994
000190 6f 91 f1 bc 34 18 8b bd 56 ab 30 3d f3 25 f8 3b
       -0.029488293 -0.06791726 0.04313215 0.0075728833
0001a0 39 1f 77 bb 01 f8 66 3e 3f ef 42 3e ce af 40 bc
       -0.003770782 0.22555543 0.19036578 -0.011760665
0001b0 4c 0e b5 3e 84 59 8d be de 3b 76 3d d8 cc 87 3e
       0.3536247 -0.27607358 0.060115688 0.2652347
0001c0 ef dc 21 be 05 c4 60 bd 50 3f b2 bd 6b 2b 1f 3c
       -0.15806936 -0.05487444 -0.08703482 0.0097149415
0001d0 6e 05 ef 3d a9 e1 36 3d 05 63 91 bd 65 cf 05 be
       0.116709575 0.0446488 -0.070989646 -0.13067396
0001e0 43 61 ad bd c3 ae 3f 3d 51 6a 87 3d 52 44 f0 b8
       -0.08465817 0.046797525 0.06612075 -0.000114568174
0001f0 ab 2e fb bc ca e3 06 be 3c d5 49 be 94 86 73 be
       -0.030661901 -0.13172832 -0.19710249 -0.23781806
000200 c9 5d f7 3c 7f e2 c2 bc bf cb a4 3d 7a 38 5e 3d
       0.030196087 -0.023789642 0.08046674 0.05425308
000210 51 e6 22 3e d3 70 fe 3c 5b fe 9d be 87 3b b8 3d
       0.15908171 0.031059658 -0.3085812 0.08995729
000220 91 67 b9 3d 83 9b 97 39 5a 7b 29 3e ef d6 63 bd
       0.09052957 0.0002891683 0.16550961 -0.0556249
000230 1d 6a ec bc 5d 42 0e 3d bb 4e 86 3c 06 74 6d bd
       -0.028859193 0.034731258 0.016394963 -0.057971977
000240 d0 46 9a 3d 33 e9 d5 3d 45 ad 92 3d 2b 9f 38 bd
       0.07533038 0.1044487 0.07161955 -0.04507367
000250 c0 56 92 be f8 6a 0a be 42 a1 21 be 7d 92 4c 3e
       -0.2858181 -0.13517368 -0.15784171 0.19977756
000260 3c 37 36 3e 1e cc 4f ba 1c f5 c7 3d 0f d1 a8 bd
       0.17794508 -0.0007926839 0.09763548 -0.08243
000270 8d 0a 05 be ce 58 3f be 62 57 99 3d 0c 83 0f be
       -0.12992306 -0.1868622 0.0748737 -0.14014834
000280 e9 bf 1e be fe d1 59 bd 29 30 71 be 98 ec 50 3e
       -0.15502895 -0.05317878 -0.23553528 0.20402753
000290 f0 fd 17 3e f8 8c f1 bc 4f d9 01 be b4 2f 14 be
       0.14842963 -0.029486164 -0.12680553 -0.14471322
0002a0 fb a5 38 3b 60 c9 24 bc bd 95 63 3e 06 ff 0e 3e
       0.0028175104 -0.010057777 0.2222509 0.13964471
0002b0 f5 68 02 3e 2e 81 7f bd 2a aa 8a bd 91 75 86 3e
       0.1273535 -0.062379055 -0.067707375 0.2626157
0002c0 ff 4a 9f bd 8d e7 cc bd 7f ff f1 bd 62 a4 54 bd
       -0.07777976 -0.10005102 -0.1181631 -0.05191458
0002d0 8d 36 6b 3e 56 3b f7 bc 8a ef c1 3d e9 05 b6 bd
       0.22970028 -0.03017966 0.094695166 -0.08887846
0002e0 4f b7 33 3d 51 0f 39 bd a7 7f 30 3e c7 57 02 3e
       0.04387599 -0.045180622 0.17236196 0.12728797
0002f0 b1 68 91 bc 95 4c 79 be a7 c2 70 be 3a e7 b8 bd
       -0.017750116 -0.2434562 -0.23511754 -0.09028478
000300 9a 8e a2 3c e0 66 91 3d 3c a6 26 be d5 42 e9 bd
       0.019843388 0.070997 -0.16274351 -0.113897
000310 52 19 6b 3d d3 60 26 be a8 72 88 be 25 fe 16 3e
       0.057397194 -0.16247873 -0.26649976 0.14745386
000320 ec bf cd bb b2 5f bc 3d 17 5b 1a be b9 23 3d 3d
       -0.0062789824 0.0919794 -0.1507381 0.046176646
000330 3c 3a a4 bd cf 0c e3 3d 35 3c 56 bd 2f 29 05 3d
       -0.0801892 0.110864274 -0.05230351 0.03250998
000340 93 63 4b 3d 6a 11 6b bd 17 82 70 3c a8 9b 8e 3d
       0.04965551 -0.057389654 0.014679453 0.06963283
000350 a6 ee b2 be 1e ce 4e bd 1e 4d 14 3d f5 48 64 3e
       -0.349477 -0.050489537 0.036206357 0.22293456
000360 f3 09 8f 3d 5d 70 76 3d 67 b8 e3 3d af 29 1d be
       0.069843195 0.06016575 0.11119156 -0.15347932
000370 b9 f6 9a be 45 35 9e 3d 77 02 6b 3c e2 da 2f 3e
       -0.3026636 0.07725004 0.014343849 0.17173341
000380 f2 a6 f7 bd e8 21 7d be 5f 3f 77 be 3b db 21 3e
       -0.12092389 -0.24719965 -0.24145268 0.15806286
000390 f8 7d fd bc ff 55 dc bd 2b 35 77 be 94 78 23 3c
       -0.030943856 -0.1075859 -0.24141376 0.0099774785
0003a0 e1 a9 81 be b8 77 91 3d d4 63 29 be 07 7c 1d 3e
       -0.2532492 0.07102913 -0.16541988 0.15379344
0003b0 f1 01 0e 3b c3 1b 18 be 27 cf 02 3d 42 98 27 bc
       0.0021668638 -0.1485434 0.031935837 -0.010229172
0003c0 f7 3f 85 bd f1 a8 78 be 89 04 f0 bd 16 e2 36 3e
       -0.06506341 -0.24283196 -0.11719615 0.17859682
0003d0 bb 62 14 3e ec 45 16 bd 7e a5 35 3c 69 5f 43 be
       0.14490788 -0.036687776 0.01108682 -0.19079365
0003e0 eb cb 14 3d 2c 57 ae bc 47 75 18 bd f3 cd 4a 3d
       0.036327284 -0.021281801 -0.03722122 0.049512815
0003f0 7d dd 52 3d af 0d 03 3c ac 54 02 be 82 13 af bd
       0.05148076 0.007998868 -0.12727612 -0.08548643

conv1d_1/conv1d_bias f4 [128]
000000 61 86 c2 bd 9d c9 45 bd b5 fe a8 bd 8f 83 3b be
       -0.09498287 -0.048287977 -0.082517065 -0.18311904
000010 af 08 d8 bd 82 32 fe 3d 0c 9a e4 bd 3e c4 23 be
       -0.10548531 0.12411977 -0.111621946 -0.15992829
000020 2b c8 ba 3c 6a 86 72 bd 8e 6b 66 3d e6 6c af bd
       0.022800526 -0.05921022 0.056254916 -0.085656926
000030 2e c5 1b be 46 f4 5b be 50 19 88 bd 92 b0 db bd
       -0.15211937 -0.21479902 -0.06645453 -0.107270375
000040 2a 7b 21 bd 75 ad 77 bd 21 07 4a bd 33 05 de bd
       -0.0394241 -0.060468156 -0.049323205 -0.108408354
000050 b5 29 db bc ae a8 dc bc 00 41 8a 3d cf 36 b9 bd
       -0.026753286 -0.026935901 0.06750679 -0.09043657
000060 85 d9 33 be 45 67 82 bd 80 bd 88 bc 28 6b 10 be
       -0.17563446 -0.06367353 -0.016691923 -0.14103377
000070 5b cd d4 bc 70 33 09 be 90 0c e2 3c 1f d0 01 be
       -0.025976827 -0.13398528 0.02759388 -0.12677048
000080 30 fe 59 be e3 53 dd 3c e3 18 8a 3c 2b 03 2d 3c
       -0.21288371 0.02701754 0.01685757 0.010559837
000090 29 f4 ba bd c9 13 10 be df 5c 4e 3d 62 11 1a bd
       -0.09128601 -0.14070047 0.050381538 -0.037614234
0000a0 15 04 42 bd 43 e1 90 bd 4a 20 d3 3d d2 9a 9c bd
       -0.047367174 -0.07074215 0.10308893 -0.07646717
0000b0 0c c1 ad 3d 89 c2 b5 3d fc 17 14 3b 29 e8 f3 3c
       0.084840864 0.08874995 0.0022597304 0.029773789
0000c0 f9 d1 85 bd 58 11 b8 3d 47 ae 6b 3c 49 76 f9 bb
       -0.0653419 0.08987683 0.014384813 -0.0076129776
0000d0 fa dd 70 be cc 17 5a bd 4e 16 30 be 58 2b 31 be
       -0.23522177 -0.05324535 -0.17196009 -0.1730169
0000e0 85 24 91 3c 36 a4 20 3d 21 82 61 bc 1a 83 ad bd
       0.01771761 0.039219104 -0.013763935 -0.08472271
0000f0 d5 41 f3 bd a0 a8 69 3d 1d 2b 77 3d 50 16 a6 bd
       -0.11877791 0.05704558 0.06034385 -0.081097245
000100 39 7d 23 3d 72 42 88 be fc f5 c0 bc 6e 82 60 3c
       0.039914344 -0.26613194 -0.023554794 0.013702972
000110 d8 96 b6 bd 06 7f 9e bb 1e 20 a3 3a 54 ff e1 bd
       -0.0891549 -0.0048369197 0.0012445485 -0.11035028
000120 34 d8 09 be 8b ec 72 bc 48 52 07 3d bd 3f e8 bc
       -0.13461381 -0.014826904 0.033037454 -0.028350705
000130 a2 0b c2 3d 27 6e c2 bd cd 8e 86 bc 59 18 7c bd
       0.09474875 -0.09493666 -0.016425515 -0.061546657
000140 d6 6e 6f bd 46 c4 93 bd 6b a4 9b bc 51 77 8c be
       -0.05845531 -0.072151706 -0.018999299 -0.2743478
000150 c8 61 3a bc 9d 3a 62 3d 0f 9e 58 be 48 97 78 bc
       -0.011375852 0.05523168 -0.21154045 -0.015172787
000160 e2 48 ca bd f4 ca a1 bc 25 61 dd 39 26 50 29 be
       -0.098771825 -0.019750096 0.00042224783 -0.1653448
000170 43 04 65 be 69 34 6f be ee 2c 1e 3e ac 70 57 bc
       -0.22364907 -0.23359837 0.15446827 -0.013149422
000180 e2 57 4d 3d 03 8b 62 bd 18 b3 a9 bd 70 3f b5 3b
       0.05013264 -0.055308353 -0.082861125 0.005531244
000190 e7 3b 40 bd 86 b8 07 be 49 9f 02 3e e2 0b d0 bd
       -0.046932127 -0.13253984 0.12756075 -0.101585165
0001a0 15 49 24 bd ed 75 d0 bd 4e 47 80 3d 43 d8 15 be
       -0.04010876 -0.101787426 0.062636 -0.14633279
0001b0 c5 e4 b3 3d 6b 9d 70 3d 89 70 c1 3c 65 5c a4 bd
       0.08783869 0.058743875 0.023613231 -0.08025435
0001c0 7f 6f 92 bd 64 00 5f bd eb e6 03 bd d9 2f 02 be
       -0.071501724 -0.054443732 -0.032202642 -0.12713565
0001d0 a8 2e d1 3b d8 da 4f bd a7 f8 48 be 8d 10 b7 bd
       0.0063837357 -0.050745815 -0.19626103 -0.08938704
0001e0 6a f6 38 be 38 09 a5 bd 74 ee 81 3d c8 10 ce bd
       -0.1806275 -0.08058399 0.063443094 -0.100617945
0001f0 3b c7 10 be d0 09 0c 3e eb 13 c1 bd 89 27 70 bd
       -0.141385 0.13675618 -0.09427627 -0.058631454

output/MatMul_bias f4 [5]
000000 39 3d 22 be c9 11 20 bd 58 50 4f 3d 3e 58 00 3c
       -0.15843667 -0.03907946 0.05061373 0.007833539
000010 57 05 da 3d
       0.1064555

output/kernel/transpose f4 [5, 32]
000000 44 5a 19 3f a5 d3 89 3f 1a af d9 bd 67 f1 15 bf
       0.5990336 1.0767714 -0.10629101 -0.58571476
000010 2c f4 63 bc 62 56 0f bf 99 e9 4d 3f a5 7d 28 3f
       -0.013913196 -0.55991185 0.80434567 0.6581672
000020 05 e7 ac be 73 81 03 3f f9 c7 ae 3d c7 e9 a2 be
       -0.33770004 0.513694 0.085342355 -0.31818983
000030 e3 59 37 bf de fc dd 3e 9e 43 3b 3f 2d 36 1f 3f
       -0.7162153 0.43356985 0.7315005 0.6219204
000040 d7 49 11 3f cb 16 3c bf c7 5e 6f bd c0 b5 aa be
       0.56753296 -0.7347228 -0.058439996 -0.3334179
000050 6f f7 21 3f 81 d3 a5 be ab 88 67 3f ff ab ab be
       0.6326818 -0.32387927 0.90442914 -0.3352966
000060 ab 95 00 3f 5a 25 d1 3e e2 0f 86 3d 3a 4e a5 3d
       0.50228375 0.4084881 0.06545998 0.08071561
000070 68 0f 49 3f 0b ee cc be e5 f7 4f 3f ab 00 e6 be
       0.78539133 -0.40025362 0.8123763 -0.44922385
000080 30 5a d1 3e 30 98 4a 3e 05 3a 2e bd 63 4b 00 bf
       0.4088912 0.19784617 -0.0425358 -0.5011503
000090 cc fb d8 3e 93 6e 2f 3f 74 b2 45 be a3 11 02 bf
       0.42379606 0.685281 -0.19306356 -0.5080816
0000a0 1e d2 74 be eb 8e 17 bf 65 17 0b 3f 0c c4 8d 3e
       -0.23908278 -0.5920245 0.5433257 0.27688634
0000b0 e8 dd dd 3e d1 83 ff 3e ef e3 b7 be e9 1b d9 3e
       0.43333364 0.49905255 -0.35916087 0.42404106
0000c0 98 08 08 bb 68 b5 f2 3d 31 f2 02 3f b0 a9 27 3f
       -0.0020757075 0.11851007 0.51150805 0.654933
0000d0 c9 bc b3 3e d3 25 82 3d 54 9a 33 be 8e 29 13 3f
       0.3510497 0.06354871 -0.1753934 0.5748528
0000e0 17 bf 49 3e ed 56 00 bf 7f 2d 52 3e b9 f9 25 bf
       0.19701801 -0.5013264 0.20525168 -0.6483417
0000f0 83 36 b4 3e 1e 4e f7 3e 71 bf 0f 3f 18 c3 11 3d
       0.3519784 0.48301786 0.5615149 0.035586447
000100 ba c8 84 3e 3b 93 ef be cc 9f 06 3e 4f ed a9 3e
       0.25934392 -0.46792015 0.13146895 0.33188865
000110 89 6e 46 be 56 c3 cf 3c 78 5a 9c be 89 08 c1 bd
       -0.19378103 0.025361698 -0.30537772 -0.09425456
000120 c2 10 ba 3c 8b 78 97 3e 31 f1 e6 be 24 1a 38 bc
       0.022713069 0.29584154 -0.4510589 -0.011236701
000130 2c 9d aa be 17 56 0b 3f b7 5b fd 3e e4 15 36 bf
       -0.33323038 0.5442824 0.49484035 -0.7112715
000140 31 56 ea 3d c1 cf 30 3e 8c 0d 13 bf 01 a3 78 be
       0.11442221 0.17266752 -0.57442546 -0.24280931
000150 99 65 fa be 2a 43 f5 3d 1c 54 6a be cf 04 6d 3e
       -0.48905638 0.11975701 -0.22883648 0.23146366
000160 53 c8 2e bf b2 c5 8f 3e e1 be 41 bf b9 d6 d6 be
       -0.6827442 0.28080517 -0.75681883 -0.41960695
000170 68 78 0d bd a3 8f 0d bf 75 33 e1 be be 34 cc 3e
       -0.034538656 -0.552973 -0.4398457 0.3988399
000180 d5 da 45 bf 37 e7 38 be ac 0c 61 bf 81 8f 44 3e
       -0.77287036 -0.18056951 -0.8790996 0.19195367
000190 4c 9c e4 bc 84 4c 47 be 6a c8 e2 bd 29 23 b9 3e
       -0.02790656 -0.19462782 -0.11073382 0.36159638
0001a0 16 a8 cd be 27 e2 81 be a9 c3 f5 be b0 a3 41 bf
       -0.40167302 -0.25367853 -0.4800084 -0.7564039
0001b0 b6 1f 18 3e de 04 0d be b6 5e a7 be 72 49 f7 be
       0.14855847 -0.13771388 -0.32689446 -0.48298222
0001c0 a7 f2 c8 be c7 e3 59 bf 1c 21 db 3e ae 10 a4 3e
       -0.3924763 -0.85113186 0.42798698 0.32043976
0001d0 8d 5a 6b 3e 94 85 c7 3e 4a 7e 37 3f 28 bb 51 bf
       0.22983761 0.389691 0.71677077 -0.819262
0001e0 f3 ac 89 3e 39 06 bf be 8b 20 35 3f b9 d1 24 3f
       0.26889762 -0.37309435 0.7075278 0.6438251
0001f0 e5 91 16 bf 25 94 1b be 20 cf 0c 3f b4 18 8d 3e
       -0.5881637 -0.15193231 0.5500355 0.2755791
000200 4f 83 c7 be 4a ea 8b 3e 56 bd 9d 3e 24 16 14 3f
       -0.38967368 0.27327186 0.30808514 0.57846284
000210 b2 e4 19 3f 32 6d 2c bf 34 3b d4 3e 65 64 31 be
       0.60114586 -0.6735412 0.41451418 -0.17323454
000220 cd fa d9 3e 46 ae f0 3e 3d ab aa 3e fd 8b 4a 3f
       0.42574158 0.4700796 0.3333377 0.79119855
000230 73 7a 07 be c5 ba 9e bf 7c 91 d2 be 14 4a a3 3e
       -0.13230304 -1.2400748 -0.4112662 0.31892455
000240 fb e6 6d bf f1 29 c7 3e 03 ac 14 be 1f 54 be 3e
       -0.92930573 0.38899186 -0.14518742 0.37173554
000250 52 6e dc 3e 54 4c 6e bf 7d 48 9d 3e 64 a4 b8 be
       0.43052918 -0.9308522 0.30719367 -0.3606292
000260 15 3e a7 3e 29 2a ce be ce d7 94 be 29 fa 24 3f
       0.32664552 -0.4026654 -0.29070896 0.64444214
000270 3e 8b 7a be fb e5 f1 3e 8c f2 a1 be 52 e5 38 bf
       -0.24467179 0.47245774 -0.3163036 -0.72224915

rnn/tf_lite_lstm_cell/cell_bias f4 [64]
000000 3f 8d ef 3d 7d f2 81 bd 02 81 08 3d d4 0f 1f bd
       0.116968624 -0.06345079 0.033326156 -0.038833454
000010 1c 32 1c 3d 4d 5d 5f 3d 57 bc b3 3d 61 94 17 3d
       0.038133726 0.054532338 0.08776157 0.03700674
000020 ee ac 11 3d f4 65 15 be 39 9d 5f bc 8c 7b c8 3d
       0.03556531 -0.14589673 -0.013648325 0.0978919
000030 db 95 80 bd c1 77 ae bd 62 74 7f bd e3 9b 0d 3d
       -0.06278583 -0.08518935 -0.06236685 0.034572493
000040 ee d6 d2 bc 0e 27 d8 3d c6 e2 94 bb 1a 1c 2a be
       -0.025737252 0.10554324 -0.004543635 -0.16612282
000050 b7 7b 89 3d 7e 2e ef bc 26 b0 8d bd 02 19 8d 3d
       0.0671305 -0.029196974 -0.06918363 0.068895355
000060 e7 d0 62 3d 9c f0 63 bd b1 7d ec bd a5 bb 35 3d
       0.055375006 -0.055649385 -0.11547411 0.044368405
000070 70 44 ea bc 05 c6 38 bd 20 39 f7 3c 25 47 f8 3d
       -0.028597087 -0.04511072 0.030178607 0.12122945
000080 0b 4c ce 3d 9a 42 3a bd 44 a4 b0 bd 6b 5d 7a b9
       0.10073098 -0.045473672 -0.08625081 -0.00023876659
000090 3c 39 05 bc 1e 74 e7 bc b1 90 30 bd 99 42 42 bd
       -0.0081313215 -0.028253611 -0.04310674 -0.047426794
0000a0 0c 0e 79 3d d8 01 08 3c fd bf 1b bc 70 6f 25 bd
       0.06080441 0.008301221 -0.009506223 -0.04038948
0000b0 c8 b1 26 bc 6e 68 0f 3e 3e 6c 2f 3b c8 7d 1f 3e
       -0.010174222 0.1400468 0.0026767398 0.15575325
0000c0 4b 5e d2 bc 24 c2 af 3d 0f a9 02 3d 16 99 50 be
       -0.025679728 0.08581951 0.031899508 -0.20370898
0000d0 39 1e b6 ba 40 9b a0 3d 89 db da bc c4 77 95 3d
       -0.0013894505 0.078421116 -0.02671601 0.07298234
0000e0 cc d2 0f 3c c1 3f 79 bc 64 e7 e2 3d 37 52 f5 3d
       0.008778285 -0.015212954 0.110792905 0.11978572
0000f0 ee 7d be 3c 77 f9 9f 3d 06 35 84 bd 10 b1 8a bd
       0.023253407 0.078112535 -0.06455426 -0.06772053

rnn/tf_lite_lstm_cell/cell_to_cell_w f4 [64, 64]
000000 4b 28 b9 be 6b a8 bf be a1 f8 d9 3e 00 e9 ca bc
       -0.36163554 -0.3743318 0.425725 -0.024769306
000010 37 c8 53 3e d6 01 ca bd a9 ad d2 3d e1 e5 60 3e
       0.20681845 -0.098636314 0.10287029 0.21962692
000020 c6 36 52 3e d2 ad 5b 3d 0f 4c 42 3e 8a a0 35 bd
       0.20528707 0.053632565 0.18974327 -0.044342555
000030 29 bb 7a be e4 e4 be 3d 9c 71 8d bd 8a 0e 5b 3d
       -0.24485458 0.09321001 -0.06906435 0.053480662
000040 27 89 b8 bc 8c a0 b5 3e fb ea 5d bc 71 af 06 3e
       -0.022526337 0.3547405 -0.013544793 0.13152863
000050 85 8c 7c 3d bd 16 ee be c3 62 c6 be bc 94 97 bd
       0.061657447 -0.46501723 -0.38747224 -0.07401416
000060 7e 61 2d 3e fe 4b e9 bc 43 f6 84 be 88 d3 f8 bd
       0.16931722 -0.028478619 -0.25969133 -0.121497214
000070 82 42 88 3d a7 bb 60 3e fe 2a b1 bd c6 6a 6c 3d
       0.0665331 0.21946584 -0.08650778 0.057719015
000080 7a 48 66 be 12 35 6b be 22 15 9e 3d 13 ab be bc
       -0.22488585 -0.22969463 0.077188745 -0.023274934
000090 cd 33 84 be 7c 2d 45 3e 00 56 2a 3e d5 de 75 3e
       -0.2582077 0.19255632 0.16634369 0.24010785
0000a0 cb 08 39 be 64 a6 54 be 89 17 2e be aa ba 36 3e
       -0.1806976 -0.20766598 -0.17001165 0.17844644
0000b0 56 30 84 3e c0 0b 92 3e b6 be 0a 3d da c3 fb bd
       0.25818127 0.2852459 0.033873282 -0.12293215
0000c0 45 4a 50 3e da 78 a7 bd 0c e7 b1 bc 0d ad e7 3d
       0.20340832 -0.081773475 -0.021716617 0.11312304
0000d0 bd 25 f0 3b 64 7e 8f 3d 48 02 8e 3e 4c ac 87 bd
       0.0073287175 0.07006529 0.27736115 -0.0662466
0000e0 3c 38 01 be 6f 06 7b 3e 42 3f a0 3d 45 ac 64 3e
       -0.12619108 0.24514173 0.078245655 0.2233134
0000f0 dc e0 58 3e d2 e0 42 bc b4 51 1b 3e 57 df c3 bd
       0.21179527 -0.011894422 0.15167886 -0.09564083
000100 65 7f 7e bd 93 00 c6 3c 9f a7 31 3d 28 9c 27 3c
       -0.06213321 0.024170196 0.043372747 0.010230102
000110 2f a4 15 be 7a 70 4b 3e 3f cf 91 3e 70 9e 06 3e
       -0.14613412 0.19867125 0.2847843 0.13146377
000120 ff ac 1f be 9b 3b 38 3e c0 b1 4f 3e c5 e4 8c 3e
       -0.15593337 0.17991488 0.2028265 0.27518287
000130 35 d6 42 be f9 2c fe 3d 59 6c 2f be 07 e2 38 3e
       -0.19027026 0.124109216 -0.17131175 0.18054973
000140 4c 9f 04 3d 9f 27 09 be 43 a9 67 be cc 1d 07 3e
       0.03237848 -0.1339402 -0.22623162 0.1319496
000150 51 45 45 3e 07 fe c6 bd db c1 1c bd e3 70 5b be
       0.19264723 -0.097164206 -0.038270812 -0.21429782
000160 93 84 65 3e 9f 96 e2 3d c8 f8 53 bd e2 75 8d 3d
       0.22413854 0.11063885 -0.05175093 0.0690725
000170 85 df 34 3e e5 15 b3 3d 1f 55 cc 3d d6 3a 6e be
       0.17663391 0.087444104 0.09977173 -0.23264632
000180 b8 6e 76 be 63 08 8c be 5a 02 f5 3d fd 58 26 bd
       -0.24065673 -0.2735015 0.11963339 -0.04061221
000190 c5 f1 9e 3e 67 ab 18 3e d1 e0 80 ba 19 68 f9 bb
       0.3104383 0.14909135 -0.0009832626 -0.0076112864
0001a0 11 3d b8 be c1 a2 47 be f1 13 6f bc 69 0a 9d be
       -0.3598409 -0.1949568 -0.014592157 -0.30672005
0001b0 ed 2c 08 3e 7e 47 32 3d 8d a3 8e be 1c ce a9 3d
       0.13298388 0.04352521 -0.27859154 0.08291265
0001c0 8f a6 22 3e 5c a4 a0 bd a7 42 36 be ae ff 38 3e
       0.1588385 -0.07843849 -0.17798863 0.18066284
0001d0 cb de 85 be 5e cb 96 bd d7 a7 85 3d d0 ab 0b bd
       -0.2614654 -0.07363008 0.065261535 -0.0340994
0001e0 f9 c1 3f bd 18 18 a8 bd 16 17 37 3e 88 51 00 be
       -0.046815846 -0.082077205 0.178799 -0.12531102
0001f0 d1 b1 6d bd a7 05 4a 3e c0 09 20 3e 98 74 26 3e
       -0.058030907 0.19728719 0.1562872 0.16255414
000200 7c 2f b0 bd 8d ef 03 3e ae 32 51 bd dc 26 b9 3d
       -0.08602807 0.1288435 -0.051073723 0.09040615
000210 86 17 75 3e 93 ff 76 bd 77 62 61 be 30 89 35 be
       0.23934755 -0.06030233 -0.22010218 -0.17728114
000220 c8 d9 18 3e 61 2d 60 be 43 b8 93 3d 28 0f 62 be
       0.14926827 -0.2189231 0.072128795 -0.22076094
000230 53 6f c6 3c a8 3f 61 3e ab fe 1d be 5a 59 b5 bd
       0.024223005 0.21996939 -0.1542918 -0.08854933
000240 83 79 a9 3e 3f d7 be 3d 46 aa 25 3e 65 f6 6a bc
       0.3310052 0.09318399 0.16178235 -0.014340972
000250 54 87 0f bd 28 f9 79 be 6d 7a 5f be ad db 46 bd
       -0.03504117 -0.24411452 -0.21824045 -0.048549343
000260 3c 9c e4 bc 1b f3 4a 3e 30 6a fc bc f8 f8 0d bc
       -0.02790653 0.198193 -0.030812353 -0.008665316
000270 8e d5 b4 3e bc a6 84 3e cf 4d d9 bd ee 4d a7 3b
       0.3531918 0.25908458 -0.10610544 0.0051057255
000280 05 42 8e bd 64 61 2e 3e 39 60 15 3d 15 10 85 bd
       -0.06946186 0.17029339 0.03646872 -0.06497208
000290 d6 74 0e be 30 b7 46 be ff c5 82 3e d5 89 26 be
       -0.13911757 -0.19405818 0.25541684 -0.16263516
0002a0 6b 5b b8 be 07 26 a3 3c 6f 57 56 be ed 76 47 3c
       -0.36007246 0.019915594 -0.20931791 0.01217435
0002b0 0d 72 0f be b0 bb 79 3e 5b 82 34 3e c8 59 55 3e
       -0.1400835 0.24388003 0.17627852 0.2083503
0002c0 8e b0 19 3e 00 66 54 3e 4b cc c3 3c a1 b8 75 be
       0.15008757 0.20742035 0.023901125 -0.23996212
0002d0 2f 29 87 be 58 a6 4b 3d c1 5f 97 3d a3 8a 8a 3d
       -0.26398608 0.049719185 0.073913105 0.06764724
0002e0 e6 41 56 be d8 9a 8d bd 44 00 0e 3e 87 5a 61 bd
       -0.20923576 -0.069143 0.13867289 -0.055017974
0002f0 98 60 0f 3e c1 37 51 3e 28 7d f0 bd 18 4a 71 be
       0.14001691 0.20431425 -0.11742622 -0.23563421
000300 37 4c 8d bd b4 ee 8f be 9a c9 b6 be 58 a0 f8 bd
       -0.068993025 -0.28111804 -0.35700685 -0.12139958
000310 7b f3 78 bc 54 b8 8a bd d5 53 37 bd d7 90 1a 3e
       -0.015194769 -0.06773439 -0.044757683 0.15094315
000320 e3 da 59 3d c6 ec d0 bd 4d 8d f5 bd 3c 96 b8 3c
       0.053187262 -0.10201411 -0.119898416 0.022532575
000330 26 a0 98 be b6 24 11 be dd fa d5 bd cc a3 11 be
       -0.29809684 -0.1417416 -0.10448239 -0.1422264
000340 86 99 58 3d 2d d2 ff bd 1d 65 0a 3d 53 6b 77 3d
       0.052880786 -0.1249126 0.033787835 0.060405087
000350 c8 ea aa 3d 33 fd 4b 3d 07 d2 d9 be 6b 28 30 bd
       0.08345562 0.049802016 -0.4254305 -0.043007296
000360 72 31 0d bd 0c 5c d4 3c e1 74 2b 3c f3 22 ae bb
       -0.034470983 0.025922798 0.010464878 -0.005314225
000370 52 7b cd be b3 0f 5d 3e 88 64 51 3d 4f 47 46 3d
       -0.40133148 0.2158802 0.051121265 0.04840785
000380 af 04 1e 3e ac 7a 34 3e a5 2d 45 be c9 fb 51 be
       0.15431474 0.1762492 -0.19255693 -0.20506205
000390 90 79 35 3d d0 c8 f8 3b e9 bd 9e be 73 f8 93 be
       0.044305384 0.007592298 -0.31004265 -0.2890049
0003a0 61 84 93 3e d9 66 66 3e 9b 79 08 3e fa c3 31 3e
       0.28811935 0.22500171 0.13327639 0.17359915
0003b0 6f 6c 8c 3c 0f ee 26 3d 13 ce 00 3b d6 f4 03 bd
       0.017141549 0.040754374 0.001965408 -0.032215916
0003c0 de eb 86 bd bd 5a 3a be 92 4e b6 3e 43 c6 ca bc
       -0.06587957 -0.18198676 0.3560682 -0.024752742
0003d0 a8 bc 31 3e 40 f3 8f be d5 0a 63 be 5a fe cb 3c
       0.17357123 -0.28115273 -0.22172101 0.024901558
0003e0 17 f8 15 3d d6 6d 59 3e 6a 7d 27 bd 84 2f 73 3d
       0.03661355 0.21233305 -0.04089109 0.059371486
0003f0 09 e1 49 3e 3d 6c 41 be d0 f9 d8 bd b1 90 ed 3d
       0.1971475 -0.18888946 -0.10594523 0.11599863

rnn/tf_lite_lstm_cell/cell_to_forget_w f4 [64, 64]
000000 09 df 41 be cf c1 4c be 67 4a 97 3e ea 47 93 bc
       -0.18932737 -0.19995807 0.29548952 -0.017978627
000010 4e b9 ff bd c5 53 8f bd 93 50 1d be 2c 61 e1 bc
       -0.12486516 -0.069984 -0.15362768 -0.027512155
000020 58 df 9e bd 33 f7 49 3e 90 d8 c9 bd fe 45 3d bd
       -0.07757443 0.19723205 -0.09855759 -0.046209328
000030 14 60 b1 bc b6 44 58 bb 37 e5 71 3d 3b 5c 09 bd
       -0.021652259 -0.003299994 0.059056487 -0.033535223
000040 f2 13 fa 3d 1c 87 64 3e 49 04 4e be 69 6b 20 3e
       0.122108355 0.22317165 -0.20118822 0.15665974
000050 d7 d0 9c 3d f3 be 99 3e 35 40 bc 3e d9 4a 57 3e
       0.076570205 0.30028495 0.36767736 0.21024646
000060 79 98 ee 3d 13 fa 95 bd 41 5a 61 3e 0a 63 a3 bd
       0.116501756 -0.073230885 0.22007085 -0.079778746
000070 59 6c 47 3c 87 51 fb bd 62 e5 5a be b2 81 73 3e
       0.012171828 -0.122714095 -0.21376565 0.23779944
000080 eb cc 12 be c4 8d b9 bd 9b 5b 38 3e aa 3f b8 bc
       -0.14335983 -0.09060243 0.18003695 -0.022491295
000090 77 bc e3 bd 1f 93 0c 3e 4f dd 20 3e 2e 09 d7 3c
       -0.11119931 0.13727997 0.15709423 0.026249494
0000a0 0d 69 bb bd 7d 9e 46 3e 68 0a d1 bd 89 d2 b0 3d
       -0.09150896 0.19396396 -0.10207063 0.086339064
0000b0 4a 6a 43 3e 27 69 e2 3d ac 98 e2 3d 0a ea bb 3d
       0.19083515 0.110552125 0.11064276 0.09175499
0000c0 38 af 71 3d 4d 0e 79 3d 27 4a 1a 3b d9 de e5 3e
       0.059004992 0.060804654 0.0023542733 0.44896582
0000d0 cf 5e 07 bd 4c 95 b9 bd 83 5e 20 3c a3 9f 66 bc
       -0.0330494 -0.09061679 0.009788158 -0.014076146
0000e0 f9 dd 09 3e 99 d4 10 be d7 df 6e bd 34 9c 6b 3c
       0.13463582 -0.141436 -0.05831894 0.014380503
0000f0 48 c3 07 3e 81 3f 9a bd 33 75 87 3e 91 30 e7 3e
       0.13258088 -0.07531644 0.26456603 0.4515424
000100 36 2a 46 bd f7 96 cf bd 68 52 84 be 93 66 07 3e
       -0.0483801 -0.10136216 -0.2584412 0.13222723
000110 5d ed 32 bd c0 ad 56 be 81 a3 12 be f6 36 85 bd
       -0.0436834 -0.20964718 -0.14320184 -0.065046236
000120 c7 d4 fe 3b 49 e0 7c bd 9d 6f f6 bc f0 8d c3 bd
       0.00777683 -0.061737332 -0.030082518 -0.09548557
000130 20 c9 6f 3e a3 80 13 3d 8d 91 a8 3e 9b 9d 85 bd
       0.23416567 0.03601135 0.32923546 -0.065242015
000140 50 81 62 3e b1 b8 4a 3e 8e c8 8e be 45 7a 6a 3d
       0.22119641 0.19797017 -0.27887386 0.05724551
000150 7e d0 18 3e c3 b0 e3 3c 38 9c 1a be 7f 0c b2 3c
       0.14923283 0.027794247 -0.15098655 0.021734474
000160 ef 14 8f 3d 3a 49 8c 3e 30 67 04 3d 02 36 c1 3c
       0.06986415 0.27399617 0.03232497 0.023585323
000170 ef 2b 65 3d 36 c8 5c 3e 72 5c 49 be 3f 20 90 3d
       0.0559501 0.2156075 -0.19664171 0.070374005
000180 40 57 65 be 8c b9 9a 3e 9b 6f 96 be 6f 74 bd 3e
       -0.22396564 0.30219686 -0.29382023 0.37002894
000190 86 31 28 3e 08 f4 85 be b9 f3 64 3e e8 5b 07 bf
       0.16425142 -0.26162744 0.22358598 -0.5287461
0001a0 da 6a 46 be 69 ee 2a 3d 07 a8 1c be 1d 55 5b be
       -0.19376698 0.041731272 -0.15298472 -0.21419187
0001b0 7d 73 ae bc 57 4f a7 be 5e 21 7c be 2b 20 0b be
       -0.021295303 -0.3267772 -0.24622104 -0.1358649
0001c0 67 cf 45 be 96 fe 66 3e d3 dc 4d 3e 89 2d 1f 3e
       -0.19317399 0.22558054 0.20103769 0.15544714
0001d0 3f 23 8a 3e 8f 76 75 3e 67 92 48 be 8b 84 28 3e
       0.26980016 0.23971008 -0.19587098 0.16456811
0001e0 48 1d 1b 3e 9b 40 b8 bc a3 a9 12 be ef 4c 7c 3e
       0.15147889 -0.022491744 -0.14322524 0.24638723
0001f0 07 ad b4 bd 67 95 98 bd 9f 62 c3 3d 7f 26 e7 3d
       -0.08822065 -0.07450371 0.09540295 0.112866394
000200 7b 63 b0 3c a0 08 bb bd f7 13 91 3d d1 c1 35 ba
       0.021531811 -0.091325045 0.07083886 -0.0006933483
000210 c2 fe 21 be 0e 47 09 3e a0 26 d9 bd 08 e5 41 3d
       -0.15819839 0.13406011 -0.1060307 0.04733756
000220 99 2e fa 3b 26 a3 91 be 8e 49 97 3d a3 fd 84 bd
       0.0076349494 -0.28444785 0.07387076 -0.0649369
000230 29 09 fc 3d c2 7c 9a 3d 7a 58 fc bd d5 e6 73 3e
       0.12306435 0.07543327 -0.12321563 0.23818524
000240 5a 70 26 be 03 48 54 bd e0 f0 f9 bd 86 22 c8 3e
       -0.16253796 -0.05182649 -0.122041464 0.3908884
000250 c4 c7 ac 3e bb 06 8b be c4 99 9c 3e 04 1b 17 bd
       0.3374616 -0.27153572 0.30586064 -0.036891
000260 c0 62 86 bc 9a 41 b3 3d 67 cc 16 be 59 ac 5f 3d
       -0.01640451 0.08752747 -0.14726411 0.054607723
000270 c4 12 8b be 2b 92 3d bd be 08 6e 3e fa ea 27 bc
       -0.27162755 -0.046281975 0.23245522 -0.010248894
000280 09 9f 6e bd a2 39 1f be d9 b1 47 3b 33 ca 97 3e
       -0.058257136 -0.15549329 0.0030470996 0.29646453
000290 0b 2d 81 be fa 88 29 3e 8c c6 3d bd b6 5d 8a 3e
       -0.25229678 0.16556159 -0.046331927 0.2702462
0002a0 62 d0 92 bd 5d 21 f1 3d 77 20 16 3d 39 c5 2c bd
       -0.07168652 0.11773942 0.036652055 -0.042180274
0002b0 c9 43 d7 bd b5 b7 f5 bd da 2c 36 3e 71 53 11 3e
       -0.10510976 -0.1199793 0.17790547 0.14191987
0002c0 30 86 63 3d 7b 74 05 be db f1 ad 3c 6d 1e 58 3e
       0.055547893 -0.13032715 0.02123349 0.21105357
0002d0 5e 1f 70 bd 34 8a ca 3e 05 14 4c 3e 60 ef 34 bb
       -0.058623664 0.39558566 0.19929512 -0.00276085
0002e0 02 37 8c 3e a4 34 c5 bd 9d 1d 8a bd 16 9f 46 3e
       0.27385718 -0.09629181 -0.067439295 0.19396624
0002f0 8a b5 74 be 46 50 9b 3d 7c ad 24 3e 05 e5 a9 be
       -0.23897377 0.0758367 0.16081804 -0.3318254
000300 58 22 20 be 2b e8 eb bd 88 1a 9e bd 1b dd 72 be
       -0.15638101 -0.11518892 -0.07719904 -0.23717158
000310 f8 c4 00 3e 3b 00 5d 3d 48 a2 a7 3d fb ba b9 3d
       0.12575138 0.053955298 0.081852496 0.09068867
000320 d3 9b 05 bd 3d a8 0e bd a1 2b 52 3e b8 86 05 be
       -0.03261931 -0.034828413 0.20524456 -0.13039672
000330 72 cb 16 3e 3c 74 f8 bc 6a 06 b4 be 9b c6 89 3e
       0.14726046 -0.030328862 -0.35161144 0.26909336
000340 25 f7 a1 bd 96 9d 5e 3e 01 ca 72 bd 08 3c a4 bb
       -0.07908467 0.21739802 -0.059274677 -0.005012039
000350 fb e0 04 3d a7 c8 88 3d 49 91 ac 3d e7 9e 6c 3e
       0.03244112 0.066788964 0.084261484 0.23107491
000360 7e 5f 8c be 51 e4 31 3e 91 3e 49 be 2c 9a 2e be
       -0.27416605 0.17372252 -0.19652773 -0.17051
000370 e4 22 96 3e c7 9f 2b 3d a8 52 9b 3d 66 cf fa bd
       0.29323494 0.041900422 0.07584125 -0.12246589
000380 a9 a5 20 3e 4d fa 77 bd 45 44 63 be ec 91 f3 3d
       0.15688194 -0.06054144 -0.22194012 0.11893067
000390 b5 51 3b 3e 7e 9d 4a be be 62 4f 3e 63 bb a9 bc
       0.18292888 -0.19786641 0.20252511 -0.020719236
0003a0 12 2c 00 bf ce b0 5f be 70 e7 92 3d 69 cf 89 be
       -0.50067246 -0.2184479 0.071730494 -0.26916054
0003b0 c7 08 0e 3e 8b e8 92 3e ca 88 6c 3e 23 30 70 3e
       0.13870536 0.2869304 0.23099056 0.23455863
0003c0 f9 c9 61 bd d5 c6 a5 be e8 1d 51 be d3 ea 96 be
       -0.055124257 -0.3237826 -0.20421565 -0.29476032
0003d0 3d 3a 5c 3e 00 2c a5 bd 1c 90 01 be e7 69 7f 3e
       0.21506591 -0.08065033 -0.1265263 0.24942742
0003e0 20 66 42 be 29 22 4f 3e b4 73 d4 bd ae 26 8b be
       -0.1898427 0.20227875 -0.10373631 -0.27177948
0003f0 46 40 88 3e 89 2f 39 be f9 01 82 be 57 b9 01 bf
       0.26611537 -0.1808454 -0.2539213 -0.5067343

rnn/tf_lite_lstm_cell/cell_to_input_w f4 [64, 64]
000000 9a 9b 1a be 1b e6 78 bd f8 b9 ab 3e 41 bc 9f 3d
       -0.1509842 -0.06076632 0.3354032 0.077995785
000010 e3 fd 4b be c6 a6 b5 bc 7d 2b f2 3d a1 72 c2 3e
       -0.19921069 -0.02217425 0.11824701 0.3797808
000020 2d 72 3e 3e 1a 8d 1a be 86 84 3e 3e 46 89 4e be
       0.18598242 -0.15092888 0.18605241 -0.20169553
000030 4c 9d 13 3a f4 be b0 ba 2c 19 90 be f8 1c 86 3e
       0.0005631044 -0.0013484643 -0.28144205 0.26193976
000040 67 06 f5 bd 36 aa 7a 3e 38 24 57 3e e5 7e 3c 3d
       -0.11964112 0.24478993 0.2100991 0.046019454
000050 a3 4f b0 3e 2c 58 11 bd 32 8d 2b 3d b3 34 66 be
       0.34435758 -0.035484478 0.0418827 -0.2248104
000060 e1 ce e9 bc 2d 0c bb be 5f 26 68 3d e6 bc 1f 3e
       -0.02854103 -0.36532727 0.05667722 0.15599403
000070 d3 d3 5e 3c 5d 94 e4 3d b6 fd 13 be 70 b9 a7 3e
       0.0136003075 0.111611106 -0.14452252 0.32758665
000080 eb 90 04 3e 48 03 ec 3c 4e b8 84 be 4e 0f 55 3d
       0.12945907 0.028810158 -0.25921863 0.05201655
000090 7c 6d 89 3e a3 2b 53 38 a3 0a 52 bd 92 99 3d be
       0.26841342 5.034696e-05 -0.051279675 -0.18515614
0000a0 2f df c2 bd 8e 6b d8 bd 90 4d 02 be a7 0b cb bd
       -0.09515225 -0.105673894 -0.127249 -0.09914332
0000b0 fe 3c 86 3e 3f 76 bc 3e 36 fa 18 3e 4e ec f2 3c
       0.26218408 0.36808965 0.14939198 0.029653694
0000c0 83 7d 9a 3e ea 4e 3e be c1 92 50 be b8 07 cf 3d
       0.30173883 -0.18584791 -0.20368482 0.10108894
0000d0 d6 6c ee bd d8 b3 a5 3d 46 1c c5 3d 64 66 91 3d
       -0.116418526 0.08090943 0.09624533 0.070996076
0000e0 fe c6 a3 bd 94 01 07 3e 27 57 b2 3e 51 91 d9 3d
       -0.07996939 0.13184196 0.34832117 0.1062342
0000f0 79 a9 a2 3e 69 19 d0 bd 0c 28 04 3e 7b b9 93 be
       0.31769922 -0.101610966 0.12905902 -0.28852448
000100 38 95 11 be 0d 9c 7a 3d ac 1b ea 3d df c0 86 3d
       -0.14217079 0.061183978 0.11431059 0.06579756
000110 af 21 c2 3d 48 88 a7 bd 10 7d 7b be dc b8 f1 bd
       0.09479081 -0.081802905 -0.24559426 -0.11802837
000120 f9 6d 90 3e fe 93 14 3e d5 bc 8f bd 36 1e cb bd
       0.28208902 0.1450958 -0.07018439 -0.09917872
000130 e6 72 d2 3d 84 72 0e bc 4f a3 b3 3d 4b d8 58 3e
       0.102758214 -0.008694295 0.08771383 0.21176259
000140 6a 8b 63 3d 67 fe a6 be 0f f2 c1 bc f7 7b 48 bd
       0.055552877 -0.3261597 -0.023674993 -0.048946347
000150 6e 07 0b bd 4f 36 9b 3d a4 48 21 be 1c 03 66 3e
       -0.033942632 0.07578718 -0.15750366 0.22462124
000160 54 54 2d be 1d 48 97 bb 7b e5 ea 3c 83 54 97 be
       -0.169267 -0.004616751 0.028673878 -0.29556665
000170 b9 49 cd 3e 2c a1 82 3d 8a f1 2b 3e c9 76 12 3e
       0.40095308 0.06378397 0.16791359 0.14303125
000180 29 79 11 3e 54 b0 8a be 33 88 88 bd 44 01 81 3e
       0.14206375 -0.27087653 -0.06666603 0.25196278
000190 e1 c6 2c be 2b ed 1d be f1 33 2e be f6 d8 ff be
       -0.16872741 -0.15422504 -0.17012002 -0.49970216
0001a0 ff 96 ad 3d 48 2a 9f bd a6 ba 54 3e 6b b3 7f be
       0.08476066 -0.077717364 0.20774326 -0.24970786
0001b0 fb 2f 52 be 0c ca 69 3c 54 dd 15 3d dd 07 65 bd
       -0.20526116 0.014269363 0.036588028 -0.055915702
0001c0 c7 4e 50 3e e2 35 2a 3d 73 d6 fa 3d 2c 10 8c 3c
       0.20342551 0.041555293 0.12247934 0.017097555
0001d0 71 ef 47 3d 6f bc a9 3d b5 70 f1 bd 34 b4 1c 3e
       0.048812333 0.08287894 -0.11789075 0.15303117
0001e0 82 d5 8e bc da 76 86 bd b3 82 5f 3e cd e8 72 3d
       -0.017435793 -0.06565638 0.21827202 0.059304047
0001f0 14 44 8a 3e 94 5d 8a 3e 5b 5e d5 3d 7b 6c 8a 3d
       0.27005064 0.2702452 0.104183875 0.06758972
000200 ae 21 ac bd a5 bd 08 3e f5 e7 e9 3c b7 7c ca bc
       -0.084048614 0.13353594 0.028552989 -0.024717672
000210 f3 89 94 3d 9a 79 b9 bd 5a 40 05 3e dc af a4 be
       0.07252874 -0.09056397 0.1301283 -0.3216542
000220 3f 91 b6 bd ad bf b3 bd e0 7a 80 3e a6 b8 24 bd
       -0.08914422 -0.08776794 0.25093746 -0.040215157
000230 c2 25 e3 3d 69 5f fe 3d ac f8 b0 bd 4a 97 4e 3e
       0.11091186 0.12420542 -0.086411804 0.201749
000240 d5 e4 71 3e 82 e5 d8 3c a9 91 32 be 45 af 01 3e
       0.23622449 0.026476625 -0.17438377 0.12664516
000250 6e 30 8a 3c 23 ee a0 3e 3b 5b 41 3e 41 14 22 3d
       0.016868796 0.31431684 0.18882458 0.039570097
000260 5c 4f 58 3d 8e 86 ce 3d 77 ba 47 3e 33 8a 07 be
       0.052810058 0.10084258 0.19504724 -0.13236313
000270 73 c1 a3 3e 90 27 1d 3d 6a 23 59 3e d1 d9 7c bd
       0.31983528 0.038367808 0.21204916 -0.061731163
000280 29 ab f6 3a 93 d7 6a bd b5 7e f0 bd 05 07 92 bd
       0.001881932 -0.057334494 -0.117429174 -0.07130245
000290 92 40 86 3d 24 9b 72 be 46 c5 69 3e 07 4f 7d be
       0.065552846 -0.23691994 0.2282916 -0.24737178
0002a0 7c 97 8f 3e c0 6d bc be 78 ec aa bd df 4a fc b8
       0.2804526 -0.36802483 -0.08345884 -0.00012030242
0002b0 7c b3 9d be 01 f9 f7 be 2f c0 97 be 3d 59 ae 3d
       -0.30800998 -0.48432162 -0.29638812 0.085131146
0002c0 1c 30 60 3e 49 20 1c 3d 7e 5f a9 bd 83 52 76 bd
       0.21893352 0.038116727 -0.08270167 -0.060137283
0002d0 75 e3 8c bd 9b ea 2b be a5 e8 9f 3d 1f 1f 0d be
       -0.068793215 -0.16788714 0.07808045 -0.13781403
0002e0 6b 38 c1 3d 88 87 20 3d d4 da 26 3e 95 ca 77 be
       0.09434589 0.039191753 0.16294414 -0.24198373
0002f0 dd e6 06 bd 8c 49 f1 3d 63 11 c2 b9 d1 47 e7 3d
       -0.032935012 0.11781606 -0.00037015518 0.11292995
000300 40 6e 92 3e 22 53 af 3e 5c c3 53 be 49 04 1a 3e
       0.2859974 0.34243113 -0.20679992 0.15040697
000310 b8 f5 ae 3e ab e5 0e be f2 8a 7d bd 49 62 02 be
       0.34171844 -0.13954799 -0.061900087 -0.12732805
000320 fd b3 d5 bd 9b 5e 9e bd e1 5f a0 3e fb 50 f2 3d
       -0.10434721 -0.07732888 0.3132315 0.11831852
000330 b7 c6 ba bc 07 09 12 3e 34 6b fa 3c f5 32 5a 3d
       -0.022799833 0.14261256 0.030568697 0.053271253
000340 29 2e d6 3e bc 22 d6 be 59 ae e0 bd 2e 88 b2 3e
       0.41832092 -0.41823375 -0.10970754 0.34869522
000350 32 ac 8f 3d 4d d6 32 3e f8 d7 d2 3d 7b da 5b 3e
       0.070152655 0.17464562 0.10295099 0.21470062
000360 01 a0 63 3e 5a ac 7a 3e 6c cb dd bd a3 5f 5e be
       0.22229005 0.2447981 -0.10829815 -0.2171617
000370 80 43 03 3e 95 3c 63 3e 8d 54 26 3e e3 31 f5 bd
       0.12818718 0.22191079 0.16243191 -0.11972406
000380 ee 04 b7 3e b7 ba 0d 3e c7 6e 80 3e 74 f7 06 3e
       0.3574595 0.13840757 0.25084516 0.13180333
000390 9d d6 ba bd dd 6d a6 be 2a 96 0f 3e d7 1e 0b 3e
       -0.091229655 -0.32505694 0.14022127 0.13585983
0003a0 60 d8 a3 bb 82 87 02 be 1c e6 eb 3d 0e 31 23 bd
       -0.005000159 -0.12747005 0.11518499 -0.039841704
0003b0 ec d2 92 be 27 43 dd be 69 9e 1a be 56 c1 e3 bd
       -0.28676546 -0.43215296 -0.15099491 -0.1112086
0003c0 74 6a c9 be 14 31 a6 3e cc 7a e1 3e 83 db 59 3e
       -0.3933903 0.3245932 0.44039 0.21275143
0003d0 79 2b 37 be 48 77 9e be ec 9e 92 be 71 3d fe bd
       -0.17887677 -0.3095038 -0.28636873 -0.12414063
0003e0 0c f5 34 3e 9b 8c c8 be ad 02 0e 3e 69 e7 98 bc
       0.17671603 -0.39169773 0.13868208 -0.018665032
0003f0 37 be 41 3e 65 3f 6f 3d 48 e3 8b 3e 26 df c4 3d
       0.18920217 0.058410067 0.2732184 0.09612875
