app/src/main/assets/classifier_40_102.tflite (tflite, 470848 bytes, 30 tensors)

conv1d/conv1d/ExpandDims_1 f4 [64, 1, 5, 40]
0	0x3e8c6953	0.27424106
1	0xbe02af30	-0.12762141
2	0x3e223e3e	0.15844056
3	0x3ded534e	0.11588155
4	0x3ce6636f	0.028123586
5	0xbd9d0603	-0.07667162
6	0x3dba6299	0.09100837
7	0xbd5e54bc	-0.054280028
8	0x3d46cecd	0.048537064
9	0x3e03a9cc	0.12857741
10	0xbda4c36e	-0.08045088
11	0x3e00b234	0.12567979
12	0x3dfb9eee	0.12286173
13	0xbe16c1f0	-0.14722419
14	0x3d5efc98	0.05444011
15	0x3e319d10	0.17345071
16	0xbd59a578	-0.05313632
17	0xba062503	-0.00051172095
18	0xbdf212a7	-0.11819964
19	0xbd17c353	-0.03705151
20	0x3d780aad	0.060557056
21	0x3cfe089a	0.03100996
22	0x3afc0f6f	0.0019230674
23	0x3d67159e	0.0564171
24	0xbe87c2f3	-0.26515922
25	0x3b735b7a	0.0037133382
26	0xbdacac57	-0.08431309
27	0xbcaa8099	-0.020813273
28	0xbd11a0b4	-0.03555365
29	0xbe8b43c9	-0.27200153
30	0xbdda7682	-0.10667135
31	0x3e00b088	0.12567341
32	0x3e5809d0	0.21097493
33	0xbe0fdcb5	-0.14049037
34	0xbe007bc6	-0.12547216
35	0x3e480462	0.19532922
36	0xbca079d9	-0.019589351
37	0xbddef4a7	-0.108865075
38	0xbe0f255a	-0.13979092
39	0x3d1d06f1	0.038336698
40	0x3e962b5b	0.29329953
41	0x3deffe5a	0.117184356
42	0xbcf1d9d7	-0.02952282
43	0xbcd40093	-0.02587918
44	0x3ce7afb9	0.028282033
45	0xbd90241f	-0.070381396
46	0xbd80a206	-0.062809035
47	0x3de040a9	0.10949833
48	0x3e294e3b	0.16533749
49	0x3e1fd9ee	0.15610477
50	0xbc662af6	-0.014048329
51	0x3e2ac662	0.1667724
52	0x3e32fb23	0.17478614
53	0x3ca6c8ba	0.020359386
54	0x3cafae4e	0.02144542
55	0xbdb69216	-0.089145824
56	0x3e014a41	0.12625982
57	0x3d73ba58	0.059503883
58	0xbe306f72	-0.17230013
59	0xbe2fae8e	-0.17156431
60	0x3d5db130	0.054124057
61	0xbd90ae31	-0.070644744
62	0x3ca19244	0.019723065
63	0xbe2c9204	-0.16852576
64	0xbeafc7d7	-0.34332153
65	0x3d8efe21	0.06982065
66	0xbdafa125	-0.08575658
67	0xbe789887	-0.24276935
68	0x3c8f0c6f	0.017461983
69	0xbe17fc2c	-0.1484229
70	0xbe7b6e56	-0.24553809
71	0xbbd73229	-0.006567259
72	0x3ebcc4da	0.36868936
73	0x3dea14e3	0.11429765
74	0x3e199fe8	0.15002406
75	0x3d6fe08d	0.058563758
76	0xbe3ec6a6	-0.18630466
77	0xbda1a5be	-0.07892941
78	0xbe526885	-0.20547684
79	0x3e8d26a4	0.27568543
80	0x3e76d385	0.24104126
81	0x3e42b902	0.19015887
82	0x3d4602d4	0.04834254
83	0xbcdbcd67	-0.026831342
84	0x3e34be39	0.17650689
85	0x3d006e2f	0.03135508
86	0xbe18eb78	-0.14933574
87	0x3e1287d8	0.14309633
88	0x3cf69d07	0.030104173
89	0xbe115514	-0.14192611
90	0xbd85db94	-0.06536022
91	0x3dd5943a	0.104286626
92	0x3e68107b	0.22662537
93	0x3d9942d0	0.074834466
94	0x3e01c19d	0.12671514
95	0x3e04f5f1	0.12984444
96	0xbd3c4a47	-0.045969274
97	0x3e3492f8	0.17634189
98	0xbd8aadb9	-0.06771416
99	0xbe5b9c8e	-0.2144644
100	0x3e121abe	0.14268014
101	0x3d9b7ce3	0.075921796
102	0x3dd3ed12	0.10347952
103	0x3d605437	0.054767814
104	0xbd31b0a8	-0.043381363
105	0xbe065157	-0.13116966
106	0xbe1633f4	-0.14668256
107	0xbeb1b127	-0.3470547
108	0x3deee906	0.116655394
109	0xbe363786	-0.17794618
110	0xbe4361a7	-0.1908022
111	0xbe14f546	-0.1454669
112	0x3e088cb6	0.13334927
113	0xbba712cf	-0.0050986777
114	0xbd226f86	-0.03965714
115	0xbdee889a	-0.116471484
116	0x3dd8805a	0.10571356
117	0xbeeeea24	-0.4666301
118	0x3c3a5ea5	0.011375104
119	0x3e876500	0.26444244
120	0x3e1870f2	0.14886835
121	0xbdb2d8e1	-0.087327726
122	0x3b60bfbf	0.0034293977
123	0xbdffd9dd	-0.12492726
124	0x3d921f83	0.07134917
125	0xbe2238a4	-0.15841919
126	0xbdeee566	-0.11664848
127	0xbdaa0069	-0.083008595
128	0xbe1df031	-0.15423657
129	0xbd5039ca	-0.050836362
130	0x3e13c0b4	0.14428979
131	0x3d1f7255	0.038927395
132	0x3e4db907	0.20090114
133	0xbd8e268d	-0.06940947
134	0x3e1c9bf5	0.15293868
135	0x3e77f2ac	0.24213666
136	0x3e37b434	0.17939836
137	0xbcde217d	-0.027115578
138	0x3c9ce0f6	0.019150238
139	0x3d022842	0.031776674
140	0xbe2d7ca5	-0.1694208
141	0x3c307319	0.010769629
142	0xbe2cb2df	-0.16865109
143	0xbe840e3e	-0.25792116
144	0xbd1c206a	-0.03811685
145	0x3e1a7ef6	0.15087494
146	0xbdeceeb4	-0.115689665
147	0xbe0fc011	-0.14038111
148	0xbd907e75	-0.0705537
149	0x3c1307ae	0.008973999
150	0xbc9b37bf	-0.01894748
151	0xbe8cd715	-0.27507845
152	0x3db19098	0.08670157
153	0xbcfea7c7	-0.031085862
154	0x3d84ae7d	0.064785935
155	0x3d842867	0.06453019
156	0x3df2cb29	0.11855156
157	0xbe3ef42c	-0.18647832
158	0x3e75719d	0.23969121
159	0x3e2a94ec	0.16658372
160	0x3e11cb9c	0.14237827
161	0xbd41feee	-0.04736226
162	0xbdf27e22	-0.11840464
163	0x3dd1b08d	0.102387525
164	0x3db48533	0.08814468
165	0xbdd66ae9	-0.1046961
166	0x3d932147	0.071840815
167	0x3e16812a	0.1469771
168	0xbdb0d7ad	-0.08634887
169	0xbe1950d4	-0.1497224
170	0x3d4fde87	0.050749328
171	0x3e48e37c	0.19618028
172	0x3ccb1020	0.024787962
173	0xbe37c3ba	-0.17945758
174	0x3d927add	0.071523406
175	0xbd1f5ed2	-0.038908787
176	0x3e3af1f2	0.18256357
177	0x3e057e60	0.1303649
178	0xbdc7901b	-0.09744283
179	0x3c124d74	0.008929599
180	0xbc410d65	-0.011782979
181	0x3be610ef	0.0070210616
182	0xbc946343	-0.018113738
183	0xbe226730	-0.15859675
184	0xbec017e1	-0.37518218
185	0xbe7aabc0	-0.2447958
186	0x3cbf10d3	0.023323452
187	0xbdf4e305	-0.11957363
188	0x3dcbc385	0.09949402
189	0x3bf5e975	0.007504637
190	0xbea3e369	-0.32009438
191	0xbda14c0f	-0.07875835
192	0xbcdbc2d2	-0.026826296
193	0x3d134b4e	0.035960488
194	0xbd30dd0a	-0.04317955
195	0xbe30ebab	-0.172774
196	0xbd5fdd74	-0.054654554
197	0xbeab48a4	-0.33453858
198	0xbd8d6e09	-0.06905753
199	0x3e62fe72	0.22167376
200	0x3da15029	0.078766175
201	0xbd750267	-0.059816744
202	0x3ddb57a6	0.10710077
203	0xbd11145c	-0.035419807
204	0xbca103b6	-0.01965509
205	0x3de7406c	0.11291584
206	0xbbac2d59	-0.0052544293
207	0xbd4fa9e7	-0.05069914
208	0x3dee824d	0.11645947
209	0xbd18d750	-0.037314713
210	0xbd0267d2	-0.031837292
211	0xbd643ec7	-0.05572393
212	0x3ddbfe6a	0.10741885
213	0xbde0ef59	-0.10983152
214	0xbea15c3f	-0.3151569
215	0xbe41d82b	-0.18930118
216	0x3dd53832	0.10411109
217	0x3e6680e7	0.2251011
218	0x3d9c324a	0.076267794
219	0x3dcdee21	0.10055185
220	0x3decf859	0.11570806
221	0x3e034f05	0.12823112
222	0x3c3b4a6f	0.011431321
223	0xbd169f83	-0.036773216
224	0x3e47de49	0.19518389
225	0x3def7ab8	0.116933286
226	0xbe5638fb	-0.20920174
227	0x3e09d999	0.13461913
228	0x3b76bd36	0.00376494
229	0x3df0b751	0.11753715
230	0x3e3a8f41	0.1821871
231	0x3cab2641	0.020892264
232	0xbd0de45d	-0.034641612
233	0xbddaec6d	-0.10689626
234	0xbbe7c37f	-0.0070728655
235	0xbd8edb67	-0.069754414
236	0xbdcfe402	-0.10150911
237	0x3dfc67d4	0.12324491
238	0x3e9c73a0	0.30556965
239	0xbb257539	-0.0025246872
240	0x3b2150bc	0.0024614772
241	0xbe15936c	-0.14607018
242	0x3bec3eb2	0.0072096223
243	0xbdf93681	-0.12168599
244	0x3c800543	0.015627509
245	0x3e105b27	0.14097272
246	0xbe6b3cf6	-0.22972474
247	0xbe100195	-0.14063103
248	0x3de927e4	0.11384562
249	0x3df283e1	0.1184156
250	0x3da2494a	0.07924135
251	0x3d92e42e	0.07172428
252	0x3bd9bf1c	0.0066450965
253	0x3e52871e	0.20559356
254	0xbe07d177	-0.13263498
255	0x3d4ecc53	0.050487828

conv1d/conv1d_bias f4 [64]
0	0x3cb5675e	0.022144016
1	0xbd9eaeb9	-0.077481695
2	0xbd58b08a	-0.052902736
3	0xbdde5b75	-0.10857288
4	0xbbd7b228	-0.006582517
5	0xbd187598	-0.03722152
6	0xbc1023e2	-0.008797618
7	0xbd8bac8f	-0.06820022
8	0xbbd7b4a8	-0.006582815
9	0x3c87efce	0.01659384
10	0xbe0cfe87	-0.1376897
11	0xbde10892	-0.10987963
12	0xbd221bba	-0.039577223
13	0xbd4dad11	-0.050213877
14	0xbbaf2d74	-0.0053459946
15	0xbd408ac4	-0.047007337
16	0xbd7b4861	-0.061348323
17	0xbd9282fd	-0.0715389
18	0xbc86e1a5	-0.016465018
19	0xbd915705	-0.07096676
20	0xbc8b14db	-0.016977718
21	0xbd3e4cae	-0.046459846
22	0xbdeff03f	-0.11715745
23	0xbce6054d	-0.0280787
24	0x3c33ec66	0.010981655
25	0xbca44e22	-0.020056788
26	0xbc980b1d	-0.018559987
27	0xbdea6631	-0.11445273
28	0xbd426bb2	-0.047465988
29	0xbdc93098	-0.09823722
30	0xbd67af7f	-0.05656385
31	0xbd04f671	-0.032461587
32	0xbd82c283	-0.063847564
33	0xbd3c78ec	-0.046013758
34	0x3a893c6d	0.0010470279
35	0xbd2df37e	-0.04246854
36	0xbdb89e49	-0.090145655
37	0xbd0128cc	-0.031533048
38	0xbd5e254f	-0.0542348
39	0xbc06d97f	-0.008230566
40	0xbd540aea	-0.05176822
41	0xbd24bcff	-0.040219303
42	0xbbbef369	-0.0058273566
43	0xbdc389a0	-0.09547734
44	0xb7bf6888	-2.281765e-05
45	0xbd981c81	-0.07427312
46	0xbd9ab5a3	-0.07554176
47	0xbc4aa5b9	-0.012368613
48	0xbd1e5c7d	-0.038662422
49	0xbd9c6787	-0.07636934
50	0xbd9e21a1	-0.07721258
51	0x3bc14e02	0.005899192
52	0xbd8a7304	-0.06760219
53	0xbca2b211	-0.0198603
54	0xbd8867a4	-0.06660393
55	0xbd8e68a3	-0.069535516
56	0xbcda7a2f	-0.02666959
57	0x3d0b41f4	0.033998445
58	0xbd02c8d4	-0.031929806
59	0xbdb2b171	-0.087252505
60	0xbccc0c9a	-0.024908353
61	0xbbf0f531	-0.007353448
62	0x3d0d3fce	0.034484677
63	0xbd2989e1	-0.041391257

conv1d_1/conv1d/ExpandDims_1 f4 [128, 1, 5, 64]
0	0x3cf34077	0.029693825
1	0x3c58eca0	0.01324001
2	0x3d7ab1ff	0.061204907
3	0x3d4a8388	0.049441844
4	0xbd5eea8c	-0.0544229
5	0x3dcce97b	0.1000547
6	0xbe0b395e	-0.13596103
7	0x3da25edd	0.0792825
8	0xbdda9ea3	-0.10674789
9	0xbda05026	-0.07827787
10	0x3d8ba02a	0.06817658
11	0xbcf89b04	-0.030347355
12	0xbe12866b	-0.14309089
13	0xbc6a5ec3	-0.0143048195
14	0xbdd003da	-0.101569846
15	0xbdc73db4	-0.09728566
16	0x3df5c449	0.12000329
17	0xbdaeaae7	-0.08528691
18	0x3e1438d8	0.14474809
19	0xbd84f34a	-0.06491716
20	0x3d3ed322	0.04658807
21	0xbd2ce596	-0.042211138
22	0xbdd742b6	-0.10510771
23	0x3d35bfcf	0.044372376
24	0xbe20cdca	-0.15703502
25	0x3d779359	0.060443256
26	0xbd814ca6	-0.06313448
27	0xbe10f675	-0.14156516
28	0xbdef4160	-0.11682391
29	0x3dd5e7e5	0.10444621
30	0xbd8e70d2	-0.069551125
31	0xbcdac561	-0.026705446
32	0x3df5776f	0.11985671
33	0xbe22ed2d	-0.15910788
34	0x3d8b4762	0.068007246
35	0x3cda6a09	0.02666189
36	0xbdf7be02	-0.12096788
37	0xbd93ad16	-0.07210748
38	0xbc988713	-0.018619096
39	0x3d94e4ca	0.072702006
40	0x3dec002c	0.1152347
41	0xbe23fc4b	-0.16014211
42	0xbdf20499	-0.11817283
43	0xbcf585fe	-0.029971119
44	0x3d46530d	0.048419047
45	0x3de01dcf	0.109431855
46	0xbddc7230	-0.10763967
47	0x3c31b16b	0.010845522
48	0xbe1c9fcd	-0.15295334
49	0xbd33e419	-0.043918703
50	0x3d035731	0.032065574
51	0xbb25740c	-0.0025246171
52	0x3d8aafb7	0.06771796
53	0x3d124174	0.035706952
54	0x3d5514d6	0.052021824
55	0xbc96114e	-0.018318798
56	0x3ce2c239	0.027680503
57	0x3d2f37cd	0.042777825
58	0xbdb66246	-0.08905463
59	0xbe29dd56	-0.16588339
60	0x3ad8baaa	0.0016535122
61	0xbd10dc26	-0.0353662
62	0xbd240243	-0.04004122
63	0xbdde2bf8	-0.1084823
64	0xbe23c781	-0.15994073
65	0x3cc18007	0.023620619
66	0x3dd4249e	0.10358547
67	0xbdcc06ae	-0.099622115
68	0x3d0547ed	0.032539297
69	0xbde67fe0	-0.11254859
70	0xba854bf1	-0.0010169727
71	0x3d411994	0.047143534
72	0xbc7055d8	-0.014668904
73	0xbe307d9b	-0.17235415
74	0xbe353901	-0.17697527
75	0xbda2f4fb	-0.079568826
76	0xbe119d36	-0.14220127
77	0x3e17bff1	0.14819314
78	0xbe2785f5	-0.16359694
79	0x3d2d4393	0.042300772
80	0x3d634658	0.055487007
81	0x3d1f5a3d	0.038904417
82	0x3d932e33	0.07186546
83	0xbae3d81f	-0.0017383135
84	0xbca8d64c	-0.020609997
85	0xbdd8ef07	-0.10592466
86	0xbd182d79	-0.03715274
87	0xbd83bd64	-0.06432608
88	0xbe2b3c04	-0.16722113
89	0xbd369d3d	-0.044583548
90	0xbd5611b7	-0.052262988
91	0xbd3b5b15	-0.04574116
92	0x3c78239f	0.0151452115
93	0x3daa426d	0.08313451
94	0xbca695b6	-0.02033506
95	0x3d06fa7f	0.032953735
96	0x3d714d6c	0.058911726
97	0xbdd55925	-0.104173936
98	0xbc94f31b	-0.018182328
99	0xbde25178	-0.11050695
100	0x3da218ee	0.07914911
101	0xbdad3119	-0.0845663
102	0x3cb9ab1f	0.022664605
103	0x3de1eebd	0.11031864
104	0xbd635a44	-0.055506006
105	0x3d6e896c	0.058236524
106	0xbd49d268	-0.049272925
107	0x3cd3e81e	0.025867518
108	0x3d375f2d	0.0447685
109	0xbd106548	-0.03525284
110	0xbd5ae0f4	-0.05343719
111	0x3d748acf	0.05970269
112	0xbc702264	-0.014656637
113	0xbd0879f5	-0.033319432
114	0x3cd6a99c	0.026203923
115	0x3d54e75d	0.051978458
116	0x3e077102	0.13226703
117	0x3da63c9d	0.0811703
118	0xbc881aba	-0.016614307
119	0xbe23ebe1	-0.1600795
120	0x3e0cf7eb	0.13766448
121	0x3d8ba381	0.06818295
122	0xbdab1573	-0.083537005
123	0xbc296211	-0.010338322
124	0x3e19e1ba	0.15027514
125	0x3e82ad55	0.25522867
126	0x3d6dc79d	0.058051694
127	0xbd9285b0	-0.07154405
128	0x3cdcc301	0.026948454
129	0x3ced814a	0.028992314
130	0x3e4ff2a1	0.203074
131	0x3e6fbd06	0.2341195
132	0xbe1f44e9	-0.15553631
133	0xbe0cf798	-0.13766325
134	0xbde631ca	-0.11239965
135	0xbd537eb3	-0.0516345
136	0xbd5545cf	-0.052068528
137	0x3e1ffc1b	0.15623514
138	0x3e3440d6	0.17602858
139	0xbd087203	-0.033311855
140	0xbde35257	-0.110996895
141	0x3e3e2b60	0.18571234
142	0x3d6e893f	0.058236357
143	0x3e048c56	0.12944159
144	0x3d5795a8	0.052632958
145	0x3e08108d	0.13287564
146	0x3de84f1e	0.113432154
147	0xbccf7190	-0.025322706
148	0xbdc9b552	-0.09849037
149	0x3d991fc6	0.074767634
150	0xbe26a02f	-0.16272043
151	0x3e244b6a	0.16044393
152	0xbb018e99	-0.0019768833
153	0x3bf81470	0.0075707957
154	0xbd3d6a9c	-0.04624425
155	0xbbf1523b	-0.007364539
156	0x3de0c84a	0.10975702
157	0xbd961b66	-0.073294446
158	0x3d7c13a6	0.061542176
159	0xbe2e2345	-0.17005642
160	0xbdabcedc	-0.08389065
161	0x3e470faf	0.19439577
162	0xbc6f94f1	-0.014622913
163	0xbdcdd1c2	-0.10049774
164	0x3db0fc39	0.08641858
165	0xbc9d761c	-0.019221358
166	0xbe2411f9	-0.16022481
167	0x3c96b4dd	0.01839679
168	0xbd55eb69	-0.052226458
169	0x3dbf36aa	0.09336598
170	0xbd8c097c	-0.068377465
171	0x3d20fb0e	0.039301924
172	0x3cbb50b4	0.02286563
173	0x3e2539ed	0.16135378
174	0x3dd73826	0.10508756
175	0xbb686105	-0.0035458219
176	0xbd4b5888	-0.049644977
177	0x3d3f2e70	0.046675146
178	0x3dd0e8c0	0.102006435
179	0x3dd3f559	0.10349531
180	0xbca57499	-0.0201972
181	0x3cb58ff2	0.022163365
182	0x3e118cf3	0.14213924
183	0xbda4ce77	-0.080471925
184	0xbcb80413	-0.02246288
185	0x3c11eb8b	0.0089062555
186	0xbc40e2ab	-0.011772792
187	0xbe293774	-0.1652506
188	0x3e2c125d	0.1680388
189	0x3e4a2efd	0.19744487
190	0xbd8f47da	-0.069961265
191	0x3d10f0cb	0.035385888
192	0xbdcb54c0	-0.09928274
193	0x3debe5af	0.11518418
194	0xbd6a26bf	-0.057165857
195	0x3d9da479	0.07697386
196	0x3d7206d2	0.059088536
197	0xbe6304c4	-0.22169787
198	0xbb3383ea	-0.002739186
199	0x3e1033ed	0.14082308
200	0xbe080dea	-0.13286558
201	0xbd0fa050	-0.035064995
202	0x3c8ef1fa	0.017449368
203	0x3ceddb49	0.029035227
204	0xbc5a4ffd	-0.013324735
205	0x3e446473	0.19178943
206	0xba2a9881	-0.000650771
207	0xbe3e1548	-0.18562806
208	0x3e01a323	0.12659888
209	0xbd917e91	-0.07104219
210	0xbac97246	-0.0015369139
211	0xbb967447	-0.004591498
212	0xbe2aa6e4	-0.16665226
213	0x3d9622e7	0.07330876
214	0xbe6bc472	-0.23024157
215	0xbdd896de	-0.10575651
216	0xbbeee350	-0.0072902814
217	0xbd638237	-0.055544104
218	0xbdc35c6b	-0.09539112
219	0xbcd6fbf8	-0.026243195
220	0x3e2b1692	0.16707829
221	0xbe025b17	-0.1273006
222	0x3dc21d40	0.09478235
223	0xbe10af9d	-0.14129491
224	0xbe8362bb	-0.25661263
225	0x3e4f7e43	0.20263009
226	0xbdf020ed	-0.1172503
227	0x3d6fb87d	0.05852555
228	0x3e523cf2	0.20531061
229	0x3dbdae9f	0.09261822
230	0xbe01ff80	-0.12695122
231	0xbd610840	-0.05493951
232	0xbd8b179c	-0.067916125
233	0x3df40dca	0.119166926
234	0xbcf3a29b	-0.029740622
235	0x3d83720f	0.06418239
236	0xbdbabf28	-0.091184914
237	0xbd24283b	-0.04007743
238	0x3d9ce1f6	0.07660286
239	0xbe0d47b6	-0.13796887
240	0x3dd1d896	0.102463886
241	0x3dccee1e	0.10006355
242	0xbde84feb	-0.11343368
243	0xbdbecd84	-0.09316543
244	0x3e4d6e1b	0.20061533
245	0x3d52adc6	0.051435255
246	0x3dc0ea13	0.09419646
247	0x3e07dd06	0.13267908
248	0xbe65f53e	-0.22456834
249	0x3cd30ba1	0.025762381
250	0x3c91860c	0.017764114
251	0xbe3be84a	-0.1835033
252	0xbcf7da74	-0.030255534
253	0x3dea13a1	0.11429525
254	0xbbf73158	-0.007543724
255	0x3e2b2ffa	0.1671752

conv1d_1/conv1d_bias f4 [128]
0	0xbd8a2a61	-0.067463644
1	0xbcdcd113	-0.026955163
2	0xbcb5b0fa	-0.022179116
3	0x3c07abdf	0.008280723
4	0xbceee6e2	-0.029162828
5	0xbd619edf	-0.055083152
6	0xbdd662bc	-0.10468051
7	0xbdd703d1	-0.10498775
8	0xbbbcc9bd	-0.0057613538
9	0x3c0560f6	0.008140793
10	0xbd120ea8	-0.03565851
11	0xbd45aeec	-0.04826252
12	0xbdcf7153	-0.10129037
13	0xbdc77e8b	-0.09740933
14	0xbd323eec	-0.04351704
15	0xbb2c15ef	-0.002625819
16	0xbc472d1a	-0.012156749
17	0xbc2e5a2b	-0.010641615
18	0x3c8cc1be	0.017182227
19	0xbcbfad33	-0.023398018
20	0xbceb93e5	-0.028757045
21	0xbc0194bb	-0.007908995
22	0xbc9925b3	-0.018694734
23	0x3d173532	0.036915965
24	0x3b3ac6fc	0.0028499952
25	0xbdfedb9c	-0.12444231
26	0xbce8ed67	-0.028433515
27	0xbcc8aece	-0.024497416
28	0x395d7f5f	0.00021123652
29	0xbdbadbab	-0.091239296
30	0x3c071ebc	0.008247074
31	0xbd129261	-0.03578413
32	0xbcd41dcf	-0.02589312
33	0xbca1573e	-0.01969492
34	0xbc4a2360	-0.012337536
35	0xbcd44859	-0.025913404
36	0xbc9784ba	-0.018495906
37	0xbd689b67	-0.05678883
38	0x3d5e23f6	0.054233514
39	0xbd7e6f64	-0.06211795
40	0xbcca9aed	-0.024732077
41	0x3d037b59	0.032100055
42	0x3b2cdecc	0.0026377914
43	0x3c9ebffa	0.019378651
44	0xbd5c6b56	-0.0538133
45	0xbd2d5edf	-0.042326804
46	0xbc61aa73	-0.013773548
47	0xbc7e1f4f	-0.015510394
48	0xbd1cdea7	-0.038298275
49	0xbca7b024	-0.020469733
50	0xbc562a05	-0.013071542
51	0xbbd5a6d2	-0.0065201307
52	0xbde3f598	-0.11130828
53	0x3d18318f	0.037156638
54	0xbc841d77	-0.016127331
55	0x3c3a6ae6	0.011378026
56	0xbc6f4d0c	-0.014605772
57	0xbdbc22a1	-0.091862924
58	0xbcd4146e	-0.025888648
59	0x3c3051ee	0.010761721
60	0xbd29a743	-0.04141928
61	0xbd2c2540	-0.042027712
62	0xbd81844f	-0.06324064
63	0xbd7b6d3a	-0.061383463
64	0xbc4e5af0	-0.012594923
65	0xbd29ac1f	-0.041423913
66	0xbd15909d	-0.036514867
67	0xbd0fb7a6	-0.03508725
68	0xbcccc784	-0.02499748
69	0xbb1a83a9	-0.002357701
70	0xbd1be7f3	-0.038063
71	0xbd05b7b8	-0.03264591
72	0xbc2a0877	-0.010377995
73	0x3cc2403c	0.02371227
74	0xbb50d38c	-0.0031864373
75	0xbd41a43c	-0.047275767
76	0x3bc97480	0.006147921
77	0x3ce6649b	0.028124144
78	0xbd05a8ae	-0.03263157
79	0x3d387c77	0.045040574
80	0xbd867ca2	-0.065667406
81	0xbd9f3f28	-0.07775718
82	0xb95c6460	-0.00021018228
83	0x3d490249	0.049074445
84	0xbd3c8a6d	-0.04603045
85	0xbc2fe8f6	-0.010736695
86	0xbc348844	-0.011018816
87	0xbc230272	-0.0099493135
88	0xbd89344a	-0.066994265
89	0xbcf20374	-0.029542662
90	0x3ca1ab55	0.019735018
91	0xbdad8fab	-0.08474668
92	0xbcb15652	-0.021647606
93	0xbd82ad54	-0.06380716
94	0x3b2a0caa	0.002594749
95	0xbd6c264e	-0.057653718
96	0xbc41d5ca	-0.011830756
97	0x3d43c003	0.04779054
98	0xbd31d494	-0.04341562
99	0x3c4adefc	0.012382265
100	0xbd1e3167	-0.038621332
101	0xbdf04b17	-0.11733072
102	0xbca735e9	-0.020411449
103	0xbd7c2a81	-0.061563972
104	0xbd60f7fd	-0.054924
105	0xbcaf6255	-0.021409193
106	0xbd50ff56	-0.051024757
107	0xbcb10d16	-0.021612685
108	0x3cd2cdb9	0.025732862
109	0xbd9e9a70	-0.077443
110	0xbd3d9f61	-0.046294574
111	0x3cadf499	0.021234797
112	0xbd0aa2d6	-0.0338467
113	0xbd13c1fb	-0.036073666
114	0xbca30504	-0.019899853
115	0x3cc590fd	0.024116987
116	0xbc9230a5	-0.017845461
117	0xbd0baef3	-0.03410239
118	0xbdb34db8	-0.08755058
119	0xbd299688	-0.041403323
120	0xbdbaa869	-0.09114153
121	0xbd509540	-0.050923586
122	0x3bd7ce6e	0.0065858876
123	0x3d305dfc	0.04305838
124	0xbb04fd55	-0.00202926
125	0xbcf19cf2	-0.029493783
126	0xbd169f01	-0.03677273
127	0x3c675bcc	0.014121007

output/MatMul_bias f4 [5]
0	0xbc5747b7	-0.013139657
1	0x3c84a791	0.016193183
2	0xbd317af7	-0.04333016
3	0x3d6553eb	0.055988234
4	0xbbacca76	-0.0052731587

output/kernel/transpose f4 [5, 32]
0	0x3f2fbf24	0.6865103
1	0xbec5ecd4	-0.38657248
2	0xbdbd8a20	-0.09254861
3	0xbf2b82cc	-0.66996455
4	0xbed86235	-0.42262426
5	0xbf1277b8	-0.57213926
6	0xbea4496f	-0.32087275
7	0xbf8bf05d	-1.0932728
8	0x3d971660	0.073773146
9	0x3f103b13	0.5634014
10	0xbf03e003	-0.5151369
11	0xbf02a198	-0.5102782
12	0x3ed0665a	0.40703088
13	0x3e1858a9	0.14877571
14	0xbf3d157b	-0.738609
15	0xbf2093f2	-0.62725747
16	0xbf002549	-0.5005689
17	0x3f0bfc76	0.546821
18	0xbf2100e5	-0.6289199
19	0x3f8579c1	1.0427781
20	0xbe42411c	-0.1897015
21	0x3e876a04	0.2644807
22	0xbe3aad9d	-0.1823029
23	0x3e38b18c	0.18036479
24	0x3f12d5b5	0.5735734
25	0xbe4561d0	-0.19275594
26	0x3ec0a632	0.37626797
27	0xbf33036e	-0.6992711
28	0xbe1a0f42	-0.15044883
29	0xbe73789a	-0.23776475
30	0x3efcfe02	0.49412543
31	0x3e09cd18	0.13457143
32	0xbe599f20	-0.21252108
33	0xbe47ae91	-0.19500186
34	0x3ed6a12f	0.41919848
35	0xbe6121ea	-0.21985593
36	0x3ea5986a	0.32342845
37	0xbf139c30	-0.576602
38	0x3f04854a	0.5176588
39	0x3d8412c5	0.064488925
40	0x3f4e0801	0.80480963
41	0x3f11a1e9	0.5688768
42	0x3ec0371c	0.37542045
43	0x3ec3e9c2	0.3826428
44	0xbec2088c	-0.37897146
45	0xbf0cf75b	-0.55064934
46	0x3e44f82a	0.19235292
47	0x3d2f6490	0.042820513
48	0x3d5b27a2	0.053504594
49	0x3e8512d4	0.25990927
50	0xbf0d495c	-0.5519006
51	0xbebe61de	-0.37184042
52	0xbe59b6c6	-0.21261129
53	0xbf7658dd	-0.96229345
54	0xbf062cc2	-0.52412045
55	0xbd25a012	-0.040435858
56	0xbf2aceca	-0.66721785
57	0xbf3e2cbb	-0.74287003
58	0x3ee4e3b5	0.44704977
59	0x3f14c01f	0.58105654
60	0xbc6dfaa6	-0.014525091
61	0x3f31643b	0.69293565
62	0x3f1195be	0.56869113
63	0xbed09c16	-0.40744084
64	0x3e1b3e48	0.15160477
65	0x3ea6b368	0.3255875
66	0xbe2147f0	-0.15750098
67	0xbf1103a4	-0.5664618
68	0xbf270ed0	-0.6525698
69	0x3f05dcca	0.5229002
70	0x3ee40a5b	0.4453915
71	0xbd963e51	-0.07336105
72	0xbedb2edd	-0.4280919
73	0xbf59cf3f	-0.8508186
74	0xbda50bb7	-0.08058875
75	0x3ee3ce45	0.4449331
76	0xbee2b525	-0.44278827
77	0x3e933015	0.2874762
78	0x3ea0f14c	0.31434095
79	0x3ea308d7	0.31842682
80	0xbf13bfa7	-0.57714313
81	0xbe220997	-0.1582397
82	0xbd7fd5ed	-0.062459875
83	0xbed7a444	-0.42117512
84	0x3e9853af	0.29751346
85	0x3d14ecd8	0.036358684
86	0x3e325be5	0.17417867
87	0xbecd3e0f	-0.4008641
88	0x3e5453a3	0.2073503
89	0x3f082b07	0.53190655
90	0x3e9d68e2	0.30744082
91	0x3eacd8c2	0.33759123
92	0x3e635de4	0.22203785
93	0xbf3cd586	-0.7376331
94	0x3d548a53	0.05188973
95	0x3f441820	0.7659931
96	0xbf1203a5	-0.5703681
97	0x3ea2c825	0.31793323
98	0x3ef3d802	0.47625738
99	0x3f6e12df	0.92997545
100	0x3f2009f9	0.6251522
101	0x3e901c9e	0.28146833
102	0xbb8cf102	-0.0043011913
103	0xbf13f16c	-0.57790256
104	0xbe5d9d05	-0.2164193
105	0x3dd2bf88	0.10290438
106	0x3e66f5c4	0.2255469
107	0xbeb1186a	-0.3458894
108	0x3f096291	0.53666025
109	0x3e87f5c9	0.26554707
110	0x3e093964	0.13400799
111	0x3ea822c9	0.3283904
112	0x3f47b694	0.7801297
113	0xbecd646a	-0.40115672
114	0x3e9c2198	0.3049438
115	0xbe9a0f12	-0.30089623
116	0xbd519156	-0.051163994
117	0x3ee83e81	0.45360187
118	0x3ebff7fb	0.37493882
119	0x3f178f7e	0.59203327
120	0x3f1dba9f	0.61612886
121	0x3e154f8a	0.14581123
122	0xbda9badc	-0.08287594
123	0xbebbd2a4	-0.36684144
124	0x3f1161b9	0.5678974
125	0x3eaf13e8	0.34194875
126	0xbea5b5cf	-0.3236527
127	0xbf1ffdbe	-0.62496555
128	0x3f367058	0.7126517
129	0xbf5f7440	-0.8728676
130	0xbf82bbb6	-1.0213535
131	0x3ed8a05f	0.42309853
132	0xbee3f10e	-0.44519848
133	0xbf33c2d5	-0.70219165
134	0xbea66787	-0.3250086
135	0x3e84f24d	0.2596611
136	0x3f225e7e	0.63425434
137	0xbd2aa062	-0.04165686
138	0xbf92ce09	-1.1469127
139	0xbdb2a8c6	-0.08723597
140	0x3f28ccd1	0.65937525
141	0xbe6d4af1	-0.23173119
142	0x3f1f929f	0.623331
143	0xbf275edd	-0.65379125
144	0x3e8b84b6	0.27249688
145	0xbed1657d	-0.40897742
146	0xbf486a79	-0.78287464
147	0x3e8a81c1	0.2705212
148	0x3f784942	0.9698678
149	0xbec69d66	-0.3879196
150	0x3eed112d	0.46302167
151	0xbf283900	-0.65711975
152	0xbf235165	-0.63796073
153	0x3d71830f	0.058962878
154	0xbf82d47e	-1.0221097
155	0x3c006613	0.007836836
156	0xbd86a203	-0.0657387
157	0xbd984937	-0.074358396
158	0xbf1a9441	-0.6038247
159	0xbe33f98a	-0.1757566

rnn/tf_lite_lstm_cell/cell_bias f4 [64]
0	0x3cc08e6d	0.023505414
1	0xbc720301	-0.014771224
2	0xbd3f5b47	-0.04671791
3	0xbc3c9998	-0.011511229
4	0xbc9c2dab	-0.019064745
5	0xbccde25c	-0.02513235
6	0x3c566e56	0.01308783
7	0x3d824c70	0.063622355
8	0xbd267fd4	-0.04064925
9	0x3d29e57a	0.04147861
10	0xbd291d49	-0.041287694
11	0x3b2625da	0.002535215
12	0x3b8ee8f2	0.0043612653
13	0x3c3ba038	0.011451773
14	0xbda4cf8f	-0.08047401
15	0x3a71b41c	0.0009220259
16	0x3dd71309	0.105016775
17	0x3d620b48	0.05518654
18	0xbbc015be	-0.005861967
19	0xbccd36f8	-0.025050625
20	0xbd128341	-0.035769705
21	0xbcb4fe02	-0.022093777
22	0x3d353b79	0.04424617
23	0xbd4d37ee	-0.050102167
24	0x3c760cae	0.0150176715
25	0xba319ae9	-0.00067750976
26	0x3c27af0c	0.0102346055
27	0xbb14766e	-0.0022653597
28	0xb98fc94c	-0.00027425063
29	0x3d4e5aba	0.050379492
30	0xbd99297b	-0.07478615
31	0xbbd9aa9e	-0.0066426536
32	0xbc45c64b	-0.0120712025
33	0x3bdb1646	0.006686005
34	0xbd9d5348	-0.076819
35	0xbcee1909	-0.029064672
36	0xbcac463c	-0.021029584
37	0xbc476c70	-0.01217185
38	0x3d452133	0.048127364
39	0xbb79dad2	-0.0038124812
40	0x3b9f866b	0.004868319
41	0x3b61e4df	0.0034468693
42	0xbc5c8b38	-0.013460927
43	0x3cdd5ff7	0.027023299
44	0xbe01b569	-0.12666859
45	0xbc819cf5	-0.015821913
46	0xbd529b9c	-0.051417932
47	0x3caa35e3	0.020777648
48	0x3ce618f1	0.028088065
49	0x3c42dad2	0.011892991
50	0xbcb719c0	-0.022351146
51	0xbc96527a	-0.018349875
52	0xbd64e8be	-0.055886023
53	0x3bd3c0cd	0.0064621926
54	0x3cc0ac40	0.023519635
55	0xbce1c283	-0.02755857
56	0xbb30e4c9	-0.0026991835
57	0x3da11d43	0.07866909
58	0x3cb1f65a	0.021723915
59	0x3c597630	0.013272807
60	0xbd32f3d0	-0.04368955
61	0x3cfabbef	0.030607192
62	0xbca2780f	-0.019832639
63	0xb9dd1ded	-0.000421747

rnn/tf_lite_lstm_cell/cell_to_cell_w f4 [64, 64]
0	0x3e0d2bde	0.13786265
1	0xbe1e0db6	-0.15434918
2	0xbe504462	-0.20338586
3	0xbe85cb9a	-0.26131898
4	0xbcd5f4b9	-0.02611767
5	0xbe9fb0d8	-0.3118961
6	0x3dba50c0	0.09097433
7	0x3e1ba4cd	0.15199585
8	0x3d7e96f8	0.062155694
9	0xbbd43bbd	-0.006476848
10	0xbd4f74b2	-0.0506484
11	0x3e0ef3c5	0.13960178
12	0xbdded7f3	-0.10881033
13	0xbce7ee56	-0.02831189
14	0x3bd662b9	0.0065425304
15	0xbd2f1575	-0.042745072
16	0x3e2986b4	0.16555291
17	0x3c174e41	0.009234966
18	0xbd6f8fda	-0.058486797
19	0xbd627aa5	-0.055292744
20	0xbdd68b15	-0.104757465
21	0xbdcd1073	-0.10012903
22	0xbe3486d8	-0.17629564
23	0x3dc1548d	0.09439955
24	0xbe740f05	-0.23833854
25	0x3d1d086e	0.038338117
26	0xbe02aab2	-0.12760428
27	0xbd2a6972	-0.041604467
28	0xbdef1279	-0.11673445
29	0xbe68942d	-0.22712775
30	0xbe1d8a7d	-0.1538486
31	0xbd96fb09	-0.073721
32	0x3da2f824	0.07957485
33	0xbde66656	-0.11249988
34	0x3e0a093b	0.13480084
35	0xbd5d9ad5	-0.054102737
36	0x3e0fc1b3	0.14038734
37	0xbe162834	-0.14663774
38	0x3ceadfd6	0.028671186
39	0xbd7b6749	-0.061377797
40	0x3c79b328	0.015240468
41	0x3dd4d282	0.10391714
42	0xbdf899e7	-0.121387295
43	0x3dab8db1	0.08376635
44	0xbe234a54	-0.15946323
45	0xbe36b689	-0.17843069
46	0xbdca1001	-0.09866334
47	0x3e401326	0.18757305
48	0x3e39a4ba	0.18129244
49	0x3ddd9d2f	0.10820996
50	0x3db0db09	0.08635528
51	0xbdf0d098	-0.11758536
52	0x3db690e5	0.08914355
53	0xbe84a432	-0.2590652
54	0x3e1904f1	0.14943291
55	0x3d637d09	0.055539165
56	0x3d89251d	0.06696532
57	0x3dc31527	0.09525519
58	0xbe6552c5	-0.22394855
59	0xbd3310ff	-0.04371738
60	0xbd522d93	-0.051312994
61	0x3d1512ea	0.03639499
62	0xbd597b07	-0.053095844
63	0xbe25b623	-0.16182761
64	0x3e91e8e2	0.28497988
65	0x3e029ded	0.12755556
66	0xbdc5bf8b	-0.096556745
67	0xbe96f6e5	-0.2948524
68	0x3b5da434	0.0033819797
69	0x3e5ee2ee	0.21766254
70	0xbe08c44e	-0.13356134
71	0x3e046a1c	0.12931103
72	0xbdeeaa32	-0.11653556
73	0xbd91a6f7	-0.07111924
74	0x3e2a1e22	0.16613057
75	0xbe3e4fe0	-0.18585157
76	0xbbfce2dd	-0.007717474
77	0xbcfaaf48	-0.030601159
78	0x3e12ab0f	0.14323066
79	0xbd882e61	-0.06649471
80	0xbdcd2098	-0.100159824
81	0xbc3c8774	-0.011506904
82	0xbd9a3f1e	-0.0753157
83	0x3e164d90	0.14678025
84	0x3e056160	0.13025427
85	0xbe964568	-0.29349828
86	0xbc7c768c	-0.015409123
87	0xbe4ade00	-0.19811249
88	0xbd36b513	-0.04460628
89	0x3cd16ece	0.025565531
90	0xbdee49d8	-0.11635178
91	0xbdaabf83	-0.08337309
92	0xbe45b880	-0.19308662
93	0xbe5de9d0	-0.21671224
94	0xbdfcdf95	-0.123473324
95	0xbd68a004	-0.056793228
96	0x3cce8ce7	0.025213672
97	0xbd07f5c7	-0.033193376
98	0xbe849ad3	-0.25899372
99	0xbd990ff5	-0.07473747
100	0xbdd22136	-0.10260241
101	0xbe1053f1	-0.14094521
102	0x3b88f275	0.0041792938
103	0x3e0581d8	0.13037813
104	0x3c49ecb2	0.012324499
105	0x3d8c489d	0.068497874
106	0xbcc91b5f	-0.024549184
107	0xbe580ae8	-0.2109791
108	0x3e00a773	0.12563877
109	0x3e6c3706	0.23067865
110	0x3df9da2d	0.12199817
111	0x3e8b347b	0.27188477
112	0x3d8327da	0.064040855
113	0x3d4f238b	0.050571006
114	0x3e834bbc	0.25643718
115	0xbd2eded1	-0.042692963
116	0xbd9e3e5e	-0.07726739
117	0x3de98958	0.11403149
118	0xbe092055	-0.1339124
119	0x3c866f2e	0.016410436
120	0xbbe0a895	-0.006856034
121	0xbe57d847	-0.21078597
122	0x3ca8d6f5	0.020610312
123	0xbdbc41ef	-0.09192263
124	0xbc5cb0d2	-0.013469892
125	0x3e2e6abb	0.17032902
126	0xbdd1cd0c	-0.10244188
127	0xbd2f161e	-0.042745702
128	0x3dd6f199	0.104953
129	0x3de95f3f	0.1139512
130	0x3dd77deb	0.10522064
131	0x3e0f3cb0	0.13987994
132	0xbc7600a3	-0.0150148
133	0xbda37175	-0.079806246
134	0x3e4567fa	0.19277945
135	0xbe86bbb6	-0.26315087
136	0x3e9d5a9b	0.3073319
137	0x3e1380e5	0.14404638
138	0xbd5c747f	-0.053822037
139	0x3d8d92f4	0.06912795
140	0x3ce69fc7	0.02815236
141	0xbdf0c522	-0.1175635
142	0xbdb0f365	-0.08640174
143	0xbbca1213	-0.0061667054
144	0xbe68b604	-0.22725683
145	0xbda557e2	-0.08073403
146	0xbe00bc76	-0.12571892
147	0xbbe8d50d	-0.0071054758
148	0xbdb73b18	-0.08946818
149	0x3e6a65c4	0.22890383
150	0x3dd4ed64	0.10396841
151	0xbd8bd1d9	-0.06827135
152	0x3e2f99a6	0.17148456
153	0x3dbca9c0	0.09212065
154	0x3dc7637c	0.09735772
155	0x3e1a1320	0.15046358
156	0x3e09c491	0.1345389
157	0x3e39d8c9	0.18149103
158	0x3e17ba5f	0.14817189
159	0x3e0a4e34	0.13506395
160	0x3e2e8dcf	0.17046283
161	0xbcbbc8ed	-0.022922957
162	0x3e2a3fb7	0.16625868
163	0xbd57ae7b	-0.052656632
164	0xbe68fc0b	-0.22752397
165	0xbd09b672	-0.03362126
166	0xbe2c714f	-0.16840099
167	0x3c5a827e	0.013336776
168	0x3de0078d	0.1093894
169	0xbe084ab4	-0.13309747
170	0xbbcc8fad	-0.0062427134
171	0xbe5c8a2c	-0.21537083
172	0x3df100e5	0.11767749
173	0x3d93c21e	0.07214759
174	0x3e2733fe	0.16328427
175	0x3e2b5b86	0.16734132
176	0xbd221ad4	-0.039576367
177	0xbd071f8e	-0.032989077
178	0x3e850db6	0.25987023
179	0x3e8f8955	0.28034464
180	0xbde24c37	-0.11049693
181	0x3e59b1fb	0.212593
182	0x3e0460e3	0.12927584
183	0x3e043b16	0.12913164
184	0x3d67985b	0.056541782
185	0x3b74a783	0.003733129
186	0x3c976808	0.018482223
187	0x3db2d5e2	0.08732201
188	0xbe2b33ed	-0.16719027
189	0x3d813380	0.06308651
190	0xbcaa1972	-0.020764086
191	0xbea1b1d8	-0.31580997
192	0xbdb61083	-0.08889868
193	0xbe00e2db	-0.12586538
194	0x3e4b46ec	0.19851273
195	0x3e18c590	0.14919114
196	0x3e17337f	0.14765738
197	0x3e31435c	0.17310852
198	0x3e3b4a2f	0.18290018
199	0x3cea2296	0.028580945
200	0x3e62448e	0.22096464
201	0x3c5524b5	0.01300924
202	0x3c8c0a00	0.017094612
203	0x3dae26bd	0.085034825
204	0xbd9c5a51	-0.07634414
205	0xbcea68b6	-0.028614383
206	0x3dbe6e7c	0.09298417
207	0x3e9113ea	0.28335506
208	0xbe30f77e	-0.17281911
209	0xbd883bd6	-0.06652038
210	0x3e322263	0.1739593
211	0xbd31bb55	-0.043391544
212	0xbe5fcc8b	-0.2185537
213	0x3d30299d	0.043008436
214	0x3e1fcbbd	0.15605064
215	0x3e9187b6	0.28423852
216	0x3db66f70	0.08907974
217	0xbdf1be19	-0.118038364
218	0x3da1d35d	0.079016425
219	0x3ced061d	0.02893358
220	0x3d9dc2b7	0.077031545
221	0xbd340f70	-0.043960035
222	0xbe40dc55	-0.1883405
223	0xbd077900	-0.03307438
224	0x3e17e9bc	0.14835256
225	0x3dca17b5	0.09867803
226	0x3e1215bb	0.14266102
227	0x3e62e7b9	0.22158708
228	0xbd9e92a8	-0.07742816
229	0x3dfbe008	0.1229859
230	0x3e046f78	0.12933147
231	0xbe3f6db9	-0.186942
232	0xbd9b8136	-0.075930044
233	0x3e2f4731	0.17117001
234	0xbc088cd9	-0.008334362
235	0xbd9d857e	-0.07691477
236	0x3d81fa0f	0.06346523
237	0x3db6e35d	0.08930085
238	0xbdc80d3c	-0.09768149
239	0xbd97b5b9	-0.07407708
240	0x3e2fe09c	0.17175525
241	0xbe57aebd	-0.21062751
242	0xbeb44993	-0.35212383
243	0xbdab5033	-0.08364906
244	0x3e4051d5	0.18781216
245	0xbe8cfe51	-0.27537778
246	0xbe184e45	-0.14873607
247	0x3ac22169	0.0014810982
248	0xbe8c7905	-0.2743608
249	0xbe323a5b	-0.17405073
250	0x3d9c104d	0.076202966
251	0x3d578736	0.05261918
252	0x3d176dc3	0.03696991
253	0xbe51ac16	-0.20475802
254	0xbe042685	-0.12905319
255	0xbda5b99c	-0.08092043

rnn/tf_lite_lstm_cell/cell_to_forget_w f4 [64, 64]
0	0x3d8dfef1	0.06933392
1	0x3d767a73	0.06017537
2	0xbe956d82	-0.2918511
3	0xbd0e18dd	-0.03469168
4	0x3d64ca2e	0.055856876
5	0xbddebe34	-0.10876122
6	0xbe74c700	-0.23904037
7	0x3e84c6ba	0.25932866
8	0x3dca7e8b	0.098874174
9	0x3e4695fc	0.19393152
10	0x3c3eb3e7	0.011639572
11	0xbd8a9cba	-0.067681745
12	0x3e7c7e46	0.24657544
13	0x3d9b54f7	0.07584565
14	0x3db8cb2e	0.090231284
15	0x3e4af099	0.19818343
16	0xbe0ca139	-0.13733377
17	0xbcb66ad2	-0.022267733
18	0x3e3f9051	0.18707396
19	0xbd2b1da5	-0.041776318
20	0xbc031e81	-0.008002878
21	0x3e7d8bc2	0.24760345
22	0x3d51d836	0.051231585
23	0xbe55fc34	-0.20896989
24	0x3e28db7e	0.1648998
25	0x3cff1893	0.031139648
26	0xbd6ba1da	-0.0575274
27	0x3dc8fb13	0.098135136
28	0x3e20504c	0.15655631
29	0x3e378116	0.17920336
30	0x3dadcbfd	0.08486173
31	0xbc89a4da	-0.01680224
32	0x3e3ee9ff	0.1864395
33	0x3e947975	0.28998914
34	0x3cd8874f	0.026431708
35	0xbd9a5017	-0.07534807
36	0xbdb769ed	-0.089557506
37	0x3e89b4a3	0.26895627
38	0x3e35ba71	0.17746903
39	0xbdfc7374	-0.123267084
40	0xbd4f71a1	-0.050645474
41	0x3def490e	0.11683856
42	0x3cef4cbe	0.029211398
43	0x3d4b808c	0.04968314
44	0xba884280	-0.0010395795
45	0x3d813d03	0.06310465
46	0x3e0cb0bc	0.13739294
47	0x3dc35327	0.095373444
48	0xbdeb2fd4	-0.11483732
49	0xbe9df96a	-0.3085435
50	0xbdec0194	-0.115237385
51	0xbda7dd7a	-0.0819654
52	0xbe380dfb	-0.17974083
53	0x3e12fac7	0.14353476
54	0xbe4fefc1	-0.20306303
55	0xbd83ab2e	-0.06429134
56	0x3e2cc220	0.16870928
57	0xbe097447	-0.13423263
58	0x3e944dce	0.2896561
59	0xbe7e393d	-0.24826522
60	0xbc9cc7af	-0.019138185
61	0xbd037a20	-0.03209889
62	0xbcb7201e	-0.022354182
63	0x3d2722ff	0.04080486
64	0x3da0d08f	0.078522794
65	0x3e2dac16	0.16960177
66	0x3e1df30e	0.1542475
67	0xbd98fc41	-0.074699886
68	0x3e2aa84e	0.16665766
69	0x3e3ee463	0.1864181
70	0xbdc52d22	-0.09627749
71	0xbe8e8123	-0.27832898
72	0xbe039570	-0.12849975
73	0x3e0e31b8	0.13886154
74	0x3de74183	0.11291792
75	0x3e0c7eea	0.13720289
76	0xbe7e079c	-0.2480759
77	0x3d5f045b	0.054447513
78	0xbde14df5	-0.11001197
79	0xbdd98fa8	-0.106231034
80	0x3db12808	0.086502135
81	0xbd70493a	-0.058663584
82	0x3e58a159	0.21155299
83	0x3d044a5a	0.03229747
84	0xbdc16a74	-0.094441324
85	0xbe6365d4	-0.22206813
86	0xbe7cdc6a	-0.24693456
87	0x3e05bbf4	0.1305998
88	0x3e005f14	0.1253627
89	0x3e2a6ccc	0.16643065
90	0xbde98e7e	-0.11404131
91	0x3e0ba1df	0.13635968
92	0x3e0ed9ac	0.13950223
93	0xbe46c281	-0.19410135
94	0xbe7b29c3	-0.2452765
95	0xbe8583a0	-0.26076984
96	0xbd5adccb	-0.05343322
97	0x3b86e3a8	0.004116494
98	0xbd21b3da	-0.03947816
99	0x3c0100d9	0.007873737
100	0xbd1fd9a6	-0.039025925
101	0xbe022410	-0.12709069
102	0x3d806981	0.06270123
103	0x3dbddd50	0.09270728
104	0x3e34cb63	0.17655711
105	0xbd66510a	-0.05622963
106	0x3c8501ad	0.01623615
107	0x3c28cd26	0.010302817
108	0x3b70b291	0.0036727528
109	0xbd18934f	-0.03724986
110	0xbd86b50c	-0.06577501
111	0xbdec5bed	-0.11540971
112	0xbe1ae5b1	-0.15126683
113	0x3d503d42	0.05083967
114	0x3e27768d	0.16353817
115	0xbe5da280	-0.2164402
116	0x3dcfe2eb	0.10150703
117	0x3df67173	0.120333575
118	0xbe188d53	-0.14897661
119	0xbdd74888	-0.10511881
120	0x3dd9830f	0.106207006
121	0xbe178959	-0.14798488
122	0x3e0bca35	0.13651355
123	0xbdd8164a	-0.10551126
124	0xbd16d9ea	-0.036828913
125	0x3e1bd879	0.15219297
126	0x3e543370	0.20722747
127	0xba38e098	-0.000705251
128	0xbd3a405a	-0.045471527
129	0x3e4ed4ca	0.2019836
130	0x3de25a50	0.11052382
131	0x3bedcad5	0.0072568455
132	0x3e070d98	0.1318878
133	0xbd9efbbe	-0.0776286
134	0x3a79c496	0.000952789
135	0x3d7a23d7	0.061069336
136	0xbd965171	-0.073397525
137	0x3e01d060	0.12677145
138	0xbd513da6	-0.051084183
139	0x3e115b46	0.14194974
140	0xbe0dbb46	-0.1384097
141	0xbdb9589a	-0.090501025
142	0x3d069eea	0.032866396
143	0xbd2f44b0	-0.042790115
144	0xbd514e13	-0.051099848
145	0x3d669adf	0.05630004
146	0x3df16412	0.11786665
147	0xbe91b3f9	-0.2845762
148	0x3ca9649b	0.020677855
149	0xbd036c54	-0.03208573
150	0xbe6d3a51	-0.23166777
151	0xbe4136fa	-0.18868628
152	0xbd9ba033	-0.07598915
153	0x3e549034	0.20758134
154	0xbdbdd02e	-0.09268223
155	0xbe02a3f1	-0.12757851
156	0x3d4d11da	0.050065853
157	0xbdbe5cc3	-0.09295037
158	0x3c62955c	0.013829555
159	0xbdbef555	-0.09324137
160	0xbdeaa0fc	-0.114564866
161	0xbe48008d	-0.1953146
162	0x3e205f17	0.15661274
163	0xbd07ced9	-0.03315625
164	0xbd9c5316	-0.07633035
165	0x3da3ffc2	0.08007766
166	0x3e4654d6	0.193683
167	0xbe24c215	-0.16089661
168	0xbe15b0d9	-0.14618243
169	0xbdc2cb82	-0.09511472
170	0xbd7fc903	-0.06244756
171	0xbdbd7d02	-0.09252359
172	0xbe7caeba	-0.24676028
173	0x3d910553	0.07081094
174	0xbd0411c9	-0.032243524
175	0x3e846cbc	0.25864208
176	0x3e88b193	0.26697978
177	0x3dc6dba6	0.09709863
178	0xbe1bd970	-0.15219665
179	0x3e0692f3	0.13141994
180	0x3c486b5e	0.01223263
181	0x3d60b552	0.05486042
182	0xbe3b88ae	-0.18313858
183	0xbe81f014	-0.25378478
184	0xbe0d17a3	-0.13778548
185	0x3d44ff42	0.048094995
186	0xbe66bed9	-0.2253374
187	0x3df45c5c	0.11931679
188	0xbca84f9a	-0.02054577
189	0x3e05609e	0.13025138
190	0x3dac6689	0.084179945
191	0x3d0b7c23	0.034053933
192	0xbdfa01ce	-0.122073755
193	0xbb973421	-0.0046143685
194	0xbccd8402	-0.02508736
195	0x3e1f0eda	0.15533009
196	0xbe3c071c	-0.18362087
197	0xbd9b56b7	-0.07584899
198	0x3e7d96a6	0.24764499
199	0x3d9e5797	0.0773155
200	0xbd7c09cd	-0.061532784
201	0xbe008ab5	-0.12552913
202	0x3dfa5ea9	0.12225086
203	0xbd06e5a5	-0.03293385
204	0x3e4c5f72	0.19958284
205	0x3cf160cd	0.029465104
206	0xbe4ee67b	-0.20205109
207	0x3d4857dc	0.048911914
208	0x3d712f2f	0.05888289
209	0xbde430b8	-0.11142105
210	0xbd4cb7be	-0.049979918
211	0x3e33c5f1	0.17555977
212	0xbb204d8a	-0.002446028
213	0x3e554ae7	0.20829354
214	0xbde593d5	-0.11209837
215	0xbdfca841	-0.123367794
216	0xbe16dfb2	-0.1473377
217	0xbe12a8e1	-0.14322235
218	0xbbc8a930	-0.0061236843
219	0x3e22bfe5	0.15893514
220	0x3d401ebd	0.046904314
221	0x3d91f689	0.07127101
222	0xbd063a5c	-0.0327705
223	0x3cdb4f01	0.02677107
224	0x3dd8a869	0.10578997
225	0x3e9c9a27	0.3058636
226	0xbdde5421	-0.1085589
227	0x3dcfe424	0.10150936
228	0x3dbfea76	0.09370892
229	0x3e5041f6	0.20337662
230	0x3d84af26	0.064787194
231	0x3db116d8	0.08646935
232	0xbe4148e8	-0.18875468
233	0x3dfc6f4b	0.12325915
234	0xbe9e29c2	-0.30891234
235	0x3d0061f4	0.031343415
236	0xbcc0d630	-0.023539633
237	0xbdb2a491	-0.08722795
238	0xbda33df9	-0.07970805
239	0xbe37a20f	-0.17932914
240	0x3d51cef7	0.051222768
241	0xbdf6df7f	-0.12054347
242	0xbe4f7683	-0.20260052
243	0x3e1ac002	0.15112308
244	0x3e7b1ede	0.24523494
245	0xbe24a1eb	-0.16077392
246	0x3da77696	0.08176915
247	0xbe0188f2	-0.12649897
248	0xbdc30c8a	-0.09523876
249	0x3cc95303	0.024575716
250	0x3daa0124	0.08300999
251	0xbe1a0529	-0.15041031
252	0x3d5b3076	0.053513013
253	0x3cc8b399	0.024499701
254	0xbd6c29df	-0.05765712
255	0x3e3cdff5	0.18444808

rnn/tf_lite_lstm_cell/cell_to_input_w f4 [64, 64]
0	0x3e5809b6	0.21097454
1	0xbd701671	-0.05861515
2	0xbd0dbcfc	-0.034604058
3	0xbe0d172d	-0.13778372
4	0x3e30f6eb	0.17281692
5	0xbcbb47f1	-0.022861453
6	0xbd3d8dc5	-0.04627778
7	0x3bc33101	0.0059567695
8	0x3e0de156	0.1385549
9	0xbda20fb2	-0.0791315
10	0x3c8466df	0.016162334
11	0xbcbbca28	-0.022923544
12	0xbd47dd25	-0.048794884
13	0xbe4d7aa7	-0.2006632
14	0x3e047f65	0.12939222
15	0x3decb60c	0.1155816
16	0xbe05125f	-0.1299529
17	0xbdc0d625	-0.09415845
18	0xbe4c8c2c	-0.19975346
19	0xbdbd7f64	-0.092528135
20	0xbd108b37	-0.035289016
21	0xbd1d2099	-0.038361166
22	0xbe80a170	-0.25123167
23	0xbdbac8ee	-0.091203555
24	0xbe061eee	-0.13097736
25	0x3e041c7e	0.12901494
26	0xbdc99e0e	-0.098446
27	0xbc2a93a2	-0.010411175
28	0xbe3a0ce1	-0.18168975
29	0xbda42b12	-0.080160275
30	0xbd3db6a1	-0.046316747
31	0x3e1ca268	0.15296328
32	0x3ca53b97	0.020170016
33	0xbe728b1e	-0.23685881
34	0x3d90de1e	0.070736155
35	0xbdd5dfc5	-0.10443071
36	0x3de1be16	0.11022584
37	0x3e82da5d	0.25557223
38	0xbc9bd7b4	-0.019023754
39	0x3c6e0d55	0.014529546
40	0x3d3a9b19	0.04555807
41	0xbe1eb2ec	-0.15497941
42	0x3e5dc93f	0.216588
43	0x3d741191	0.059587065
44	0x3e5729ea	0.21012083
45	0x3e2490c5	0.1607085
46	0x3e5480c3	0.20752244
47	0xbea3d0e5	-0.3199531
48	0xbdabdb06	-0.08391385
49	0x3e331557	0.17488609
50	0x3da40183	0.08008101
51	0x3e84a1cf	0.259047
52	0x3df8000a	0.121093825
53	0xbc2b4232	-0.010452794
54	0x3db93fa6	0.09045343
55	0x3e032936	0.1280869
56	0xbe4678c9	-0.19382013
57	0xbd1c4d08	-0.0381594
58	0xbdfd2861	-0.12361217
59	0x3d2aeb54	0.041728333
60	0x3d83a47d	0.06427858
61	0xbe237a9e	-0.15964743
62	0x3ce8089d	0.02832442
63	0x3e1388d8	0.1440767
64	0xbbac58a3	-0.0052595898
65	0x3e8422aa	0.25807697
66	0xbd997e0b	-0.07494744
67	0x3b1c2d5e	0.0023830752
68	0xbe293b33	-0.16526489
69	0xbeabc5c3	-0.33549318
70	0xbded5513	-0.11588492
71	0x3db9409a	0.09045525
72	0x3d1a3ecc	0.037657544
73	0x3d597b64	0.05309619
74	0x3d8b3378	0.06796926
75	0x3d37b7e4	0.044853106
76	0x3e0d5079	0.13800229
77	0xbe325eeb	-0.17419021
78	0xbe81e82e	-0.25372452
79	0xbd0fb78f	-0.035087164
80	0x3e0b1b48	0.13584626
81	0x3dbe4bfe	0.09291838
82	0x3e9bfd7b	0.30466828
83	0xbe4e0256	-0.20118079
84	0xbdd0e250	-0.10199416
85	0x3dbda324	0.09259632
86	0x3eb07af9	0.3446882
87	0x3d6b9543	0.057515394
88	0xbd6717b2	-0.056419082
89	0x3e01e71e	0.1268582
90	0xbdfa0876	-0.12208645
91	0x3c276f14	0.010219354
92	0xbe47bd37	-0.19505773
93	0x3e664d30	0.22490382
94	0x3e10aee5	0.14129217
95	0xbd8e7626	-0.06956129
96	0xbc426e81	-0.0118671665
97	0x3d483944	0.048882738
98	0x3d1150cb	0.03547744
99	0xbe4887a5	-0.19582994
100	0x3e3f4f78	0.18682659
101	0x3e3001e7	0.17188226
102	0x3e5a59c9	0.21323313
103	0xbd8e8169	-0.06958277
104	0xbdaeddb4	-0.0853838
105	0xbda8a312	-0.08234228
106	0x3e3270aa	0.1742579
107	0x3d96bd6f	0.0736035
108	0xbe8754a2	-0.26431757
109	0xbd98f12e	-0.074678764
110	0xbdcb0d0d	-0.099145986
111	0xbe7ff8b2	-0.24997213
112	0x3e381e26	0.1798025
113	0x3dc89957	0.09794872
114	0xbdc89b1e	-0.09795211
115	0xbd09f68a	-0.033682384
116	0x3cee7729	0.029109554
117	0x3a89090f	0.001045497
118	0xbdd3546d	-0.10318837
119	0xbe3d51b8	-0.18488204
120	0xbd3285df	-0.0435847
121	0x3d586f9e	0.05284082
122	0x3c3392ae	0.010960264
123	0xbd74ed96	-0.059796892
124	0x3beae480	0.0071683526
125	0x3e8c0a41	0.27351573
126	0xbe6589ca	-0.22415844
127	0xbdf4b250	-0.11948073
128	0x3e1fd8a3	0.15609984
129	0xbe1d3683	-0.15352826
130	0xbda49fce	-0.08038293
131	0x3d418d22	0.047253735
132	0xbdc11364	-0.094275266
133	0xbe0b980e	-0.13632223
134	0xbe436a2f	-0.19083475
135	0x3e3028c6	0.17203054
136	0xbe70a96b	-0.23502128
137	0x3da4aad3	0.08040395
138	0xbb3e1910	-0.0029006638
139	0x3e68cdb1	0.22734715
140	0x3cf8a32f	0.03035125
141	0xbd33175f	-0.04372346
142	0x3e0410eb	0.12897079
143	0xbdd022ab	-0.101628624
144	0xbd2ee569	-0.04269925
145	0x3a8b49b0	0.0010626819
146	0x3bfce80b	0.0077180914
147	0xbdb7044d	-0.08936367
148	0x3e077e1f	0.13231705
149	0x3d5c5b8c	0.053798243
150	0xbdbca27e	-0.092106804
151	0x3e198888	0.14993489
152	0x3e320d95	0.17387994
153	0xbe6259e1	-0.22104599
154	0x3c351940	0.011053383
155	0xbe7e7a5f	-0.24851368
156	0xbe4da8a2	-0.2008386
157	0xbd4b57ce	-0.049644284
158	0x3e350ff9	0.17681874
159	0xbe2bb0c8	-0.16766655
160	0xbdcd0e63	-0.1001251
161	0x3e252f8d	0.1613142
162	0xba0cbb2d	-0.00053684675
163	0xbe202434	-0.1563881
164	0xbd8ff1ec	-0.07028565
165	0xbe06fe3c	-0.1318292
166	0x39dc851e	0.0004206085
167	0x3db01a78	0.085987985
168	0xbd2756db	-0.040854316
169	0x3e3c4155	0.18384297
170	0x3e13c733	0.14431457
171	0xbad4bf7d	-0.0016231384
172	0xbe000515	-0.12501939
173	0xbd98c447	-0.07459312
174	0xbd802050	-0.06256163
175	0xbe62010b	-0.2207071
176	0xbde792f2	-0.113073245
177	0x3d64b415	0.055835802
178	0x3dddec58	0.108360946
179	0xbd19ccc3	-0.03754879
180	0xbe26d4b3	-0.16292076
181	0x3c66b9a6	0.014082348
182	0x3bf8234c	0.007572567
183	0xbe028e38	-0.12749565
184	0x3e9fc361	0.3120375
185	0xbe21885a	-0.1577467
186	0x3db6b287	0.0892077
187	0x3d611975	0.05495592
188	0xbd4f7015	-0.050644
189	0x3e0db898	0.13839948
190	0xbe363f9c	-0.17797703
191	0xbe51c288	-0.20484364
192	0xbd186d9c	-0.037213907
193	0xbdeda91b	-0.1160452
194	0x3c0d28bf	0.008615672
195	0xbdc29ba8	-0.09502345
196	0xbbb3e18b	-0.0054895333
197	0x3e226ab6	0.1586102
198	0x3cc2dcc8	0.023786917
199	0xbe6a24df	-0.22865628
200	0x3d4ef21b	0.05052386
201	0xbe6164df	-0.22011136
202	0x3d2cd316	0.042193495
203	0xbcd62d29	-0.02614458
204	0x3e0a4ce2	0.13505891
205	0x3d83b8ff	0.064317696
206	0xbe849c09	-0.25900295
207	0x3dc18331	0.09448851
208	0x3dea0b46	0.114279315
209	0x3d45ef58	0.04832396
210	0x3dc09897	0.09404104
211	0x3d827d05	0.06371502
212	0xbca3be03	-0.019988066
213	0x3c032dd9	0.008006536
214	0xbe1eb2cf	-0.15497898
215	0xbe216c42	-0.15763953
216	0xbca0362f	-0.019557087
217	0x3e0598a7	0.13046513
218	0x3dba2c64	0.09090498
219	0x3e1013dc	0.14070076
220	0x3dbee831	0.09321631
221	0xbe533863	-0.20626979
222	0xbe3e073e	-0.1855745
223	0x3d8ea32b	0.069647156
224	0xbd62ff02	-0.055418976
225	0x3e79c9b2	0.24393347
226	0x3dfe381e	0.12413047
227	0x3b937f92	0.0045012916
228	0x3df4e22b	0.119572006
229	0xbd21a517	-0.039464083
230	0x3d57af61	0.05265749
231	0x3e4cc06f	0.19995283
232	0xbe0a29b6	-0.13492474
233	0xbdab19fe	-0.08354567
234	0x3d0d59bb	0.0345094
235	0xbddf8d7f	-0.1091566
236	0x3e529e81	0.20568277
237	0x3e13f327	0.14448224
238	0xbcba857b	-0.022768727
239	0xbe8e66cb	-0.278128
240	0x3d6abac8	0.057307035
241	0xbe505c80	-0.20347786
242	0xbe28decd	-0.16491242
243	0x3e492525	0.19643076
244	0xbe64e835	-0.22354205
245	0x3e89594c	0.2682594
246	0x3ca3d1db	0.019997528
247	0x3e1afed2	0.15136269
248	0x3d1bff86	0.038085483
249	0xbdaa0682	-0.083020225
250	0x3e604231	0.2190025
251	0xbbdbc0ac	-0.006706318
252	0xbe02d98b	-0.12778299
253	0x3d63d806	0.055625938
254	0xbcddaa70	-0.02705881
255	0x3e0a6a48	0.13517106
